mlp_model_transient.pth (torch, 94711 bytes, 6 tensors)

fc1.weight f4 [100, 178]
0	0x3d9de7a7	0.077102
1	0xbd99a578	-0.07502264
2	0x3d9c2e95	0.07626072
3	0x3c7985f4	0.015229691
4	0x3cf088d2	0.029362116
5	0x3cac36e1	0.021022262
6	0x3dab5bdb	0.083671294
7	0xbd3fe70a	-0.046851195
8	0x3cf64805	0.030063638
9	0x3d18eb7b	0.037333947
10	0xbd16023f	-0.036623236
11	0x3d70aeb0	0.058760345
12	0x3d29c8b2	0.041451164
13	0x3bc1c6e8	0.005913604
14	0xbcbc5c5c	-0.02299326
15	0xbd4c30f8	-0.049851388
16	0xbd8cf23f	-0.06882142
17	0xbc12691d	-0.008936194
18	0xbd581a8e	-0.0527597
19	0x399aef7d	0.00029551602
20	0xbd3653e1	-0.044513587
21	0x3d1e29a5	0.038613934
22	0x3dc061b8	0.09393638
23	0xbd0ad7f3	-0.03389735
24	0x3d6c6337	0.057711806
25	0xbc28b905	-0.010298018
26	0x3b139614	0.0022519873
27	0x3d2dc26e	0.04242175
28	0x3d6c8b06	0.05774977
29	0x3d1b5c3e	0.037929766
30	0xbc875186	-0.016518366
31	0x3dbe30bd	0.0928664
32	0x3d2268d0	0.03965074
33	0xbceaf118	-0.028679416
34	0xbbb8e824	-0.0056429077
35	0xbc0fdc2f	-0.008780523
36	0xbcec31e2	-0.02883238
37	0x3cd2dafc	0.025739186
38	0x3da23c9c	0.079217166
39	0x3d70752a	0.058705486
40	0x3d769d34	0.060208514
41	0xbc8c277e	-0.017108675
42	0x3da932e2	0.08261658
43	0x3d2b1585	0.04176857
44	0x3c924862	0.01785678
45	0xbc483894	-0.0122205205
46	0xbd70276a	-0.05863134
47	0x3c4b1363	0.012394759
48	0x3cd3bc93	0.025846755
49	0xbd4fd1da	-0.05073724
50	0x3a6f6273	0.00091317965
51	0x3c6f29ea	0.014597395
52	0xbce8f8a3	-0.028438872
53	0xbd0326af	-0.032019313
54	0x3c13cfae	0.009021683
55	0x3d392f62	0.045211203
56	0x3d4e93b7	0.05043384
57	0x3d3a7ec3	0.045531046
58	0x3d192cad	0.03739612
59	0xbac06b09	-0.0014680336
60	0xbd1e2b7f	-0.0386157
61	0x3cfd54a8	0.030924156
62	0xbbe70bc5	-0.0070509636
63	0x3d1b0dc0	0.03785491
64	0x3a7953fe	0.0009511112
65	0x3cfb0e65	0.030646512
66	0x3ce4ef41	0.027946116
67	0xbcbf91af	-0.023384897
68	0x3d55a004	0.052154556
69	0xbb0b467c	-0.0021251729
70	0xbd7168e6	-0.05893793
71	0xbd1b6da5	-0.037946362
72	0xbdb453f9	-0.08805079
73	0x3d732d2b	0.059369247
74	0x3bffc479	0.007805404
75	0x3d1db562	0.03850306
76	0xbd577376	-0.052600347
77	0x3d981d27	0.07427435
78	0xbdc246c2	-0.09486152
79	0x3bbcf668	0.0057666786
80	0xbbb31fe3	-0.0054664477
81	0xbd12ad8c	-0.03581004
82	0xbd377990	-0.044793665
83	0x3d242731	0.04007644
84	0x3d105b50	0.035243332
85	0x3c730c4b	0.014834474
86	0xbd6f0204	-0.05835153
87	0x3d109507	0.035298374
88	0xbbd14164	-0.006385969
89	0xbd91cb67	-0.07118874
90	0x3d08f054	0.03343232
91	0xbd99c03c	-0.07507369
92	0x3d4e971e	0.050437085
93	0xbc084c70	-0.008319005
94	0x3d9b3e98	0.07580298
95	0x3d1dccde	0.038525455
96	0x3da94790	0.082656026
97	0xbcbb637c	-0.022874586
98	0x3d82a2c5	0.06378702
99	0xbd8309e3	-0.0639837
100	0xbd26a3b4	-0.040683463
101	0xbcc8b64d	-0.02450099
102	0x3d88c299	0.066777416
103	0x3dad450d	0.08460436
104	0x3d9e7d34	0.07738724
105	0x3d57f565	0.05272426
106	0x3d2f6ebb	0.04283021
107	0xbcb1ea34	-0.021718122
108	0xbd88d7b6	-0.066817686
109	0x3c877d61	0.016539278
110	0x3d168442	0.036747225
111	0xbd356156	-0.04428228
112	0x3c490c98	0.012271069
113	0xbdb6ade8	-0.08919889
114	0x3d0f5af7	0.03499886
115	0xbbf2fb9e	-0.007415249
116	0x3a26e490	0.0006366456
117	0xbd4884e8	-0.048954874
118	0xbd2357d9	-0.0398787
119	0xbd79461a	-0.06085787
120	0x3d1e3c7a	0.038631894
121	0x3cccf93c	0.025021188
122	0x3ce503fc	0.027956001
123	0x3d32664d	0.043554593
124	0xbd6a8c19	-0.057262514
125	0x3d362a8f	0.04447418
126	0x3cae082b	0.02124413
127	0xbc5ab2b3	-0.013348269
128	0xbdad5972	-0.08464326
129	0xbc28fae0	-0.0103137195
130	0x3c203aac	0.009779613
131	0xbd114bdf	-0.035472747
132	0xbc92319e	-0.017845925
133	0x3bb5ef5c	0.0055522155
134	0xbd956883	-0.07295325
135	0x3d8dd824	0.06925991
136	0xbccd2539	-0.025042163
137	0x3cab646a	0.020921905
138	0x3c0a3350	0.008435085
139	0xbdbf4e11	-0.09341062
140	0xbd812739	-0.06306309
141	0x3d191202	0.03737069
142	0xbc6bdf98	-0.014396571
143	0xbd7e71b3	-0.06212015
144	0xbda8fdf0	-0.0825156
145	0xbd8ff674	-0.07029429
146	0x3d81ebab	0.06343778
147	0x3d84804b	0.064697824
148	0x3d1695b0	0.036763847
149	0x3d364352	0.044497795
150	0x3d6efd1e	0.05834686
151	0xbce43321	-0.027856411
152	0x3d34b663	0.04411925
153	0x3d10b9b1	0.03533334
154	0xbd574af0	-0.0525617
155	0xbd63d7cf	-0.055625733
156	0x3cf4640d	0.029832864
157	0x3d338322	0.04382623
158	0xbd9f1125	-0.07766942
159	0xbd8d6412	-0.069038525
160	0xbd757945	-0.059930105
161	0xbcc65842	-0.024212006
162	0x3c8ce07d	0.017196888
163	0xbc5bbcbc	-0.013411697
164	0x3c4e192e	0.0125792455
165	0xbcff7e13	-0.031188047
166	0xbd73190b	-0.059350055
167	0x3dafe8e6	0.08589344
168	0xbd8f6d93	-0.070033215
169	0x3da71e51	0.08160079
170	0xbdb086c7	-0.08619457
171	0x3c7071d6	0.014675578
172	0x3d07a9d9	0.033120964
173	0xbd74bb68	-0.059749037
174	0x3cb6ca98	0.022313401
175	0xbd55b568	-0.052174956
176	0x3d36eedd	0.04466139
177	0xbd6571e6	-0.056016825
178	0x3c9f54e9	0.019449668
179	0x3c002c87	0.007823116
180	0xbbcd8318	-0.006271731
181	0xbc531d88	-0.012885459
182	0xbd100596	-0.035161577
183	0x3bb19e4e	0.0054204827
184	0xbd2f2c12	-0.042766638
185	0xbd0ec202	-0.03485299
186	0xbccb9825	-0.024852822
187	0x3c788c52	0.015170174
188	0xbd915034	-0.07095376
189	0xbd3999cd	-0.04531269
190	0xbd5e9c2a	-0.05434815
191	0xbc7d079a	-0.015443707
192	0x3d7befac	0.061507866
193	0x3d71bfc0	0.059020758
194	0x3da87a4b	0.082264505
195	0xbb1d7086	-0.0024023368
196	0xbd553260	-0.052049994
197	0xbd9b79db	-0.075916015
198	0xbc83f724	-0.016109057
199	0xbd691a8a	-0.056910075
200	0xbc26f287	-0.010189659
201	0xbd62773c	-0.055289492
202	0xbd8abc15	-0.06774155
203	0x3d2f4458	0.042789787
204	0xbd2393ab	-0.03993575
205	0x3c557002	0.013027193
206	0xbcc3bf61	-0.023894968
207	0x3d2cb0af	0.042160686
208	0xbd6ed505	-0.05830862
209	0x3d72c0b8	0.059265822
210	0xbcfa257c	-0.030535452
211	0xbbdfc95b	-0.0068294234
212	0xbb0c3a6c	-0.0021397127
213	0x3c89304d	0.016746664
214	0xbc734e35	-0.014850189
215	0xbc4d5da4	-0.012534533
216	0x3d3a9166	0.04554882
217	0x3cbafa2a	0.022824366
218	0xbcced6ef	-0.025248973
219	0xbd4f963e	-0.05068039
220	0xbd708d4d	-0.058728505
221	0x3bfa514b	0.0076390854
222	0x3cefef1a	0.029288817
223	0xba0b8454	-0.00053221476
224	0xbd318a24	-0.04334463
225	0x3d33dfe7	0.0439147
226	0xbd5b5943	-0.053551923
227	0x3d97ec76	0.07418148
228	0xbcc754e1	-0.024332466
229	0x3d6c39b8	0.057672232
230	0xbd4836c6	-0.04888036
231	0x3d864aed	0.0655726
232	0x3c9c5ac1	0.019086244
233	0xbd210968	-0.03931561
234	0xbbf1d3ed	-0.00738
235	0x3d67eecc	0.05662422
236	0x3dab3cb2	0.08361186
237	0x3d01e68d	0.03171401
238	0xbaf0265a	-0.0018321977
239	0xbcd9dc33	-0.026594257
240	0xbc819302	-0.01581717
241	0xbcd07fa9	-0.025451498
242	0xbd706d84	-0.058698192
243	0xbd69f667	-0.057119753
244	0x3d9815da	0.07426043
245	0x3d8f859f	0.07007908
246	0xbb8316b6	-0.00400051
247	0xbd4e25dd	-0.050329078
248	0xbcf88cb8	-0.030340537
249	0xbc97fa6e	-0.018552031
250	0xbc99a1a1	-0.018753828
251	0x3c8b91c4	0.01703728
252	0x3c4a2d82	0.0123399515
253	0x3d563223	0.052293908
254	0xbd1af9b4	-0.03783579
255	0xbbab3021	-0.0052242433

fc1.bias f4 [100]
0	0x3d01d166	0.03169384
1	0x3a76a1a0	0.0009408239
2	0xbc30e760	-0.010797352
3	0xbd5140d8	-0.05108723
4	0x3cafaa9d	0.02144366
5	0x3d3ae518	0.045628637
6	0x3d69345a	0.056934692
7	0x3d97ede5	0.07418422
8	0x3b070c0c	0.0020606546
9	0x3db09147	0.086214595
10	0x3d0d277c	0.034461483
11	0xbd556841	-0.052101377
12	0x3d94c7cc	0.07264671
13	0xbd18d968	-0.03731671
14	0xbd0b5758	-0.034018844
15	0x3bea4ec9	0.007150505
16	0x3d29a5ed	0.041418005
17	0xbd1a1cb1	-0.03762502
18	0x3d7c3860	0.0615772
19	0x3d90e006	0.07073979
20	0xbc4dbc34	-0.012557078
21	0xbd440226	-0.04785361
22	0x3d8ffa1c	0.070301265
23	0x3db907ba	0.09034677
24	0xbd6796ba	-0.05654023
25	0xbd3115e1	-0.043233756
26	0xbd04845f	-0.0323528
27	0xbd9d0589	-0.07667071
28	0xbd512abf	-0.051066156
29	0x3d49a04f	0.049225148
30	0xbd35fe8b	-0.044432204
31	0xbd760c65	-0.060070414
32	0xbc937499	-0.017999934
33	0x3d8bf78c	0.06834325
34	0x3d0cd2d6	0.034380756
35	0x3d2d8fee	0.04237359
36	0xbd3503ed	-0.044193197
37	0x3ccf4dd7	0.025305672
38	0x3d9cc3bc	0.07654521
39	0xbcc0b8b9	-0.023525583
40	0x3b7e7508	0.003882708
41	0xbd0682f1	-0.03283972
42	0x3d735516	0.059407316
43	0xbc6f3e54	-0.0146022625
44	0x3d0e5059	0.034744594
45	0x3c279dec	0.010230523
46	0x3c0c3c81	0.008559347
47	0x3cc76ca3	0.024343794
48	0xbd242593	-0.040074896
49	0xbcef9262	-0.029244605
50	0x3da6fc89	0.08153636
51	0x3c3a4b99	0.011370563
52	0xbc7f6acf	-0.01558943
53	0x3d2d692f	0.04233664
54	0x3db31bb8	0.08745521
55	0x3d6cc2c5	0.057802934
56	0xbc9b85e8	-0.01898475
57	0x3c20ddcb	0.009818505
58	0x3dbe6bfc	0.0929794
59	0xbcc2ddf2	-0.023787472
60	0xbd22e66f	-0.03977054
61	0x3d3aebf4	0.04563518
62	0xbd09d47b	-0.033649903
63	0xbcb6ae6f	-0.022299973
64	0xbd2f5c5c	-0.04281269
65	0xbd6a0581	-0.057134155
66	0xbd6b936b	-0.057513636
67	0x3d05a151	0.032624546
68	0x3d808b92	0.06276621
69	0x3c9e64b6	0.019335132
70	0x3dc6c39f	0.097052805
71	0xbb86ef56	-0.0041178865
72	0x3b97b2b3	0.004629457
73	0x3cc3dd63	0.023909276
74	0x3d9a2537	0.075266294
75	0x3d463c25	0.048397202
76	0x3c830e0f	0.015997915
77	0x3d292a75	0.041300256
78	0x3c19197f	0.009344458
79	0xbce067fa	-0.02739333
80	0x3cba57bb	0.022746911
81	0x3d90bc16	0.070671245
82	0xbcaaa465	-0.020830343
83	0x3d0d8c5e	0.034557693
84	0x3cd9da1b	0.026593259
85	0xbbe628d7	-0.0070239115
86	0x3d62dc00	0.05538559
87	0x3d1142d3	0.03546412
88	0x3dba1ff6	0.09088127
89	0x3beba4bf	0.00719127
90	0x3c1b2ef4	0.009471644
91	0x3d943c7f	0.07238101
92	0x3d77d8b7	0.06050941
93	0x3d3ea002	0.046539314
94	0x3c4bd653	0.012441236
95	0x3c75a24f	0.014992311
96	0xbd6913be	-0.056903593
97	0xbd389b05	-0.045069713
98	0x3cee8711	0.029117139
99	0x3d841bcd	0.06450615

fc2.weight f4 [50, 100]
0	0x3d942b4d	0.072348215
1	0xbc7b5382	-0.015339734
2	0x3cb88384	0.022523649
3	0x3ca09d4d	0.019606257
4	0xbc9e1003	-0.019294744
5	0xbc57ca62	-0.01317081
6	0xbc223815	-0.009901066
7	0xbd84e76f	-0.06489455
8	0x3d2578e7	0.040398505
9	0x3b70434b	0.0036661203
10	0x3c5b08f5	0.013368835
11	0x3d54ccde	0.05195319
12	0x3d923e0d	0.071407415
13	0x3d64276f	0.05570167
14	0xbd38aa0f	-0.045084056
15	0x3ddb4c4d	0.107079126
16	0xbd3616b7	-0.044455256
17	0xbd8e5e8d	-0.06951628
18	0xbd829e0f	-0.063778035
19	0x3b1a1f15	0.0023517061
20	0x3dd84418	0.10559863
21	0xbd4813c6	-0.048846982
22	0xbd38c002	-0.045104988
23	0x3dd7ee89	0.10543544
24	0xbc33e8a9	-0.0109807635
25	0xbd056780	-0.03256941
26	0x3da6380d	0.081161596
27	0xbd3390d7	-0.043839302
28	0x3d0cc4ba	0.0343673
29	0xbc308a4d	-0.010775161
30	0xbbeaba82	-0.0071633467
31	0xbda3aa96	-0.07991521
32	0x3d9e465c	0.07728264
33	0xbac17bea	-0.0014761661
34	0x3deb7a08	0.11497885
35	0xbd10b190	-0.035325587
36	0xbc2ec657	-0.010667405
37	0x3d3d65eb	0.046239775
38	0xbd25e208	-0.040498763
39	0xbd66ada4	-0.05631794
40	0xbdaa988f	-0.083298795
41	0x3ca1db8a	0.019758005
42	0xbdfc22a9	-0.123112984
43	0x3d8399ca	0.06425817
44	0xbd4ab9cf	-0.049493607
45	0x3dd03914	0.10167137
46	0x3cb379db	0.021908691
47	0x3d1e8cd4	0.038708523
48	0x3dd14794	0.102187306
49	0x3d14ed89	0.036359344
50	0xbc8ad52d	-0.016947353
51	0xbdd1b445	-0.10239462
52	0xbc78b078	-0.015178792
53	0x3d147420	0.036243558
54	0x3d086113	0.033295702
55	0x3da1360e	0.07871638
56	0xbd8be628	-0.06831008
57	0x3d322f5c	0.043502197
58	0xbb52775b	-0.0032114598
59	0x3cb5eee5	0.02220864
60	0x3dbc4875	0.091935076
61	0xbda7f558	-0.082010925
62	0x3d84eebe	0.06490849
63	0x3d4863f7	0.04892346
64	0x3da64db4	0.081202894
65	0x3d580ed8	0.05274853
66	0xbc06c430	-0.008225486
67	0xbced2580	-0.028948545
68	0xbb6d9c0b	-0.003625634
69	0x3d15f38c	0.036609218
70	0x3d7ea856	0.062172256
71	0x3da2cbd9	0.07949037
72	0xbdb0c8d6	-0.086320564
73	0x3d504565	0.05084743
74	0x3d7cfa1d	0.061761964
75	0xbdbc9faa	-0.09210141
76	0xbd2a41f8	-0.04156682
77	0x3dd11918	0.102098644
78	0x3c727f9d	0.014800933
79	0xbdc1c0ee	-0.094606265
80	0xbd941437	-0.07230418
81	0xbab309ba	-0.0013659515
82	0x3d563f0a	0.052306212
83	0x3cfe24c0	0.031023383
84	0xbd1e2463	-0.03860892
85	0x3d81a2c5	0.06329874
86	0x3d9ccff8	0.076568544
87	0x3b78c6de	0.003796033
88	0xbd3a6200	-0.045503616
89	0xbb877bc2	-0.004134626
90	0x3d49dbf1	0.049282018
91	0x3ce6a93f	0.028156875
92	0x3d92d0e3	0.07168748
93	0x3c8fadef	0.017538993
94	0x3d997efa	0.07494922
95	0x3c3f5444	0.011677805
96	0xbb9c8fcc	-0.004777884
97	0x3dc872a1	0.09787489
98	0xbd5bc1d2	-0.05365164
99	0x3d818c9f	0.063256495
100	0xbd86bfe0	-0.06579566
101	0xbbf600d4	-0.007507423
102	0x3ddb295b	0.10701247
103	0x3d343c40	0.04400277
104	0x3d2a13e1	0.041522864
105	0xbdd528b4	-0.10408154
106	0x3cdd0a1d	0.026982361
107	0xbd4b098d	-0.049569655
108	0x3ddad18b	0.106844984
109	0x3d53d5d3	0.05171759
110	0x3de81af5	0.11333267
111	0x3d94d1bd	0.07266567
112	0xbd1f5928	-0.038903385
113	0xbd600d0c	-0.054699942
114	0xbd3e1eb2	-0.046415992
115	0x3c0fa28a	0.00876678
116	0xbd287d78	-0.04113528
117	0x3dd9ae32	0.10628928
118	0xbd25e529	-0.040501747
119	0x3d6f2d40	0.058392763
120	0xbd8d38c4	-0.06895593
121	0x3d7459d5	0.059655983
122	0xbdb59d03	-0.08867838
123	0x3cbb2e88	0.022849336
124	0xbd077b3b	-0.033076506
125	0x3d857a7b	0.06517502
126	0xbd0e988f	-0.03481346
127	0x3dd4ff89	0.10400302
128	0xbd0f2acc	-0.034952924
129	0xbc4f9b58	-0.012671314
130	0x3d0b876e	0.034064703
131	0x3c26778f	0.010160341
132	0x3d648b9e	0.05579721
133	0x3dbafb81	0.09130002
134	0x3dba0fdc	0.09085056
135	0xbb37948a	-0.002801212
136	0xbdc73564	-0.0972698
137	0xbd8803d5	-0.06641356
138	0x3d1763fc	0.036960587
139	0xbde47490	-0.11155045
140	0xbcbcea98	-0.023061082
141	0xbc81ebe0	-0.015859544
142	0xbd3975c7	-0.045278337
143	0x3db3010f	0.08740436
144	0xbdb6da71	-0.08928383
145	0xbcbcb033	-0.023033237
146	0xbcd96cae	-0.02654108
147	0xbd1a1851	-0.037620846
148	0x3dc819bb	0.09770533
149	0xbd86ecfb	-0.06588169
150	0x3db2d919	0.08732814
151	0x3d9a04f3	0.07520475
152	0x3de187b8	0.110122144
153	0xbd98f5ca	-0.074687555
154	0xbdb16f31	-0.08663786
155	0xbdc677a1	-0.09690786
156	0x3da47df5	0.08031837
157	0x3cdd32f1	0.02700183
158	0x3d8fa6ac	0.07014212
159	0x3d2e8d67	0.04261532
160	0xbc030677	-0.007997147
161	0xbdb32f7d	-0.08749292
162	0xbd865031	-0.06558264
163	0x3d9ecfb3	0.07754459
164	0x3cd823ef	0.026384322
165	0xbb9e2a37	-0.0048268097
166	0xbd4981ee	-0.049196176
167	0x3cb1efae	0.021720733
168	0x3d96f741	0.07371379
169	0xbc9838e4	-0.018581815
170	0x3cb0a82a	0.021564562
171	0x3aab98ec	0.0013091839
172	0xbd85b1c5	-0.065280475
173	0x3d4701bc	0.04858564
174	0xbd88d206	-0.06680684
175	0xbd99543d	-0.0748677
176	0x3d45109a	0.048111536
177	0xbcc15d21	-0.023603978
178	0xbdb52c6e	-0.08846365
179	0x3cc81724	0.024425097
180	0xbd2affcc	-0.041747853
181	0xbc0224b5	-0.007943322
182	0xbc4d8128	-0.012543
183	0x3dd8ca23	0.105854295
184	0x3ddaf376	0.10690968
185	0x3b19bacc	0.0023457287
186	0xbd927988	-0.071520865
187	0xbdb07b56	-0.086172745
188	0x3da8cb13	0.08241858
189	0xbde69583	-0.11258986
190	0xbc2b2ac5	-0.010447209
191	0x3cfee9f7	0.031117423
192	0xbcfd7e98	-0.030944154
193	0xbdb9a97a	-0.09065528
194	0x3dafa280	0.08575916
195	0xbddc1a6b	-0.10747226
196	0x3c96841c	0.018373542
197	0x3dd4b4e8	0.10386068
198	0xbc95f5d3	-0.018305695
199	0x3c8f9dd0	0.017531306
200	0xba14ddc7	-0.00056787994
201	0x3e043fac	0.12914914
202	0x3d5eb75f	0.054374095
203	0xbde7f983	-0.113268875
204	0x3944d8aa	0.0001877273
205	0xbd6c2a09	-0.057657275
206	0xbdd69c67	-0.1047905
207	0x3b4094a3	0.002938547
208	0xbd5c0bb7	-0.05372211
209	0xbc00495f	-0.007829993
210	0x3d732a67	0.05936661
211	0xbbc7b2b5	-0.0060943016
212	0x3dacd2ec	0.08438668
213	0xbcf62061	-0.030044736
214	0x3d29021f	0.04126179
215	0xbcea0286	-0.028565656
216	0xbdd9a3f3	-0.10626974
217	0x3ddc11cc	0.10745582
218	0xbcba2809	-0.022724168
219	0xbd5d8ce5	-0.054089446
220	0x3ce0107a	0.027351607
221	0xbdc08c24	-0.0940173
222	0xbdc5b3b5	-0.09653417
223	0x3dcad004	0.09902957
224	0xbd8cfc1b	-0.06884023
225	0xbb9443d2	-0.0045246864
226	0xbd28fc2a	-0.041256107
227	0xbd304d83	-0.04304267
228	0xbd390ff1	-0.04518122
229	0x3d4a13d5	0.04933532
230	0x3dba6c81	0.09102727
231	0x3d59de51	0.053190533
232	0xbb7edfbb	-0.0038890678
233	0xbd9dfd97	-0.07714384
234	0x3dcee971	0.10103119
235	0x3d219da1	0.039456967
236	0xbde89d97	-0.11358183
237	0xbdd369c9	-0.10322911
238	0xbd937170	-0.07199371
239	0x3d1840c6	0.037171148
240	0x3daa3428	0.08310729
241	0x3cd00c7d	0.02539658
242	0x3d8641ce	0.0655552
243	0x3d7236f6	0.059134446
244	0xbcab7046	-0.02092756
245	0x3d91473a	0.070936635
246	0x3dbc059f	0.0918076
247	0xbd923b67	-0.07140236
248	0xbd00fe1d	-0.03149234
249	0x3b29b313	0.002589409
250	0x3c10e481	0.008843542
251	0xbd4c87ad	-0.049934078
252	0xbd2d3c27	-0.042293694
253	0x3d2507c8	0.040290624
254	0x3da8258a	0.08210285
255	0x3dfca37e	0.12335871

fc2.bias f4 [50]
0	0xbda167f8	-0.078811586
1	0xbae2cb7d	-0.0017303076
2	0x3d2ed6ae	0.042685203
3	0x3ca2bfb2	0.019866798
4	0x3d62ffcd	0.055419732
5	0x3d26579e	0.040610902
6	0xbcdddf19	-0.02708392
7	0xbdb470f0	-0.088106036
8	0xbd37a428	-0.044834286
9	0xbdaf5aa7	-0.085622124
10	0x3b5582f5	0.0032579277
11	0x3be33633	0.0069339513
12	0x3d6efbe1	0.05834568
13	0xbd6bb49c	-0.05754529
14	0xbcf4e40e	-0.029893901
15	0x3d85673f	0.06513833
16	0xbb9682d6	-0.0045932336
17	0xbd4bb159	-0.04972968
18	0xbd891b75	-0.0669469
19	0x3d2f7ee3	0.042845618
20	0x3dcc7b54	0.099844605
21	0xbbc7307b	-0.0060787774
22	0x3d894fa8	0.06704646
23	0x3c296d5f	0.0103410175
24	0x3d8856e6	0.066571996
25	0x3a6bb7ca	0.0008991925
26	0x3ca3f5ea	0.020014722
27	0xbcf4cfab	-0.02988418
28	0x3d753d0a	0.059872665
29	0xbd54b527	-0.051930573
30	0x3d53f227	0.051744606
31	0xbbb020bc	-0.005374996
32	0x3ce123b1	0.02748284
33	0xbdaf4ae0	-0.08559203
34	0xbbe323e7	-0.00693177
35	0xb90d4234	-0.0001347147
36	0x3d7ecd3b	0.06220744
37	0xbd836f06	-0.064176604
38	0xbcb3d03a	-0.021949876
39	0x3b9b81e8	0.0047457106
40	0x3dd6cbf1	0.104881175
41	0xbd3da3a5	-0.04629864
42	0xbdbd09f5	-0.09230415
43	0x3aea3a41	0.0017870144
44	0xbcb236d0	-0.021754652
45	0x3d553226	0.05204978
46	0x3c29b532	0.010358142
47	0xbd1d6eab	-0.03843562
48	0xbd12da9d	-0.035853017
49	0xbd06c09c	-0.03289853

fc3.weight f4 [4, 50]
0	0xbd87f03d	-0.06637619
1	0xbd1871db	-0.037217956
2	0xbd0990d9	-0.033585403
3	0x3de1b746	0.11021285
4	0xbd923eae	-0.071408615
5	0x3da531f9	0.08066172
6	0x3d17bd37	0.037045684
7	0x3de34b8e	0.11098395
8	0xbdecb02f	-0.11557042
9	0x3d795dce	0.060880475
10	0x3d6d3e16	0.057920538
11	0x3dc70a0d	0.09718714
12	0x3d12666f	0.03574222
13	0x3ca50ee4	0.020148702
14	0x3df963b0	0.12177217
15	0x3e1f8623	0.15578513
16	0xbc8cf60b	-0.017207166
17	0xbdcfc6d6	-0.10145347
18	0x3da4f4fd	0.0805454
19	0x3db6fd59	0.08935041
20	0xbdb8df0d	-0.090269186
21	0xbe063f32	-0.13110045
22	0x3dcc0eec	0.099637836
23	0xbcb73c5c	-0.022367649
24	0x3dd0cf2a	0.101957634
25	0x3e2f05ec	0.17092103
26	0xbbdfb8a1	-0.0068274294
27	0xbdf70bbe	-0.120627865
28	0xbd8d5137	-0.06900256
29	0x3caa3ed1	0.020781906
30	0xbdb35e2e	-0.08758198
31	0xbc5a1caa	-0.013312498
32	0xbe135a0f	-0.14389823
33	0x3ddbef8a	0.10739048
34	0x3e0a0b14	0.13480788
35	0x3e090a4c	0.13382834
36	0xbe2b32a0	-0.1671853
37	0xbd218566	-0.03943386
38	0x3e04fab8	0.12986267
39	0xbe177ca3	-0.14793639
40	0xbcb666ad	-0.022265757
41	0xbd828096	-0.06372182
42	0x3dcbdd79	0.09954352
43	0xbe212bbd	-0.15739341
44	0x3d044cfa	0.032299973
45	0xbdc75ae7	-0.09734135
46	0xbe22ec6b	-0.15910499
47	0x3d920585	0.07129959
48	0x3dcfc3c0	0.10144758
49	0xbe279d56	-0.16368613
50	0x3bce8df3	0.0063035428
51	0x3db11697	0.08646887
52	0x3d19ea62	0.03757704
53	0xbdeec0f3	-0.11657896
54	0x3d9d5dc9	0.07683904
55	0x3e02ee15	0.12786134
56	0xbd9872bf	-0.07443761
57	0x3dfb7c9c	0.12279627
58	0xbe113baf	-0.14182924
59	0x3daff1ec	0.08591065
60	0x3e2233ed	0.1584012
61	0xbdb083df	-0.086189024
62	0x3e16f452	0.14741638
63	0x3e0b550d	0.13606663
64	0xbd8740bb	-0.06604143
65	0xbc20775f	-0.009794085
66	0xbe28f65c	-0.16500229
67	0x3e1e72e1	0.1547351
68	0xbdf53ed1	-0.11974872
69	0xbe12f3ff	-0.1435089
70	0xbca02db9	-0.019553052
71	0x3d0afbe7	0.03393164
72	0x3e098c66	0.13432464
73	0xbe2971fa	-0.16547385
74	0x3dc78799	0.0974266
75	0x3d1f919c	0.038957223
76	0xbdc12526	-0.094309136
77	0x3c1cc458	0.009568296
78	0x3da238a2	0.07920958
79	0xbdf27d3f	-0.11840295
80	0x3e047b1e	0.1293759
81	0x3e104771	0.14089753
82	0xbbc52b39	-0.0060171154
83	0xbdedf4b1	-0.11618937
84	0x3cc64fcd	0.024207974
85	0x3deb9e39	0.11504788
86	0x3dd456b0	0.10368097
87	0xbd2a19cc	-0.041528508
88	0xbdc3434d	-0.09534321
89	0xbd649b19	-0.055811975
90	0xbe095ba6	-0.13413867
91	0xbdcda76c	-0.10041699
92	0xbe1c4ff9	-0.15264882
93	0xbb097f82	-0.0020980542
94	0x3d858b52	0.06520714
95	0xbca5e6be	-0.020251628
96	0x3d9c4377	0.076300554
97	0x3dfbeeba	0.12301393
98	0xbe134f74	-0.14385778
99	0x3dfc37c2	0.123153225
100	0x3d0ee23b	0.03488372
101	0x3d964b50	0.073385835
102	0x3ddb4b0f	0.10707676
103	0xbd65071b	-0.05591498
104	0x3dcc75b0	0.099833846
105	0xbe0f3884	-0.13986403
106	0x3d6216cb	0.05519752
107	0xbdd8a2ec	-0.1057795
108	0x3e2396f9	0.1597556
109	0xbdb09600	-0.0862236
110	0x3ca20b2e	0.019780722
111	0xbdc7455d	-0.09730027
112	0xbdb20552	-0.08692421
113	0xbe181118	-0.14850271
114	0xbdd73169	-0.10507471
115	0xbe06306c	-0.13104409
116	0x3e0d8bb1	0.1382282
117	0xbdb97576	-0.09055607
118	0xbd24c91c	-0.040230855
119	0xbc296d0c	-0.01034094
120	0x3c3cb7f1	0.011518464
121	0x3daac667	0.083386235
122	0xbca3ef00	-0.020011425
123	0x3ccdb463	0.02511043
124	0xbe27ff0d	-0.16405888
125	0x3e09505d	0.13409562
126	0x3c9228bc	0.01784169
127	0x3e191b36	0.14951786
128	0x3d9bf5ff	0.076152794
129	0xbd43ea7b	-0.04783104
130	0x3daf042f	0.0854572
131	0x399908ba	0.00029188936
132	0xbd4a9d03	-0.049466144
133	0x3c139a6b	0.009008984
134	0xbda9ac2f	-0.082847945
135	0xbcea7a24	-0.028622694
136	0x3e0f92d4	0.14020854
137	0x3d981be4	0.07427195
138	0xbd3457e0	-0.044029117
139	0x3cedc9ad	0.02902683
140	0x3d518edf	0.051161643
141	0x3de182c9	0.110112734
142	0xbe1e482d	-0.1545722
143	0x3bdc1059	0.006715816
144	0x3e08f3a1	0.13374187
145	0xbb03920d	-0.0020076067
146	0xbd919954	-0.07109323
147	0x3c521f8c	0.012824904
148	0x3e2326f6	0.15932831
149	0xbda8a38b	-0.08234318
150	0xbe043663	-0.12911372
151	0xbe06babb	-0.1315717
152	0xbd63f6a3	-0.055655133
153	0x3cd449d9	0.02591412
154	0xbdcbfa8e	-0.09959899
155	0xbd8a9bdd	-0.0676801
156	0xbcc4311b	-0.023949197
157	0xbd8033e8	-0.062599
158	0xbd336010	-0.043792784
159	0xbd275f58	-0.04086241
160	0xbdd84361	-0.105597265
161	0x3e071cd0	0.13194585
162	0x3e1123e3	0.14173846
163	0xbe1d7afa	-0.15378943
164	0x3e0402ea	0.12891737
165	0x3d1fb0d9	0.038987014
166	0xbab1c51e	-0.0013562774
167	0x3e06ab40	0.13151264
168	0x3cca706c	0.02471181
169	0x3de52bfc	0.1119003
170	0x3db69e49	0.08916909
171	0x3de632f5	0.11240188
172	0xbe231312	-0.15925243
173	0xbdf08547	-0.11744171
174	0xbe24fcd1	-0.16112067
175	0x3c0abfb0	0.008468553
176	0xbd7fc1ee	-0.062440805
177	0x3de43d53	0.11144509
178	0x3d701fba	0.058624007
179	0xbd357266	-0.044298552
180	0x3d5b052f	0.05347174
181	0xbdb560bc	-0.08856341
182	0x3e050882	0.12991527
183	0x3d5ea308	0.054354697
184	0xbd4e81b4	-0.050416663
185	0xbd73e9e9	-0.059549246
186	0xbd93b04f	-0.072113626
187	0x3e169401	0.14704897
188	0xbda72266	-0.08160858
189	0x3ae7b633	0.0017678201
190	0x3d15a8a0	0.036537766
191	0xbdbe870b	-0.09303101
192	0x3dd1a378	0.10236257
193	0x3e0b5891	0.13608004
194	0xbdc8673a	-0.09785314
195	0x3dc2e02d	0.095154144
196	0xbd57830a	-0.052615203
197	0xbd21872f	-0.03943556
198	0x3e16a8b9	0.147128
199	0x3d6a4300	0.057192802

fc3.bias f4 [4]
0	0xbddf4e6c	-0.1090363
1	0x3ce560e8	0.02800031
2	0x3d1011f3	0.035173368
3	0xbaba3644	-0.0014206846
