mlp_model_transient.pth (torch, 95168 bytes, 6 tensors)

fc1.weight f4 [100, 178]
0.10223779 0.39934757 -0.020619737 0.015929004 -0.058201004 0.0062261713 0.13078201 0.04977924
-0.21410748 -0.056433868 -0.08340252 0.16419274 -0.015825225 -0.2902741 0.02336553 0.10599113
-0.077750884 0.002315076 -0.12367082 0.067014016 0.0229711 -0.028918035 -0.0046178 0.05066553
-0.03480157 -0.00082100957 0.024524903 0.0055930573 -0.0065273247 -0.019385953 0.09709211 0.0046217022
-0.02625525 0.013628704 0.03243831 -0.012834693 0.037890695 0.015814189 0.059435528 -0.04549063
0.030415533 0.08283424 0.011986899 -0.00802715 0.05723632 0.041359745 0.03674105 0.06290496
0.0021277792 0.0021912986 0.070453785 0.11902024 -0.25608176 0.065413415 0.08506492 0.11083587
0.09283985 0.13903823 0.056180142 -0.002473637 0.116564475 0.09450939 0.020243242 0.016155146
0.059590213 0.13852498 0.12734607 -0.09486334 0.13314773 0.060413428 0.10655 -0.19623515
0.14485987 0.09690323 0.23576695 0.23389816 0.13618673 -0.02919859 0.07453431 0.08626165
0.27123672 0.05625984 0.066092245 -0.0022951884 -0.09573952 0.06742475 -0.022354795 0.26989526
-0.3111445 -0.3243886 -0.20229812 -0.108723864 -0.044621985 0.031684596 0.0061865603 0.060216404
-0.12689032 0.031309683 -0.11258436 -0.1618847 -0.04127704 -0.030169846 -0.123558335 -0.17601408
-0.056328073 -0.112348184 -0.13567215 -0.15597546 -0.19322525 -0.056810647 -0.29050148 -0.24433793
-0.03926455 0.31653216 0.10349244 -0.20024641 -0.031531926 0.07548072 0.2440076 -0.08739706
0.3410717 -0.05521086 -0.028937586 -0.31008935 0.18556091 0.02564594 0.030255517 0.10645267
0.090804994 0.36588123 -0.15359591 -0.015620631 -0.18576586 -0.2508439 -0.2333263 -0.06987895
-0.10734434 -0.038264267 -0.06102331 0.088270925 0.019913446 0.07284584 0.1017476 -0.03865093
-0.047312763 -0.070851445 -0.028883113 0.023252262 -0.08464179 -0.051459562 -0.13376582 -0.30688742
0.054554842 -0.24784173 -0.115266114 -0.31988156 -0.24225095 -0.31279624 -0.025344845 -0.1621268
0.066037685 -0.08439968 0.008564088 -0.02850504 0.07613754 0.035928506 -0.10302959 -0.08193491
-0.03371666 -0.067619674 -0.15578331 -0.0643568 -0.11787993 -0.09578642 -0.12787245 -0.12906188
-0.10773101 -0.1033487 -0.045074407 -0.065215886 0.012029862 0.08132252 -0.018204162 0.06430524
0.044520043 0.08835678 0.08894843 -0.11466731 0.25885144 0.069947116 -0.013451117 0.023131445
-0.019736761 0.011974835 0.04036931 0.058376264 -0.01104701 -0.059440482 0.046158105 -0.020958886
0.046603106 0.009236412 0.0635236 -0.061503354 -0.052574515 0.048153393 -0.06258829 -0.069424964
-0.06354509 0.056882624 0.06097904 -0.07134776 -0.061608844 0.025310116 0.058965724 0.042973194
0.05619354 -0.045054093 -0.03648277 -0.041864425 -0.022989668 -0.03750761 -0.06912251 0.06632225
-0.02166337 0.10010438 0.011903636 0.05160005 0.06489581 0.07182432 0.110478096 -0.013822941
0.031643584 -0.017269703 -0.0075332364 0.069862194 0.09955115 0.07475999 0.0978498 0.061955817
0.06425719 -0.025954 -0.032813407 -0.039347593 0.06748368 0.088751666 0.09906199 0.03721663
0.036086068 -0.10464346 0.037445594 0.1230874 0.13204661 0.11797944 0.22032596 -0.01649646
00000000: 0c62 d13d 4977 cc3e b9ea a8bc 8b7d 823c
00000010: 2d64 6ebd e904 cc3b b8eb 053e 51e5 4b3d
00000020: fe3e 5bbe 3327 67bd f1ce aabd 2422 283e
00000030: e7a3 81bc cf9e 94be 1169 bf3c e111 d93d
00000040: db3b 9fbd 88b8 173b 2047 fdbd a53e 893d
00000050: e32d bc3c 84e5 ecbc ea50 97bb a986 4f3d
00000060: 178c 0ebd 0539 57ba 73e8 c83c f745 b73b
00000070: 2be3 d5bb 4acf 9ebc 3ad8 c63d a671 973b
00000080: 4015 d7bc ed4a 5f3c 09de 043d 9b48 52bc
00000090: 4633 1b3d c28c 813c ab72 733d 6254 3abd
000000a0: ff29 f93c ffa4 a93d b364 443c 4f84 03bc
000000b0: a270 6a3d d668 293d c97d 163d 51d4 803d
000000c0: 3672 0b3b e49b 0f3b 134a 903d e2c0 f33d
000000d0: 261d 83be 78f7 853d 8436 ae3d ebfd e23d
000000e0: d222 be3d 0a60 0e3e 261d 663d be1c 22bb
000000f0: 5bb9 ee3d 248e c13d 28d5 a53c cc57 843c
00000100: de14 743d 7ed9 0d3e 0267 023e b647 c2bd
00000110: e157 083e 1274 773d e336 da3d def1 48be
00000120: 2556 143e 3375 c63d e46c 713e 0083 6f3e
00000130: 8974 0b3e e231 efbc 72a5 983d f3a9 b03d
00000140: 8adf 8a3e b870 663d 5f5b 873d df6a 16bb
00000150: 1513 c4bd fd15 8a3d 6721 b7bc b62f 8a3e
00000160: 554e 9fbe 4316 a6be 3d27 4fbe 9eaa debd
00000170: 8bc5 36bd b5c7 013d a1b8 ca3b 7aa5 763d
00000180: 89ef 01be 953e 003d a192 e6bd 1ac5 25be
00000190: 1d12 29bd c126 f7bc 270c fdbd 093d 34be
000001a0: 44b8 66bd ce16 e6bd a4ed 0abe 08b8 1fbe
000001b0: d7dc 45be 48b2 68bd 9cbc 94be b933 7abe
000001c0: ddd3 20bd 8110 a23e d8f3 d33d 650d 4dbe
000001d0: 9f27 01bd a395 9a3d 21dd 793e 3bfd b2bd
000001e0: f3a0 ae3e c824 62bd 840e edbc 08c4 9ebe
000001f0: ae03 3e3e 6f17 d23c 6bda f73c dc03 da3d
00000200: f8f7 b93d c954 bb3e 3f48 1dbe aded 7fbc
00000210: 6839 3ebe 9d6e 80be 17ed 6ebe b21c 8fbd
00000220: 59d7 dbbd feba 1cbd 94f3 79bd 63c7 b43d
00000230: 8621 a33c 3330 953d 0c61 d03d 7050 1ebd
00000240: 07cb 41bd 901a 91bd 479c ecbc 877b be3c
00000250: ad58 adbd 43c7 52bd e8f9 08be 5920 9dbe
00000260: e674 5f3d 39ca 7dbe a410 ecbd 84c7 a3be
00000270: a210 78be d426 a0be fe9f cfbc 9104 26be
00000280: c43e 873d bdd9 acbd 6350 0c3c 6783 e9bc
00000290: 00ee 9b3d c529 133d 2d01 d3bd 7dcd a7bd
000002a0: 7b1a 0abd 2f7c 8abd a985 1fbe 7fcd 83bd
000002b0: 086b f1bd ac2b c4bd fff0 02be cc28 04be
000002c0: 13a2 dcbd 7ca8 d3bd f19f 38bd e88f 85bd
000002d0: e618 453c 6c8c a63d e520 95bc 77b2 833d
000002e0: a65a 363d 66f4 b43d 982a b63d b2d6 eabd
000002f0: 2d88 843e 6f40 8f3d 1362 5cbc 287e bd3c
00000300: fdae a1bc 1932 443c 4a5a 253d f31b 6f3d
00000310: 85fe 34bc dd77 73bd 4810 3d3d f8b1 abbc
00000320: e6e2 3e3d 5254 173c a918 823d f1ea 7bbd
00000330: 6058 57bd 7e3c 453d 4a2e 80bd ad2e 8ebd
00000340: ee23 82bd c1fd 683d 28c5 793d c61e 92bd
00000350: 8e59 7cbd 2957 cf3c 0b86 713d a904 303d
00000360: 332b 663d a48a 38bd f56e 15bd 087a 2bbd
00000370: d454 bcbc 94a1 19bd 1a90 8dbd f6d3 873d
00000380: 6177 b1bc 8603 cd3d 7807 433c 935a 533d
00000390: 18e8 843d a118 933d 5742 e23d 9e79 62bc
000003a0: b49c 013d 3179 8dbc 5ed9 f6bb e913 8f3d
000003b0: 79e1 cb3d c41b 993d 7a65 c83d 62c5 7d3d
000003c0: 4699 833d 7c9d d4bc 5a67 06bd f12a 21bd
000003d0: e234 8a3d 6fc3 b53d 03e1 ca3d 7770 183d
000003e0: fcce 133d 4f4f d6bd 8d60 193d 3f15 fc3d
000003f0: 3a37 073e 349f f13d 219d 613e 9623 87bc

fc1.bias f4 [100]
0.086334504 -0.016532946 0.04997957 0.102826424 0.00033197374 0.071197234 -0.17515366 0.14808191
-0.05820506 0.0519063 0.0780834 0.0045205853 0.04259597 0.079812944 0.09247645 0.009231612
0.048117153 -0.013293182 0.008844234 0.037563346 -0.058771938 0.018973902 0.11294322 0.03788457
0.10951508 0.06683529 -0.02768975 0.0049401703 0.030357186 0.02740763 0.10530825 0.0020176638
0.090096705 -0.057444368 0.0039426326 0.095490895 0.0062915334 0.03131933 0.08291854 -0.0020668842
-0.0048681255 -0.050369054 -0.18601288 0.044486225 -0.1936758 -0.15035443 -0.03867041 0.01372417
-0.026683321 -0.024189403 0.006733751 0.11256619 -0.015861742 0.03508805 0.09312484 -0.026809527
0.04669541 -0.14775693 0.02192658 0.0008570804 0.07838696 0.0033191782 -0.08433572 0.05989742
0.096048474 -0.12292301 0.13896394 0.09369765 -0.05312436 -0.16204055 -0.025516652 -0.032703627
-0.017871844 -0.03605206 0.08651993 0.06570607 0.0010966939 0.13781856 -0.066385135 0.104570135
0.07156028 0.095360436 -0.015532833 -0.016863031 0.031532563 0.03246266 -0.03159871 0.06405955
-0.059240952 -0.023336463 -0.026056081 0.09654647 0.12458542 0.040825937 -0.07494012 0.06517578
-0.17618306 0.009887738 -0.007884478 0.10865773
00000000: 25d0 b03d 1a70 87bc 61b7 4c3d a996 d23d
00000010: c30c ae39 dbcf 913d 7b5b 33be c9a2 173e
00000020: 6e68 6ebd b39b 543d 31ea 9f3d 6b21 943b
00000030: 1d79 2e3d f874 a33d 4b64 bd3d 3040 173c
00000040: 7e16 453d a5cb 59bc 68e7 103c 06dc 193d
00000050: d8ba 70bd 286f 9b3c c64e e73d da2c 1b3d
00000060: 7149 e03d f1e0 883d 9dd5 e2bc 27e1 a13b
00000070: a2af f83c f785 e03c daab d73d c83a 043b
00000080: 9f84 b83d c94a 6bbd 3331 813b bb90 c33d
00000090: 3529 ce3b b348 003d 32d1 a93d 9074 07bb
000000a0: cc84 9fbb c84f 4ebd 297a 3ebe 3037 363d
000000b0: f352 46be 83f6 19be dd64 1ebd 57db 603c
000000c0: fb96 dabc db28 c6bc cca6 dc3b 1a89 e63d
000000d0: 7cf0 81bc 7db8 0f3d 3cb8 be3d a79f dbbc
000000e0: b043 3f3d 984d 17be 5f9f b33c b1ad 603a
000000f0: 5889 a03d 9286 593b 35b8 acbd ff56 753d
00000100: 10b5 c43d 0fbf fbbd 904c 0e3e 8ee4 bf3d
00000110: ee98 59bd f5ed 25be 4c08 d1bc 3df4 05bd
00000120: f967 92bc 53ab 13bd 5c31 b13d e790 863d
00000130: f1be 8f3a 4f20 0d3e eef4 87bd de28 d63d
00000140: 328e 923d 554c c33d 6c7d 7ebc 5724 8abc
00000150: 4a28 013d 91f7 043d a66d 01bd a731 833d
00000160: a4a6 72bd 1c2c bfbc 9073 d5bc 28ba c53d
00000170: a426 ff3d 1939 273d 357a 99bd e17a 853d
00000180: 5569 34be 2e00 223c e62d 01bc f287 de3d

fc2.weight f4 [50, 100]
-0.19256249 -0.0585034 0.20704287 0.0050975103 0.28974682 -0.17207442 -0.23274766 0.18522921
-0.06286051 0.23747468 0.20694464 0.14309333 0.2766773 -0.12328411 -0.04060328 0.07463168
-0.13272256 0.09593276 0.105373204 0.08003719 0.3491858 0.12428165 0.12796056 0.103548996
-0.013843075 -0.022617105 0.17468587 -0.009486067 0.03695514 0.2869703 -0.093795836 -0.009894366
0.04898102 -0.036022287 0.1413317 -0.08031821 -0.008224925 0.12030942 0.03986353 0.11097258
0.023839487 -0.06275661 0.17615764 -0.052354712 -0.2943446 0.13213676 0.24023427 0.12208105
-0.006166907 0.14347868 -0.248736 0.21225324 0.28862098 0.024275359 -0.00901335 0.27782708
0.06083516 0.31909043 -0.17184882 -0.111020625 0.0060389847 -0.039177023 0.10730649 0.016738517
0.11262933 0.1554457 0.031150099 -0.038214598 -0.10763839 0.116831005 -0.14387715 -0.16863097
0.0749069 0.08582733 0.060595457 0.1208901 0.08264302 -0.095393226 -0.0045328857 0.1408296
0.12931477 -0.014601428 3.0878662e-05 0.07210755 0.22288711 0.15521072 -0.08088527 -0.064223185
0.114035696 -0.040595923 -0.19662969 0.14266397 -0.16429932 -0.08734641 0.2624932 0.10363475
0.12370871 -0.0019488182 -0.087974936 0.08548325 -0.21092205 -0.026438363 0.20679429 -0.048551112
0.11211139 0.03001926 -0.21969524 0.0807893 -0.09064261 0.0018150066 0.07259356 -0.010489839
0.22845486 -0.06752914 0.01755129 0.04727155 -0.021914074 -0.0028793754 0.093785636 0.07619984
0.28957435 0.10573592 0.1589443 0.16010755 0.10748891 0.025141291 0.055764753 -0.032929298
0.093238465 -0.0641612 -0.10756551 0.052351657 -0.0672652 -0.10248593 0.23771864 -0.13850239
-0.09716472 0.118037105 -0.005837931 0.17702515 -0.11992354 0.10382942 0.059055947 -0.06194179
-0.17118806 0.24983622 0.07854594 0.02621512 -0.04316521 0.024346244 -0.19660513 0.06891112
0.16850916 0.055995088 0.08785484 0.22679819 -0.05442108 0.01667507 -0.22940265 -0.15317531
-0.0006861023 0.022961328 0.037205905 0.09300002 -0.018109396 0.27659282 0.10473381 0.003592195
-0.11092496 0.09605899 -0.14126417 -0.27857256 0.06173416 0.023255544 0.12520705 0.00874816
0.08043554 0.03143111 0.05775809 0.038735818 0.031769633 0.09874779 -0.040927768 0.050236706
0.23720714 0.21473159 -0.02932734 0.015960453 0.0068266285 0.06479263 -0.08548771 0.06264757
-0.17805837 -0.004503408 0.07004591 0.03260238 0.24543306 0.07947444 -0.07544178 0.1570488
-0.034260802 -0.07098067 0.058504798 0.064926 0.0794841 0.2571209 -0.12725891 0.098946676
-0.03829858 -0.26939413 0.05294775 0.023384396 0.07451532 0.09469089 0.0648129 0.08005464
-0.099853106 -0.024048256 -0.023629757 0.08122875 0.19408698 0.015548609 0.04985493 0.049862836
-0.04588249 -0.0878784 0.10118045 -0.03146225 -0.055159125 -0.035961058 -0.13318019 0.031760246
-0.066650674 -0.14259534 0.12621237 0.06805443 -0.18049113 0.18355915 0.049221404 0.039059453
-0.16853903 0.013111553 0.17139876 0.05356437 0.025388777 0.15368664 -0.056998488 -0.07544313
-0.07557562 0.20351413 -0.1564674 0.078878336 0.09893023 0.0016373902 0.17167911 0.17145135
00000000: 1a2f 45be 43a1 6fbd 0c03 543e 0409 a73b
00000010: b259 943e 4734 30be 6755 6ebe baac 3d3e
00000020: 03bd 80bd 902c 733e 4ce9 533e 0f87 123e
00000030: a6a8 8d3e 617c fcbd a04f 26bd 7fd8 983d
00000040: 6ce8 07be 6578 c43d e8cd d73d 8aea a33d
00000050: 7bc8 b23e 6187 fe3d 1808 033e 7f11 d43d
00000060: 11ce 62bc 8247 b9bc dae0 323e 736b 1bbc
00000070: 465e 173d c5ed 923e 0818 c0bd fb1b 22bc
00000080: 52a0 483d 1b8c 13bd 42b9 103e e07d a4bd
00000090: d6c1 06bc c964 f63d f147 233d 9845 e33d
000000a0: 074b c33c 8a86 80bd ab62 343e e571 56bd
000000b0: 56b4 96be dc4e 073e f9ff 753e a105 fa3d
000000c0: c413 cabb 13ec 123e a6b4 7ebe ea58 593e
000000d0: 21c6 933e 1edd c63c bbac 13bc 5a3f 8e3e
000000e0: 4a2e 793d d25f a33e 23f9 2fbe c85e e3bd
000000f0: ade2 c53b 1678 20bd 81c3 db3d 371f 893c
00000100: 35aa e63d 282d 1f3e 7e2e ff3c e986 1cbd
00000110: 8471 dcbd 1845 ef3d 8854 13be 99ad 2cbe
00000120: ca68 993d 3dc6 af3d f132 783d 3b95 f73d
00000130: be40 a93d 865d c3bd 9a88 94bb a235 103e
00000140: 176b 043e d43a 6fbc b683 0138 20ad 933d
00000150: 853c 643e 8fef 1e3e 2da7 a5bd 7287 83bd
00000160: 8c8b e93d e947 26bd 4b59 49be 8116 123e
00000170: 153e 28be ade2 b2bd 8265 863e 753e d43d
00000180: fe5a fd3d 7d6f ffba 342c b4bd d811 af3d
00000190: f3fb 57be 4495 d8bc e2c1 533e 88dd 46bd
000001a0: a89a e53d f3ea f53c caf7 60be dc74 a53d
000001b0: d5a2 b9bd 84e5 ed3a efab 943d 93dd 2bbc
000001c0: 12f0 693e b84c 8abd b9c7 8f3c d09f 413d
000001d0: 2585 b3bc e7b3 3cbb af12 c03d a90e 9c3d
000001e0: 1743 943e 138c d83d 4bc2 223e 3cf3 233e
000001f0: 2523 dc3d 1cf5 cd3c 9569 643d dfe0 06bd
00000200: cff3 be3d f266 83bd 4e4b dcbd b16e 563d
00000210: 56c2 89bd 25e4 d1bd 846c 733e 92d3 0dbe
00000220: 4cfe c6bd 70bd f13d 1d4c bfbb 1546 353e
00000230: 799a f5bd 85a4 d43d a6e4 713d adb6 7dbd
00000240: ec4b 2fbe 11d5 7f3e b2dc a03d 17c1 d63c
00000250: 01ce 30bd c671 c73c db52 49be 4621 8d3d
00000260: aa8d 2c3e 1b5b 653d 3ded b33d c93d 683e
00000270: a3e8 5ebd 289a 883c 87e8 6abe fdd9 1cbe
00000280: 8cdb 33ba 6519 bc3c 3865 183d cb76 be3d
00000290: 285a 94bc 939d 8d3e ae7e d63d 086b 6b3b
000002a0: a02c e3bd 93ba c43d 8ea7 10be 10a1 8ebe
000002b0: f5dc 7c3d 6982 be3c 4736 003e 7154 0f3c
000002c0: 63bb a43d e8bd 003d bf93 6c3d 73a9 1e3d
000002d0: e020 023d 483c ca3d e0a3 27bd 01c5 4d3d
000002e0: 6ee6 723e 99e2 5b3e e43f f0bc 7fbf 823c
000002f0: e9b1 df3b 00b2 843d 2e14 afbd 5f4d 803d
00000300: ef54 36be 5391 93bb 3b74 8f3d 138a 053d
00000310: ce52 7b3e 7fc3 a23d 3881 9abd 67d1 203e
00000320: 0e55 0cbd 505e 91bd baa2 6f3d ecf7 843d
00000330: 8fc8 a23d 5aa5 833e 2950 02be 8ea4 ca3d
00000340: f9de 1cbd 07ee 89be bddf 583d a290 bf3c
00000350: 7d9b 983d 4ced c13d a0bc 843d b0f3 a33d
00000360: c97f ccbd d900 c5bc 3193 c1bc 425b a63d
00000370: bdbe 463e 98bf 7e3c af34 4c3d f93c 4c3d
00000380: 47ef 3bbd 97f9 b3bd b237 cf3d 8fde 00bd
00000390: 89ee 61bd e74b 13bd 6360 08be 0817 023d
000003a0: 2680 88bd 8304 12be d13d 013e 1f60 8b3d
000003b0: abd2 38be eef6 3b3e 629c 493d cefc 1f3d
000003c0: 7f95 2cbe d7d1 563c 2883 2f3e 5066 5b3d
000003d0: 20fc cf3c 0860 1d3e 3f77 69bd ee81 9abd
000003e0: 64c7 9abd 0266 503e fd38 20be f78a a13d
000003f0: ef9b ca3d b39d d63a a6cc 2f3e f190 2f3e

fc2.bias f4 [50]
-0.06295039 0.07098849 -0.083003156 -0.062269516 0.07819502 -0.046886742 -0.028025674 0.029888483
0.07884781 -0.06611292 0.036207624 0.033386856 0.04264049 0.032269347 -0.09021938 -0.04437872
-0.010155982 0.09065884 -0.047808193 -0.042341158 -0.010334327 0.107162766 0.10549968 0.0055577992
0.07685898 -0.050719656 -0.053017713 -0.044932432 0.07395354 -0.0849336 0.021869265 0.055066694
0.13910519 -0.013276053 -0.042743567 -0.054490045 0.10627933 0.028430257 0.032984566 0.05585007
0.023819923 -0.0010693904 0.0030579963 0.0643822 0.015751278 0.0033047108 0.059673786 0.090192065
-0.019034097 0.03918091
00000000: 22ec 80bd 6a62 913d 8ffd a9bd 520e 7fbd
00000010: b624 a03d 500c 40bd 1996 e5bc b1d8 f43c
00000020: f67a a13d 3666 87bd 724e 143d a8c0 083d
00000030: cba7 2e3d dd2c 043d f0c4 b8bd 76c6 35bd
00000040: 4765 26bc 58ab b93d 86d2 43bd ec6d 2dbd
00000050: 4f51 29bc 2778 db3d 3710 d83d 331e b63b
00000060: 3e68 9d3d 6abf 4fbd 1a29 59bd 120b 38bd
00000070: f474 973d abf1 adbd 2c27 b33c 9d8d 613d
00000080: 9771 0e3e cd83 59bc e113 2fbd f430 5fbd
00000090: faa8 d93d 92e6 e83c d31a 073d 0bc3 643d
000000a0: 0022 c33c ca2a 8cba aa68 483b d1da 833d
000000b0: d308 813c d993 583b 806c 743d 9eb6 b83d
000000c0: 65ed 9bbc 297c 203d

fc3.weight f4 [4, 50]
-0.118181236 0.06229417 0.07736228 0.19212931 -0.105666 -0.38579908 0.39219427 -0.21166386
-0.08333886 -0.03677053 -0.18044099 0.0021818958 -0.09434767 0.124914736 0.060890026 -0.34394464
0.41815102 -0.004838663 0.025088822 -0.17676103 -0.21296874 0.24311993 -0.068737485 -0.13245218
0.10643295 0.14428496 -0.040971637 0.12596624 0.01807713 -0.0040201945 -0.020869385 0.0567717
-0.17143692 -0.5146054 -0.059086017 -0.01300084 -0.20717105 0.2449141 0.07939067 0.56598425
0.14877138 -0.03173226 0.6309777 -0.01714961 -0.24784228 -0.12256731 -0.15845814 -0.042456765
0.4211093 -0.17843023 -0.37563694 -0.29799592 -0.059919156 -0.24239294 0.05861509 0.49482954
0.49667084 -0.12234393 -0.1472721 -0.3449599 0.03397949 -0.27382842 0.092743315 -0.1348176
0.07653614 -0.5580786 0.51965654 0.07249784 -0.055889156 -0.19143318 0.111120954 0.3890162
0.041634694 -0.31735083 -0.15226564 0.28825292 0.5272873 -0.13914436 0.0044004736 -0.09652221
0.061511654 -0.40908962 -0.2675802 0.41523564 0.047497295 -0.12721144 0.33304486 0.50070107
-0.06122953 -0.47787416 0.1163685 0.07192884 -0.602286 -0.24741073 0.30808237 -0.008364455
0.025346655 0.18400605 0.525825 0.2827467 0.17782792 0.2152777 0.22403689 0.4648659
0.17634444 -0.4280804 -0.43206635 0.025934253 0.20452973 0.091604866 0.22581707 0.16345127
0.1277252 -0.07011892 -0.062663004 0.42917395 -0.5260086 0.13594837 0.18851277 0.020647697
0.057125147 0.004410677 0.2502529 0.43488365 0.14454587 -0.0054526823 -0.22973523 -0.090951584
0.14551942 0.004340833 0.17471568 0.28423083 0.040377438 -0.47170445 0.19289222 0.37793276
-0.2670155 -0.5635291 -0.028676262 -0.36567682 0.011442582 -0.13782804 -0.43602586 0.18697502
-0.23283833 0.14527248 0.090619236 -0.017177066 -0.58553016 -0.14099343 0.106070906 -0.081709124
-0.23730835 -0.41707858 -0.1295604 0.25598127 -0.29573935 0.23234363 0.19091211 -0.3840699
-0.06110276 -0.13115509 -0.20565091 0.12329937 0.11449856 0.46161827 0.3684127 -0.017897312
-0.13658136 -0.024476826 0.23053469 -0.40431267 -0.36368543 -0.486233 -0.2103616 -0.34362411
0.14874856 0.11337107 -0.20317692 0.042883202 -0.19679332 0.22392422 0.13828425 0.4809287
0.041911893 -0.32582918 -0.2874003 0.27868232 0.1411776 0.31441772 -0.024493061 -0.08990485
-0.069938235 0.10446649 0.15731892 0.006978094 -0.11129663 -0.4047997 0.29482138 0.24741088
00000000: 0109 f2bd 2c28 7f3d 1d70 9e3d 8cbd 443e
00000010: 6a67 d8bd 7587 c5be b0cd c83e 69be 58be
00000020: 90ad aabd b29c 16bd 86c5 38be 23fe 0e3b
00000030: 5a39 c1bd 4cd3 ff3d d267 793d 8319 b0be
00000040: e417 d63e a68d 9ebb 1387 cd3c d800 35be
00000050: 7a14 5abe 6ef4 783e 3dc6 8cbd 8ba1 07be
00000060: 85f9 d93d 70bf 133e e0d1 27bd 4bfd 003e
00000070: 7d16 943c d6bb 83bb 46f6 aabc 7189 683d
00000080: 298d 2fbe 2ebd 03bf 2e04 72bd 7a01 55bc
00000090: a624 54be c3ca 7a3e 9397 a23d 58e4 103f
000000a0: 8657 183e b0f9 01bd c187 213f 577d 8cbc
000000b0: 5eca 7dbe 9204 fbbd da42 22be 25e7 2dbd
000000c0: a39b d73e 6ab6 36be 7c53 c0be ec92 98be
000000d0: ca6d 75bd db35 78be 6016 703d 4c5a fd3e
000000e0: a44b fe3e 748f fabd 7fce 16be 969e b0be
000000f0: 142e 0b3d 3d33 8cbe 35f0 bd3d a00d 0abe
00000100: fbbe 9c3d 3dde 0ebf 3608 053f bf79 943d
00000110: 07ec 64bd 0f07 44be 6293 e33d 222d c73e
00000120: 2489 2a3d cf7b a2be 86eb 1bbe e395 933e
00000130: 4dfc 063f dc7b 0ebe d931 903b 70ad c5bd
00000140: a5f3 7b3d 3274 d1be 4600 89be c499 d43e
00000150: 868c 423d b743 02be db84 aa3e f22d 003f
00000160: d1cb 7abd ecab f4be 9c52 ee3d 6d4f 933d
00000170: 6a2f 1abf 3d59 7dbe f9bc 9d3e 110b 09bc
00000180: caa3 cf3c 156c 3c3e 789c 063f 2dc4 903e
00000190: 8618 363e c271 5c3e ed69 653e e702 ee3e
000001a0: a393 343e 5b2d dbbe cd37 ddbe 1274 d43c
000001b0: 3e70 513e 559b bb3d 973c 673e c55f 273e
000001c0: 65ca 023e 829a 8fbd 7655 80bd b0bc db3e
000001d0: 80a8 06bf 0d36 0b3e 7e09 413e 5c25 a93c
000001e0: 0ffc 693d 7187 903b 2621 803e 12a9 de3e
000001f0: d503 143e 6aac b2bb b63f 6bbe d344 babd
00000200: 0b03 153e 8c3d 8e3b abe8 323e b486 913e
00000210: d062 253d 3f83 f1be 8a85 453e 6780 c13e
00000220: 41b6 88be 7143 10bf 7bea eabc fe39 bbbe
00000230: ab79 3b3c cb22 0dbe c83e dfbe 6176 3f3e
00000240: 2c6d 6ebe 4fc2 143e 9496 b93d ebb6 8cbc
00000250: 4ee5 15bf 9560 10be b43b d93d 1d57 a7bd
00000260: f600 73be 538b d5be 7bab 04be fa0f 833e
00000270: 266b 97be 7deb 6d3e 777e 433e cfa4 c4be
00000280: e346 7abd 854d 06be 2796 52be 6184 fc3d
00000290: 397e ea3d 3b59 ec3e 97a0 bc3e 629d 92bc
000002a0: fcdb 0bbe a083 c8bc 4911 6c3e 1202 cfbe
000002b0: fa34 babe 88f3 f8be 0869 57be 80ef afbe
000002c0: 8b51 183e 172f e83d 9c0d 50be 4ca6 2f3d
000002d0: 3084 49be 644c 653e 639a 0d3e 493c f63e
000002e0: ceab 2b3d 15d3 a6be 2226 93be 73af 8e3e
000002f0: dc90 103e 5cfb a03e aca5 c8bc 0920 b8bd
00000300: c73b 8fbd 87f2 d53d 3618 213e 7fa8 e43b
00000310: 7def e3bd e841 cfbe d4f2 963e 4759 7d3e

fc3.bias f4 [4]
-0.0014975922 0.027899543 -0.09848168 -0.060547616
00000000: db4a c4ba 958d e43c c3b0 c9bd c700 78bd
