trained_parameters.pth (torch, 95158 bytes, 6 tensors)

fc1.weight f4 [100, 178]
0	0x3be80e1c	0.00708176
1	0xbafb1e4a	-0.0019158807
2	0x3d81b463	0.06333234
3	0x3bb53433	0.0055299043
4	0x3c9af35c	0.01891487
5	0xbc0edb90	-0.00871934
6	0xbd884b7c	-0.066550225
7	0xbd82fe38	-0.06396145
8	0x3d887650	0.06663191
9	0x3d3ad0ea	0.045609392
10	0xbc2a412b	-0.010391514
11	0x3c4a68ae	0.012354059
12	0xbbee522c	-0.0072729792
13	0xbbd432fe	-0.0064758053
14	0xbd69515c	-0.056962356
15	0x3d9a3619	0.075298496
16	0x3d7d3a1c	0.061822996
17	0xbd88d057	-0.06680363
18	0xbd2c2902	-0.042031296
19	0x3d3800c5	0.04492261
20	0xbbed792d	-0.0072471113
21	0xbd187d3a	-0.0372288
22	0x3cabf2fe	0.020989891
23	0x3d68dcd7	0.056851234
24	0x3be9f273	0.007139498
25	0x3d9171b9	0.07101769
26	0xbd5b5d44	-0.053555742
27	0x3c94cfc4	0.018165477
28	0xbd1e9bb8	-0.038722724
29	0x3d3a5056	0.04548677
30	0xbbf87c49	-0.0075831753
31	0x3d303f71	0.043029252
32	0x3d1ce68c	0.038305804
33	0x3c6ffa15	0.014647027
34	0x3db26eaa	0.08712514
35	0x3cd6c3c5	0.026216397
36	0x3cc905bc	0.024538867
37	0x3b24fa9f	0.0025173796
38	0x3db5845b	0.088631354
39	0x3da1efd7	0.07907074
40	0x3da49642	0.08036472
41	0xbd5c7e29	-0.053831253
42	0x3dafe604	0.08588794
43	0x3da790f3	0.08181944
44	0x3d062f4c	0.03275995
45	0xbc8ec557	-0.017428083
46	0x3d2740c1	0.04083324
47	0xbcb94b5c	-0.022618942
48	0x3c95e830	0.018299192
49	0x3cc46567	0.023974134
50	0x3d86cd5b	0.06582137
51	0x3c864372	0.016389582
52	0x3d8ec917	0.069719486
53	0xbc961f11	-0.01832536
54	0xbd733b53	-0.059382748
55	0x3b8c13f2	0.0042748386
56	0xbd153874	-0.03643079
57	0xbd80a42f	-0.062813155
58	0xbd218275	-0.039431054
59	0x3d95760b	0.072979055
60	0x3d549e2d	0.05190866
61	0x3d6626b4	0.056189254
62	0x3bfdd83d	0.007746725
63	0x3d625ad4	0.0552624
64	0xbd43e2b0	-0.047823608
65	0xbd7c80cb	-0.061646264
66	0xbd73ca4d	-0.0595191
67	0x3d95ed6a	0.07320674
68	0xbb6c79d8	-0.0036083367
69	0x3da60727	0.08106833
70	0xbd1c5789	-0.038169418
71	0x3d6a8def	0.057264265
72	0xbcdb1b83	-0.026746517
73	0x3c84ba33	0.016202068
74	0x3c28d8a1	0.010305555
75	0xbd856126	-0.0651267
76	0x3d308754	0.04309781
77	0xbd33bbd0	-0.043880284
78	0xbd4d3e91	-0.050108496
79	0xbd58bd29	-0.052914772
80	0x3d8f0edf	0.06985258
81	0xbd567d03	-0.052365314
82	0x3d872172	0.06598176
83	0xbd64b018	-0.055832
84	0xbd2e7602	-0.04259301
85	0xbd19253d	-0.03738903
86	0x3c96bcea	0.018400628
87	0x3d418bfb	0.047252636
88	0x3bfae1a3	0.0076562925
89	0xbba6f968	-0.0050956495
90	0xbd62b7ef	-0.055351194
91	0x3dc10092	0.09423937
92	0x3d65e4e9	0.05612651
93	0x3dbf4205	0.09338764
94	0xbd28fe67	-0.041258242
95	0x3ab9e945	0.00141839
96	0x3b5c79a2	0.0033641835
97	0x3dc25b45	0.094900645
98	0x3cbbb04b	0.022911211
99	0xbdbda632	-0.09260215
100	0x3da9cc3d	0.082909085
101	0xba657691	-0.00087533245
102	0x3d880c9f	0.06643032
103	0xbc827221	-0.015923562
104	0x3d153e59	0.036436412
105	0x3db046d1	0.08607257
106	0x3c565137	0.013080887
107	0x3d524a42	0.05134035
108	0xbb9d9ee0	-0.004810199
109	0xbc36ca32	-0.011156606
110	0xbcbce137	-0.02305661
111	0xbc607d91	-0.013701812
112	0xbd14a2dc	-0.036288127
113	0x3d7d3553	0.061818432
114	0x3c64bb5b	0.013960685
115	0x3d0cea8a	0.03440336
116	0xbb6addb2	-0.0035837707
117	0x3da0404f	0.07824766
118	0xbb1026b5	-0.0021995727
119	0xbc4b6c62	-0.012415977
120	0xbd43606a	-0.04769937
121	0x3ca2f1ca	0.019890685
122	0xbd5e190d	-0.05422311
123	0xb9b90b1a	-0.0003529422
124	0xbccda887	-0.025104774
125	0x3d01f921	0.03173173
126	0xbb0d9f96	-0.0021610013
127	0x3d3f361f	0.046682473
128	0xbc957c48	-0.018247738
129	0x3ac10723	0.0014726858
130	0x3d364d6b	0.044507425
131	0x3cc2cdb4	0.023779728
132	0x3d81ea95	0.06343571
133	0x3c3f7eb3	0.011687922
134	0x3d2a99bf	0.04165053
135	0x3c20c478	0.009812467
136	0xbd7be12e	-0.061494045
137	0x3d888820	0.06666589
138	0xbd4358f8	-0.04769227
139	0x3d9f7a26	0.0778697
140	0xbd59b8ff	-0.05315494
141	0x3d04fe00	0.032468796
142	0xbcaf3e30	-0.021391958
143	0x3c05359e	0.008130459
144	0xbd07360e	-0.033010535
145	0x3c17892f	0.009249016
146	0x3c81ce5d	0.015845472
147	0x3d15c021	0.03656018
148	0x3c8703c6	0.016481292
149	0xbd43e904	-0.047829643
150	0x3da2ec75	0.07955257
151	0x3c36642d	0.011132282
152	0xbd3351ec	-0.0437793
153	0x3ccb4708	0.024814144
154	0x3d56f9cd	0.052484322
155	0xbcfe312a	-0.031029303
156	0x3c8b84da	0.017031122
157	0xbd6466ee	-0.055762224
158	0xbd02230c	-0.031771705
159	0x3b592c3e	0.0033137943
160	0x3d944dc5	0.07241396
161	0xbc4b04fd	-0.012391326
162	0x3cec916e	0.02887794
163	0xbd938c91	-0.07204545
164	0xbcc444cb	-0.023958584
165	0xbcf12990	-0.029438764
166	0xbd5dfff8	-0.05419919
167	0xbd84851e	-0.064707026
168	0x3d91bfaa	0.07116635
169	0x3d4b3d54	0.049619034
170	0xbb936e84	-0.0044992585
171	0x3d87b5ce	0.06626473
172	0xbd993ba3	-0.07482078
173	0x3d3192d2	0.04335291
174	0xbda21e69	-0.079159565
175	0xbd97b903	-0.07408335
176	0x3d3f0b9c	0.04664193
177	0x3c69bfce	0.014266921
178	0x3dbe89e7	0.093036465
179	0xbdb9be2d	-0.09069476
180	0x3d4b2df8	0.049604386
181	0xbc1b3290	-0.009472504
182	0x3a8a5194	0.0010552877
183	0x3c6c8d79	0.014438027
184	0xbc7e81af	-0.015533849
185	0xbd48de85	-0.049040336
186	0x3db4cf67	0.08828621
187	0xbbf16ee0	-0.0073679537
188	0x3d3af559	0.045644138
189	0x3d495b68	0.049159437
190	0x3d3b981f	0.04579937
191	0x3c07be41	0.008285106
192	0xbcea0bda	-0.028570104
193	0x3d8a83d9	0.06763429
194	0xbae08504	-0.0017129485
195	0x3ac63112	0.0015120825
196	0x3dae7ddf	0.08520102
197	0x3c5be6bb	0.01342171
198	0xbc075312	-0.008259552
199	0x3d858484	0.06519416
200	0x3d639cd2	0.055569477
201	0xbd4a7d72	-0.04943604
202	0x3d830c7d	0.06398866
203	0xbd45f74a	-0.048331536
204	0xbcf6f2a4	-0.030144997
205	0xbd31acf6	-0.04337784
206	0xbd4ff862	-0.050773986
207	0xbcfcb14b	-0.030846259
208	0x3cff33b8	0.031152591
209	0x3d36d47f	0.044636246
210	0x3cd08c44	0.025457509
211	0x3db12a39	0.086506315
212	0x3d391753	0.04518826
213	0xbbc7a1a9	-0.0060922694
214	0xbc16dd1c	-0.00920799
215	0x3d623348	0.055224687
216	0x3db395de	0.08768819
217	0x3da9cae7	0.08290654
218	0x3d982069	0.07428057
219	0x3cff259c	0.031145863
220	0x3d983c93	0.074334286
221	0x3d7528d9	0.05985341
222	0x3d890429	0.066902466
223	0x3d9e5a78	0.07732099
224	0x3c9f891e	0.019474562
225	0xbd7188a0	-0.058968186
226	0xbd0d6281	-0.03451777
227	0xbd57d69c	-0.0526949
228	0x3c8d4c44	0.01724828
229	0x3d3315a9	0.04372183
230	0x3cc20ecc	0.023688696
231	0x3a41413f	0.0007372088
232	0xbcd9d946	-0.026592862
233	0x3c191b45	0.0093448805
234	0x3db53de7	0.088496976
235	0x3d3f1e52	0.046659775
236	0xbd2771c9	-0.04088
237	0xbd17a0c9	-0.03701857
238	0x3cfcdd25	0.030867169
239	0x3c0a81d3	0.008453804
240	0x3db680e5	0.089113034
241	0x3c066ba9	0.008204379
242	0x3d62d78d	0.055381346
243	0xbd20b3cf	-0.03923398
244	0x3d735050	0.059402764
245	0x3da5b4df	0.08091139
246	0x3caf2853	0.021381533
247	0xbca6b880	-0.020351648
248	0x3cf750fa	0.03018998
249	0x3c9a0474	0.018800952
250	0x3db1c599	0.08680267
251	0x3d4fead1	0.050761048
252	0xbc25d807	-0.010122306
253	0xbd0b6746	-0.034034036
254	0x3d06e7b7	0.032935824
255	0x3ceadfc2	0.02867115

fc1.bias f4 [100]
0	0xbc910da2	-0.017706696
1	0x3d5fbc5b	0.05462299
2	0x3c93b555	0.018030802
3	0x3ccbff1a	0.024901915
4	0xbcf95112	-0.030434165
5	0xbd31e720	-0.04343331
6	0x3ca343fe	0.019929882
7	0xbc81713c	-0.015801065
8	0x3dbea1bd	0.09308193
9	0x3d40566d	0.046957422
10	0xbcaadadb	-0.020856312
11	0xbd3dfef3	-0.046385717
12	0x3d9d7219	0.07687778
13	0x3bb8e169	0.0056421054
14	0x3d86ba77	0.06578534
15	0x3d3ac03d	0.04559349
16	0xbaabf8f0	-0.0013120454
17	0xbd401d02	-0.046902664
18	0x3db3f526	0.08786993
19	0x3d9dfba7	0.077140145
20	0xbd240cb2	-0.04005117
21	0x3d9f95b4	0.077922255
22	0x3db3e52f	0.08783948
23	0x3d7fd94a	0.062463082
24	0xbd80423f	-0.062626354
25	0x3c1d32a7	0.009594596
26	0x3d8c5031	0.06851233
27	0x3d457dbd	0.048215616
28	0x3d58919d	0.052873243
29	0x3d923c3e	0.071403965
30	0x3bc5cbbc	0.00603625
31	0xbd813f82	-0.06310941
32	0xbccdba20	-0.025113165
33	0x3d315b0d	0.043299723
34	0xbc18c51f	-0.009324341
35	0x3d5f8585	0.054570694
36	0xbc8dab29	-0.01729353
37	0x3d46c499	0.048527334
38	0xbd194caa	-0.03742663
39	0x3d936830	0.071976066
40	0x3d22f64a	0.03978566
41	0x3d3e892f	0.046517547
42	0x3dbd1ebf	0.0923438
43	0xbb9b4150	-0.0047380105
44	0x3d9cc489	0.076546736
45	0x3d1dae52	0.038496323
46	0xbc4d7ebe	-0.012542425
47	0x3dbb05e7	0.09131985
48	0xbd33abb8	-0.043864936
49	0xbc4264b0	-0.011864826
50	0x3d939435	0.072060026
51	0x3d949104	0.07254222
52	0xbd183524	-0.037160054
53	0x3d4855b1	0.048909847
54	0x3c4e872e	0.012605472
55	0xbd8ef5ce	-0.06980477
56	0x3c8ea6f9	0.017413603
57	0x3b438f77	0.002984015
58	0x3da77c8f	0.081780545
59	0xbd1513fc	-0.03639601
60	0x3d7c2da5	0.061566968
61	0x3d2530ce	0.040329747
62	0xbcd93dbc	-0.026518695
63	0x3d488a9d	0.048960317
64	0x3cf9ac95	0.030477801
65	0x3d886915	0.06660668
66	0xbd048e82	-0.03236247
67	0xbcf070d9	-0.029350685
68	0x3d1764e0	0.036961436
69	0x3d7784e8	0.060429484
70	0x3d33a0ed	0.043854643
71	0x3d1001f8	0.035158128
72	0xbcc0c042	-0.023529176
73	0xbd378b5b	-0.044810634
74	0xbc76374c	-0.015027832
75	0x3c3c411e	0.0114901345
76	0x3dba0423	0.0908282
77	0xbbaaf973	-0.005217725
78	0x3daaf0c1	0.083467014
79	0x3d52148a	0.05128912
80	0x3c5b9cdc	0.013404097
81	0xbca0f033	-0.019645786
82	0xbb8a1e98	-0.004215073
83	0xbccee0bb	-0.025253644
84	0x3d004cea	0.03132335
85	0xbcef51a4	-0.029213734
86	0x3d26aafc	0.040690407
87	0xbc8801fe	-0.016602512
88	0x3daf69b9	0.08565087
89	0x3d671726	0.05641856
90	0xbd289a0a	-0.041162528
91	0xbd199240	-0.03749299
92	0xbc6a7a16	-0.014311334
93	0xbd306a64	-0.043070212
94	0x3d8cd998	0.0687744
95	0x3d1cff07	0.03832915
96	0xbd33838b	-0.04382662
97	0x3da72e55	0.08163134
98	0x3d8929ec	0.06697449
99	0xbc110d88	-0.008853324

fc2.weight f4 [50, 100]
0	0x3d6e505d	0.05818211
1	0x3da8bed7	0.08239525
2	0xbda05ffd	-0.07830808
3	0xbcf8629f	-0.030320464
4	0xbdc75d3a	-0.097345784
5	0x3ddc5c30	0.10759771
6	0xbdaeb490	-0.08530533
7	0x3cdd3873	0.027004456
8	0x3dddeb7b	0.1083593
9	0x3dc41c2a	0.09575684
10	0xbd6dfe61	-0.058103923
11	0x3dd58847	0.104263835
12	0x3d9a9f88	0.075499594
13	0xbc822207	-0.015885366
14	0x3b88a5eb	0.0041701696
15	0x3d145e2a	0.036222614
16	0x3d954adc	0.07289669
17	0xbd61407c	-0.054993138
18	0xbd984c51	-0.07436431
19	0x3def0fd5	0.116729416
20	0x3dacb36b	0.08432659
21	0x39684394	0.00022150419
22	0x3d8ab74e	0.06773244
23	0x3db85a76	0.09001629
24	0x3d85b008	0.06527716
25	0x3dacf7be	0.084456906
26	0xbcd305cf	-0.025759606
27	0x3cd8f149	0.026482241
28	0x3d443cc3	0.04790951
29	0x3bd3e565	0.006466555
30	0xbdd4d206	-0.10391621
31	0xbbb51b90	-0.0055269673
32	0x3d5285c0	0.051397085
33	0xbbf4f45b	-0.0074754185
34	0xbc195b09	-0.009360083
35	0x3dbe7136	0.09298937
36	0xbdc2eeed	-0.09518228
37	0x3d6b6426	0.057468556
38	0x3d25bc91	0.040463034
39	0x3dd5144c	0.10404262
40	0xbb174116	-0.0023079566
41	0xbc489ed1	-0.012244896
42	0x3dcf70a9	0.1012891
43	0xbd43d188	-0.047807246
44	0x3cbc9c88	0.023023859
45	0x3d5540ff	0.05206394
46	0xbb5bbb22	-0.0033528288
47	0x3d680522	0.05664552
48	0xbdf29361	-0.118445165
49	0x3b9bfdd6	0.004760484
50	0xbdb0dc0d	-0.08635721
51	0x3d221cd7	0.039578285
52	0x3dceeb43	0.10103466
53	0xbd2f72aa	-0.04283396
54	0xbd9d6ca7	-0.076867394
55	0xbd53149e	-0.051533334
56	0x3d8bf4da	0.06833811
57	0xbd91b8d9	-0.07115335
58	0x3ccea5c2	0.025225524
59	0x3d51f832	0.051262088
60	0xbd979ff8	-0.074035585
61	0xbd3b721f	-0.04576313
62	0xbdf2880d	-0.11842356
63	0xbc435816	-0.011922857
64	0x3d9b10e3	0.0757158
65	0x3c343094	0.01099791
66	0xbd59bad4	-0.05315669
67	0x3c21ee4e	0.009883476
68	0xbc25f0bb	-0.010128195
69	0x3bec41c4	0.0072099883
70	0xbdc5c923	-0.096575044
71	0xbd3b331f	-0.04570305
72	0x3dee982c	0.11650118
73	0xbcb3e615	-0.021960298
74	0x3d43bfe0	0.047790408
75	0xbcf9dd30	-0.030500978
76	0xbb700e06	-0.0036629452
77	0xbc956460	-0.01823634
78	0xbc9613cd	-0.018319989
79	0x3d05a097	0.032623854
80	0xbbda808b	-0.0066681555
81	0x3d0de46f	0.03464168
82	0x3d10cf14	0.035353735
83	0x3d3b3744	0.045707002
84	0x3d6c3a8f	0.057673033
85	0xbb470acc	-0.0030371426
86	0xbdaf95fb	-0.085735284
87	0x3d3ba5f8	0.045812577
88	0x3d9fd7ac	0.07804808
89	0xbd3a5005	-0.04548647
90	0xbc9c2262	-0.019059364
91	0x3dfcfa90	0.123524785
92	0xbd9f783c	-0.07786605
93	0x3d2bf70a	0.04198364
94	0x3d668672	0.05628056
95	0xbd96d9f2	-0.073657885
96	0xbd3f1716	-0.046652876
97	0xbd03fca1	-0.032223348
98	0x3d67d968	0.05660382
99	0x3a07e06b	0.0005183282
100	0xbd9253df	-0.071449034
101	0x3d25175d	0.040305484
102	0x3c8e77b2	0.01739106
103	0x3dd07f21	0.10180498
104	0x3c539e94	0.012916226
105	0x3da6ee38	0.08150905
106	0xbd2c53bc	-0.042072043
107	0x3dac9998	0.08427733
108	0x3d9d8016	0.07690446
109	0x3ddeac10	0.10872662
110	0x3de66fc2	0.11251785
111	0x3cf18a37	0.029484851
112	0xbc00daaf	-0.007864638
113	0xbd3df14d	-0.0463727
114	0xbd8f2a4d	-0.0699049
115	0xbd143ad6	-0.036188923
116	0xbd829e6c	-0.06377873
117	0x3dbd6736	0.092482015
118	0x3dba82a8	0.09106952
119	0xbd778f21	-0.060439233
120	0x3dcb7c65	0.09935836
121	0xbc5bf35c	-0.013424721
122	0x3bcfad0b	0.006337767
123	0xbd00aa14	-0.0314122
124	0x3ddc173b	0.10746618
125	0x3d44aa9d	0.048014272
126	0xbd8eb64a	-0.06968363
127	0x3da3a686	0.07990746
128	0x3ddca2d4	0.107732445
129	0x3d8ac9d8	0.0677678
130	0xbcea192b	-0.028576454
131	0xbca5ba97	-0.020230575
132	0x3ca8d0e1	0.020607414
133	0x3d532351	0.051547352
134	0xbd5c0205	-0.053712863
135	0x3cb27be5	0.021787593
136	0xbaf97129	-0.0019030917
137	0xbdf189fb	-0.11793896
138	0x3d88fe53	0.066891335
139	0x3cd57671	0.026057454
140	0xbd96850b	-0.07349595
141	0x3da0d789	0.0785361
142	0x3da8e533	0.08246841
143	0xbcbd1948	-0.023083344
144	0x3986607d	0.0002563036
145	0xbd033613	-0.03203399
146	0xbcca87a7	-0.024722887
147	0x3dd124cf	0.10212099
148	0xbd64bd9f	-0.0558449
149	0x3daab98a	0.0833617
150	0x3d854baa	0.065085724
151	0x3b8079c9	0.003920768
152	0x3df0b4e5	0.11753253
153	0x3df3650b	0.11884507
154	0x3be0943e	0.0068536093
155	0xbd9912ce	-0.0747429
156	0xbcd634a4	-0.026148148
157	0xbdc5a446	-0.09650473
158	0xbdbbe232	-0.09174003
159	0xbcead2db	-0.028664997
160	0x3d8c286f	0.068436496
161	0xbc5dcb1f	-0.013537197
162	0x3c1beac1	0.009516419
163	0x3df32eae	0.11874138
164	0x3ded48ed	0.11586175
165	0x3b16decf	0.0023020988
166	0xbd2a2d94	-0.041547373
167	0xbd86877f	-0.065688126
168	0xbc8fea53	-0.01756779
169	0x3d0f1b3a	0.034938075
170	0x3cbfae0d	0.023398424
171	0x3d65f540	0.05614209
172	0xbd93b6f4	-0.0721263
173	0x3d8c8ab4	0.06862393
174	0xbbe4ad19	-0.0069786427
175	0x3c839d66	0.016066264
176	0x3d609593	0.054830145
177	0x3dd7731c	0.10520002
178	0xbcce7e1b	-0.025206616
179	0x3d0b11f8	0.033952683
180	0xbdccf6df	-0.100080244
181	0x3d959e92	0.073056355
182	0xbba5c1c2	-0.005058498
183	0xbc90ca8e	-0.01767471
184	0xbc772348	-0.015084095
185	0xbc841f51	-0.016128214
186	0xbd23dda1	-0.040006284
187	0xbd33163b	-0.043722373
188	0x3dc835ee	0.09775911
189	0x3c9c4bb2	0.019079063
190	0xbd39ee86	-0.04539349
191	0x3d5c2f47	0.053756025
192	0xbd12c805	-0.035835285
193	0xbcbcd969	-0.023052888
194	0xbd542ca8	-0.0518004
195	0xbd97ce84	-0.074124366
196	0x3c531c6d	0.012885195
197	0x3d68048e	0.05664497
198	0x3de518db	0.111863814
199	0xbd76c5f0	-0.06024736
200	0x3d490c04	0.049083725
201	0x3dddf43d	0.108376004
202	0x3dda1dba	0.10650201
203	0xbca47646	-0.020075928
204	0xbd9b7709	-0.075910635
205	0x3d8f9456	0.07010715
206	0x3dd5702c	0.10421786
207	0x3d6e9049	0.05824307
208	0xbc829c4c	-0.015943669
209	0xbcc629de	-0.024189886
210	0x3da60666	0.08106689
211	0xbdcb050c	-0.09913072
212	0x3c4bf2c9	0.012448021
213	0x3bbd7c8d	0.00578267
214	0xbd83a95c	-0.06428787
215	0x3cddeaae	0.027089443
216	0x3cf52435	0.029924491
217	0x3d5c487b	0.05378006
218	0x3b8d51fb	0.0043127513
219	0xbd1ab802	-0.03777314
220	0x3dcc2d1c	0.099695414
221	0x3d62125e	0.055193298
222	0x3d9ca5c1	0.076488025
223	0x3d471bc3	0.04861046
224	0x3c85ffbf	0.0163573
225	0xbde05a33	-0.10954704
226	0x3c06a01b	0.008216883
227	0xbb5736ed	-0.0032839135
228	0xbd88ee60	-0.066860914
229	0x3c4a0137	0.012329391
230	0x3d2dda7f	0.042444702
231	0x3d3c9b3a	0.046046473
232	0x3d42144c	0.047382638
233	0x3cf57045	0.02996076
234	0x3d9817e4	0.07426432
235	0x3d6317a2	0.05544246
236	0x3d306b17	0.04307088
237	0x3d694833	0.05695362
238	0x3da2f942	0.079576984
239	0x3c9021df	0.017594276
240	0x3bc73134	0.0060788635
241	0x3d0e992c	0.034814045
242	0xbdcf8196	-0.101321384
243	0x3df0c1fe	0.11755751
244	0xbc0aa762	-0.008462759
245	0xbdafea39	-0.08589596
246	0xbcf7fa79	-0.030270802
247	0x3cc2fe6e	0.023802962
248	0xbd88a3ba	-0.06671853
249	0xbbb5be49	-0.0055463654
250	0xbd8048ce	-0.062638864
251	0x3d0cb492	0.034351893
252	0x3d9e15a6	0.07718973
253	0x3d811ea1	0.0630467
254	0xbd85afef	-0.06527697
255	0x3c61665f	0.013757317

fc2.bias f4 [50]
0	0x3d9b3578	0.07578558
1	0xbc258123	-0.010101589
2	0x3daed151	0.08536018
3	0x3dc5c0b9	0.096558996
4	0x3d151d72	0.036405034
5	0x3d509f5a	0.05093322
6	0x3dae50c8	0.085115016
7	0x3d0e4af1	0.03473944
8	0xbb50d833	-0.0031867146
9	0x3d1801bd	0.037111033
10	0x3c269512	0.010167377
11	0xbd8d7dfb	-0.069087945
12	0xbc12475e	-0.008928148
13	0x3c1c381f	0.009534865
14	0xbd1cca2d	-0.038278747
15	0x3dcdd797	0.10050886
16	0xbd8ba689	-0.068188734
17	0x3d135b08	0.035975486
18	0x3dd38272	0.10327615
19	0xbd0b250a	-0.03397087
20	0x3d0f1275	0.03492971
21	0xbdb04eb2	-0.0860876
22	0x3c11ab92	0.008891003
23	0x3c1185a7	0.008881963
24	0x3dd3f1c1	0.10348845
25	0x3db04eb5	0.08608762
26	0x3dddb269	0.10825045
27	0x3c9670d7	0.018364353
28	0x3d0f68cb	0.035012048
29	0x3db3dd74	0.08782473
30	0x3df65d8c	0.120295614
31	0x3cca5651	0.024699362
32	0x3c71e1c3	0.014763298
33	0xbdb50235	-0.088383116
34	0x3cc57a2a	0.024106104
35	0x3dc68e76	0.09695141
36	0xbd2de32b	-0.042452972
37	0xbd1a351f	-0.037648316
38	0x3d38143a	0.044941165
39	0x3c25497e	0.010088323
40	0x3d28ca3c	0.04120849
41	0x3d05d9d6	0.032678448
42	0x3d0a013a	0.033692576
43	0x3ba26e02	0.0049569616
44	0xbcf9b0ac	-0.030479752
45	0xba40a67d	-0.00073490274
46	0xbda13033	-0.078705214
47	0xbc8598dd	-0.016308242
48	0x3d127271	0.03575367
49	0x3c88f6ab	0.016719183

fc3.weight f4 [4, 50]
0	0xbd99f822	-0.07518031
1	0xbde84b1c	-0.11342451
2	0xbde49a6b	-0.111622654
3	0xbd7781c4	-0.06042649
4	0x3e0589cc	0.13040847
5	0x3d94a53d	0.07258079
6	0x3e08d4b7	0.13362394
7	0xbe1dc64b	-0.15407674
8	0xbdb50227	-0.08838301
9	0xbe1ae2a7	-0.15125524
10	0x3e117561	0.14204933
11	0xbe0534a1	-0.13008358
12	0x3cfdf7ec	0.031002007
13	0xbd8a22eb	-0.06744941
14	0x3e2d579b	0.1692795
15	0xbcf83cf4	-0.030302502
16	0xbc8d2eeb	-0.017234286
17	0xbe03f249	-0.12885393
18	0x3b0a1ff9	0.0021076186
19	0xbd7c38d9	-0.06157765
20	0xbc29d92a	-0.010366717
21	0x3e2218fe	0.15829846
22	0x3ded6100	0.11590767
23	0x3dac2487	0.084054045
24	0xbe0fcc0f	-0.14042686
25	0x3dca5158	0.09878796
26	0xbe031435	-0.12800677
27	0x3ade85cc	0.001697713
28	0xbe27ea92	-0.16398075
29	0x3d912649	0.070873804
30	0xbdba0161	-0.09082294
31	0x3c9f5a4d	0.019452238
32	0xbd2740e9	-0.040833388
33	0x3ce951fd	0.028481478
34	0xbe01f39f	-0.1269059
35	0x3e198afd	0.14994426
36	0x3c85d0e0	0.01633495
37	0x3e22a943	0.1588488
38	0x3dd75989	0.10515124
39	0xbd6b5bf7	-0.05746075
40	0x3d4059cc	0.046960637
41	0x3e1b4a64	0.15165097
42	0xbdfc1911	-0.123094685
43	0x3ddacd11	0.106836446
44	0xbdd3209a	-0.10308953
45	0xbd16d65e	-0.03682553
46	0x3e1ddb67	0.15415727
47	0x3e271434	0.163163
48	0x3df4efad	0.11959777
49	0x3e0a8b43	0.13529687
50	0x3da346cf	0.0797249
51	0x3e2c5315	0.16828568
52	0x3de67119	0.112520404
53	0x3deef5b8	0.11667961
54	0x3c18bbbb	0.009322102
55	0xbe136728	-0.1439482
56	0xbddf688a	-0.10908611
57	0xbdb98d36	-0.09060137
58	0x3dfaaee8	0.12240392
59	0x3d79692d	0.06089132
60	0xbd046afc	-0.03232859
61	0xbe1416b3	-0.14461784
62	0xbe0d7854	-0.13815433
63	0xbd7cdff4	-0.061737016
64	0xbe27191d	-0.16318174
65	0x3dbd7f27	0.09252768
66	0xbe159aec	-0.1460988
67	0x3bd48144	0.006485136
68	0x3def2079	0.116761155
69	0xbd13efc4	-0.03611733
70	0x3da7e13f	0.08197259
71	0xbdd6a8c9	-0.10481412
72	0xbe0ad510	-0.1355784
73	0xbdba1dc6	-0.0908771
74	0xbd790e0c	-0.06080441
75	0x3c8d68cc	0.017261885
76	0x3c8695a9	0.016428785
77	0xbd2c36f4	-0.042044595
78	0x3d834e1d	0.06411383
79	0x3e1390c2	0.1441069
80	0xbd808063	-0.06274488
81	0x3d1a49c4	0.037668005
82	0x3d843374	0.064551264
83	0xbde4a0f1	-0.1116351
84	0xbd456e3c	-0.04820083
85	0x3d647add	0.055781234
86	0x3e1b0bb3	0.15141182
87	0xbe1b658d	-0.15175457
88	0xbd8552bd	-0.06509922
89	0x3e24b43f	0.16084383
90	0x3e03419d	0.12817998
91	0x3ccabce6	0.024748277
92	0x3deb1e06	0.11480336
93	0x3d954960	0.07289386
94	0xbe1302d6	-0.1435655
95	0x3e2f1fdb	0.17101996
96	0xbddb2b3d	-0.107016064
97	0xbd2e80d0	-0.042603314
98	0x3dbca6f7	0.092115335
99	0x3e1770c7	0.14789115
100	0x3e06ca43	0.13163094
101	0x3d2f2901	0.042763714
102	0xbd91b427	-0.071144395
103	0x3ca548af	0.02017626
104	0xbd674d5d	-0.056470264
105	0x3d67c4af	0.056584056
106	0xbda354b1	-0.07975138
107	0xbcd7e5f4	-0.026354767
108	0xbdb0b0d9	-0.08627481
109	0xbdcf5029	-0.10122711
110	0xbe0055c8	-0.12532723
111	0xbd60a863	-0.054848086
112	0xbe14f5e9	-0.14546932
113	0x3c889083	0.016670471
114	0xbdb93764	-0.09043768
115	0x3d24935a	0.040179588
116	0x3e094acf	0.13407443
117	0x3cb400de	0.02197307
118	0x3d936667	0.07197266
119	0x3da47d04	0.08031657
120	0x3df8d7da	0.121505454
121	0xbe0804dd	-0.13283105
122	0xbe14f3b4	-0.1454609
123	0x3d01a88a	0.031654872
124	0x3daea900	0.08528328
125	0xbe18d464	-0.1492477
126	0xbdee1185	-0.11624435
127	0x3cda15f4	0.026621796
128	0x3e00ce19	0.1257862
129	0x3dc80bb6	0.09767859
130	0xbda2cc3a	-0.079491094
131	0xbe04ad73	-0.1295679
132	0x3d51bcea	0.051205553
133	0xbdf94d61	-0.12172962
134	0x3e19e1a1	0.15027477
135	0xbd5b1c66	-0.05349388
136	0x3def4bb7	0.11684363
137	0x3c699f9f	0.014259248
138	0xbd8fa2b8	-0.07013458
139	0xbe1c2244	-0.15247446
140	0x3d9af08e	0.075654134
141	0x3d6dcb8a	0.058055438
142	0xbd4f8ea3	-0.05067314
143	0xbd641083	-0.05567981
144	0x3ddb3448	0.10703331
145	0x3e08f57e	0.13374898
146	0xbdb73851	-0.089462884
147	0xbe0219e2	-0.12705186
148	0xbe1eabcf	-0.15495227
149	0x3d3a6a2c	0.04551141
150	0x3d1662d0	0.03671533
151	0xbd4c17f2	-0.049827524
152	0xbd956f25	-0.0729659
153	0xbd154818	-0.036445707
154	0xbd8efb88	-0.069815695
155	0xbe065d45	-0.13121517
156	0xbe276b43	-0.16349511
157	0x3c583b6a	0.013197759
158	0x3e28dbe9	0.16490139
159	0x3e130837	0.14358602
160	0xbb6bcc61	-0.0035979974
161	0x3e13c215	0.14429505
162	0x3d7c985e	0.061668746
163	0xbc8678d7	-0.016415043
164	0x3dacc032	0.08435096
165	0x3dd51dbc	0.10406062
166	0x3c928fcb	0.017890831
167	0xbdcd0dde	-0.100124106
168	0xbd5ec864	-0.054390326
169	0xbd05dd79	-0.032681916
170	0xbd20912d	-0.03920095
171	0x3d396b0e	0.04526811
172	0x3d0fb60f	0.035085734
173	0xbd081385	-0.03322174
174	0x3e193ad4	0.14963847
175	0xbe151bc6	-0.14561376
176	0x3de47557	0.11155193
177	0xbd81e3e5	-0.063422956
178	0x3dc5a383	0.09650328
179	0xbd5c9131	-0.053849403
180	0x3de104b0	0.10987222
181	0xbcc615b0	-0.024180263
182	0x3dbd84ba	0.09253831
183	0xbe11b1bc	-0.14227957
184	0x3d596df3	0.05308337
185	0xbd3caed8	-0.04606518
186	0xbe135209	-0.14386763
187	0xbdd0058d	-0.10157309
188	0x3da9c5e1	0.082896955
189	0x3e24cfea	0.16094938
190	0x3e11d5d6	0.14241728
191	0xbd912db9	-0.07088799
192	0xbe10bc9a	-0.14134446
193	0xbdd60e6c	-0.104519695
194	0x3e01a4ed	0.1266057
195	0x3c1deb91	0.009638683
196	0xbd280e2b	-0.041029137
197	0xbdff085b	-0.124527656
198	0xbd7170e3	-0.058945548
199	0x3d42a8de	0.047524326

fc3.bias f4 [4]
0	0xbc11e75c	-0.008905258
1	0xbd9a95a9	-0.07548077
2	0xbcfad517	-0.030619187
3	0xbd27072d	-0.040778328
