trained_parameters.pth (torch, 95158 bytes, 6 tensors)

fc1.weight f4 [100, 178]
0.029574744 -0.04182435 -0.022884488 -0.029114332 0.057995398 0.016302407 0.03973 0.013798155
0.02225448 -0.0039282064 0.08794369 0.0077019287 -0.031820863 0.020229498 0.056090835 0.057383373
-0.03877379 0.06958657 -0.014820426 0.0897012 -0.055701844 -0.05814088 -0.022222519 -0.013229108
-0.057786647 0.055983152 0.08376398 -0.00406696 0.014441012 0.07134496 0.010214 -0.025711382
-0.01324676 0.003992214 0.021764321 -0.05331619 -0.007565158 -0.054538965 0.02253737 0.07541824
-0.011556542 -0.03761971 -0.0081176255 0.034436416 0.07016198 0.060662907 0.08722267 0.04263511
0.013512131 -0.044539545 -0.0042966465 0.093944624 0.06688048 -0.038541995 -0.05455633 -0.015656622
-0.042048912 0.0072319037 0.021736728 -0.030868957 0.051152654 0.048856653 -0.013623075 -0.01887108
0.0085291555 -0.029779995 -0.0090032285 -0.051418647 -0.01607765 -0.034378026 0.009642654 -0.025061743
0.065741144 -0.005386218 -0.026000232 -0.022729151 0.01655597 -0.039397564 0.0033313234 0.030834181
0.08581539 0.062170506 0.043864597 0.030776441 0.05908804 0.052707225 0.036488954 0.028965257
0.069131516 0.06333792 -0.049179513 -0.038955916 0.04732918 0.018056544 -0.04967854 0.050280876
0.07037524 -0.024348455 -0.009305752 -0.032419033 -0.003746908 -0.056916084 -0.03337121 0.019301357
0.07301655 -0.058948178 0.089897975 0.045401722 -0.037865974 0.07588709 0.06777925 -0.019297203
-0.044154562 0.08466304 0.02418115 -0.06521594 0.0695082 0.08476971 0.012868915 -0.016370557
0.002176909 0.053900823 -0.028517172 -0.02011778 0.055310383 0.0016891174 -0.049229916 0.05296582
0.07847895 0.058403146 0.052924078 0.046763677 0.08499813 0.087411314 0.06499904 0.08252432
0.04401518 -0.009375535 -0.024910117 -0.07103025 0.053586643 -0.083731614 -0.03703355 0.013277425
0.06740743 -0.049762607 0.030825127 0.06901879 0.043197818 -0.009865653 -0.023780424 0.089414604
0.07080318 0.08573048 0.067160904 0.06932908 -0.014445876 -0.054270964 -0.06733465 -0.013431075
0.054518655 0.002461622 0.07540097 -0.029074892 -0.041607887 -0.030898217 0.07180453 0.050276928
0.016055778 -0.04560689 -0.037077468 0.08385421 0.046383526 -0.060994644 -0.027528534 0.07317377
0.036849353 -0.04267609 0.0040016663 0.052355397 -0.048757065 0.042804215 0.07102433 -0.023875752
0.03440749 -0.063564695 0.059475582 0.08614807 -0.032462984 0.069078706 0.082480535 0.047152016
0.038480766 0.04617903 -0.0030623781 0.055510197 0.054940887 -0.006915077 0.02283008 -0.026644923
0.077663705 -0.01040641 0.08166036 -0.048739895 -0.06050176 -0.04519162 0.056333672 -0.048749838
0.012887988 -0.04264654 0.0205117 0.06247349 0.096044935 -0.044629328 0.038750667 0.0882899
-0.022465548 -0.014027452 0.0692785 0.098778464 0.088973254 0.010694033 -0.0073569906 0.052328143
0.030637786 -0.0036396077 0.0563745 0.06565806 -0.012804732 -0.013105907 0.008737586 0.007245092
-0.03428551 -0.05050727 0.028372228 -0.052728537 0.02145238 -0.048446123 -0.05032459 0.015932398
-0.07979977 -0.016130533 0.025328655 0.058339868 -0.07727849 0.00058203796 -0.05542416 -0.03112428
-0.0321962 0.06604391 0.025721673 -0.07304526 0.005492286 0.033415157 -0.09245488 -0.013411293
00000000: bc46 f23c 0250 2bbd 4078 bbbc 2e81 eebc
00000010: 958c 6d3d a08c 853c edbb 223d a811 623c
00000020: 074f b63c 2fb8 80bb d21b b43d 7660 fc3b
00000030: 9856 02bd 55b8 a53c 81bf 653d d40a 6b3d
00000040: 44d1 1ebd 6783 8e3d 5fd1 72bc 43b5 b73d
00000050: 9e27 64bd 2225 6ebd 000c b6bc e7be 58bc
00000060: b1b1 6cbd 974e 653d 738c ab3d 2244 85bb
00000070: ff99 6c3c 4e1d 923d 9f58 273c ada0 d2bc
00000080: f008 59bc 1ed1 823b 174b b23c 1462 5abd
00000090: 25e5 f7bb 4064 5fbd 4aa0 b83c e174 9a3d
000000a0: a657 3dbc 2017 1abd caff 04bc 330d 0d3d
000000b0: 16b1 8f3d ab79 783d cda1 b23d 27a2 2e3d
000000c0: fc61 5d3c 196f 36bd e2ca 8cbb 0a66 c03d
000000d0: a2f8 883d 36de 1dbd 7576 5fbd 5142 80bc
000000e0: 7b3b 2cbd 9bf9 ec3b 3911 b23c e5e0 fcbc
000000f0: 7285 513d ea1d 483d 5133 5fbc 8697 9abc
00000100: dfbd 0b3c 2df5 f3bc 4782 13bc 5c9c 52bd
00000110: 47b5 83bc f9cf 0cbd 39fc 1d3c 494e cdbc
00000120: 4ba3 863d df7e b0bb 70fe d4bc 7c32 babc
00000130: 63a0 873c 575f 21bd 5552 5a3b f797 fc3c
00000140: fbbf af3d 80a6 7e3d 5dab 333d e01e fc3c
00000150: 4d06 723d 88e3 573d 7175 153d 8c48 ed3c
00000160: d394 8d3d 50b7 813d 7570 49bd 3d90 1fbd
00000170: 3edc 413d 51eb 933c ba7b 4bbd 52f3 4d3d
00000180: e520 903d 6976 c7bc 2777 18bc d2c9 04bd
00000190: af8e 75bb d720 69bd 40b0 08bd e11d 9e3c
000001a0: b389 953d a573 71bd 6e1c b83d 28f7 393d
000001b0: 5a19 1bbd b16a 9b3d d9cf 8a3d 2b15 9ebc
000001c0: 6adb 34bd d163 ad3d 8c17 c63c ef8f 85bd
000001d0: 515a 8e3d be9b ad3d 24d8 523c 8c1b 86bc
000001e0: 79aa 0e3b 1cc7 5c3d d89c e9bc 0bce a4bc
000001f0: 248d 623d 6065 dd3a 4fa5 49bd b0f2 583d
00000200: 92b9 a03d 2338 6f3d ebc6 583d 458b 3f3d
00000210: 8013 ae3d b404 b33d 371e 853d 8302 a93d
00000220: 4349 343d d89b 19bc 4d10 ccbc 4f78 91bd
00000230: ab7d 5b3d 7b7b abbd 7eb0 17bd 8f89 593c
00000240: e80c 8a3d e0d3 4bbd fa84 fc3c b959 8d3d
00000250: 32f0 303d 8ca3 21bc 2acf c2bc 011f b73d
00000260: 4201 913d 7693 af3d a88b 893d 68fc 8d3d
00000270: 65ae 6cbc 3b4b 5ebd c0e6 89bd 030e 5cbc
00000280: f44e 5f3d 2a53 213b d36b 9a3d 782e eebc
00000290: 086d 2abd 421e fdbc 410e 933d 2eef 4d3d
000002a0: 6887 833c 4ace 3abd 8bde 17bd c2bb ab3d
000002b0: a7fc 3d3d 85d5 79bd 8583 e1bc 21dc 953d
000002c0: 59ef 163d 20cd 2ebd 6920 833b 9d72 563d
000002d0: 7db5 47bd 7953 2f3d 3475 913d 1597 c3bc
000002e0: deee 0c3d 352e 82bd ab9c 733d 666e b03d
000002f0: e8f7 04bd 2379 8d3d 8eeb a83d 7922 413d
00000300: 029e 1d3d 3926 3d3d 2eb2 48bb a95e 633d
00000310: b209 613d df97 e2bb 2606 bb3c 7446 dabc
00000320: 260e 9f3d a67f 2abc 8c3d a73d 7ca3 47bd
00000330: b2d0 77bd d91a 39bd 23be 663d e9ad 47bd
00000340: 2428 533c 23ae 2ebd 2708 a83c 34e4 7f3d
00000350: 35b3 c43d 3ecd 36bd 05b9 1e3d 56d1 b43d
00000360: ab09 b8bc 66d3 65bc e3e1 8d3d 5d4c ca3d
00000370: 9c37 b63d 0636 2f3c e912 f1bb 0956 563d
00000380: 18fc fa3c 7c86 6ebb f3e8 663d bc77 863d
00000390: f0ca 51bc 28ba 56bc 1828 0f3c 3d68 ed3b
000003a0: f76e 0cbd b6e0 4ebd e06c e83c e1f9 57bd
000003b0: e7bc af3c 716f 46bd 2821 4ebd a984 823c
000003c0: 106e a3bd 2e24 84bc 0a7e cf3c c9f5 6e3d
000003d0: 2f44 9ebd e893 183a 7204 63bd 59f8 febc
000003e0: 2ae0 03bd 0842 873d 42b6 d23c c198 95bd
000003f0: a2f8 b33b 55de 083d fc58 bdbd 0abb 5bbc

fc1.bias f4 [100]
8.342124e-05 0.04739572 0.094338045 -0.017312298 0.048298433 -0.064966366 -0.0024477667 0.018615846
0.020483993 0.04169374 -0.013477606 -0.03676534 0.06530775 0.033225205 -0.015140609 0.022605047
0.06425828 0.07546495 0.003031362 0.018210758 0.0248723 -0.037549067 -0.03188936 -0.0032834364
0.06810029 -0.0012280698 0.04340107 -0.036893226 0.03537018 0.044614162 0.090663575 -0.031509582
0.008603672 0.083235465 -0.0061087254 -0.036521517 0.09011779 0.08144942 -0.038213838 -0.03948541
0.04026749 -0.07837037 0.02251064 0.08846497 0.056049585 0.05657469 0.026283504 0.013610689
-0.0136831505 0.04685619 -0.018476177 0.037703514 -0.014150446 0.030149285 0.015997728 0.08104036
-0.02862615 0.06454776 0.094406486 0.039629888 0.003041734 0.019879414 0.0020919817 -0.06059904
0.025013711 0.07583875 0.07760804 -0.01860596 -0.01119104 -0.004269947 0.008373843 0.04171634
0.020195464 -0.03711107 0.021071812 0.034687605 -0.032277957 0.012593326 0.011390159 0.012103266
0.07506107 0.036293585 -0.047112677 -0.04143274 -0.03940021 -0.036089476 -0.005267953 -0.01994044
0.056531098 -0.03685309 0.01826693 0.08676088 0.08150526 -0.013300247 0.024234079 -0.0055331485
0.06936309 -0.038012467 0.058419615 0.083207
00000000: 70f2 ae38 0422 423d 4e34 c13d 85d2 8dbc
00000010: 94d4 453d 160d 85bd b66a 20bb 4280 983c
00000020: 0cce a73c 0ec7 2a3d 2dd1 5cbc 4197 16bd
00000030: 12c0 853d 2717 083d 5110 78bc 382e b93c
00000040: d899 833d 5e8d 9a3d d1a9 463b ba2e 953c
00000050: fec0 cb3c 0dcd 19bd 6b9e 02bd ec2e 57bb
00000060: 2a78 8b3d 2ff7 a0ba 52c5 313d 5a1d 17bd
00000070: 52e0 103d 57bd 363d d3ad b93d 3110 01bd
00000080: 6af6 0c3c 5b77 aa3d b42b c8bb 9697 15bd
00000090: ad8f b83d f4ce a63d 1d86 1cbd 74bb 21bd
000000a0: 86ef 243d a580 a0bd 3c68 b83c 1f2d b53d
000000b0: 4094 653d ddba 673d 8150 d73c 5eff 5e3c
000000c0: 4b2f 60bc 47ec 3f3d 5a5b 97bc 006f 1a3d
000000d0: 46d7 67bc a2fb f63c ab0d 833c 7df8 a53d
000000e0: 6381 eabc 9e31 843d 3058 c13d f352 223d
000000f0: d457 473b 27da a23c a119 093b b336 78bd
00000100: 8ee9 cc3c 5951 9b3d f7f0 9e3d 876b 98bc
00000110: a05a 37bc e9ea 8bbb 7132 093c c1de 2a3d
00000120: f570 a53c c701 18bd cb9e ac3c 9714 0e3d
00000130: e435 04bd 3d54 4e3c ca9d 3a3c c74c 463c
00000140: 9eb9 993d 95a8 143d 39f9 40bd 60b5 29bd
00000150: 1d62 21bd 8fd2 13bd cb9e acbb 225a a3bc
00000160: 278d 673d 44f3 16bd 87a4 953c b0af b13d
00000170: 3bec a63d 47e9 59bc 8c86 c63c 6a4f b5bb
00000180: 3c0e 8e3d f6b2 1bbd 6849 6f3d 6e68 aa3d

fc2.weight f4 [50, 100]
0.053939465 -0.09662985 -0.070835 0.020110898 -0.07852203 0.031755973 -0.034923535 0.009297764
0.04918585 0.055605575 -0.10452151 0.027685143 -0.057038095 0.03487062 0.011746031 -0.015037243
-0.014408083 0.0522541 -0.07050034 0.06576066 0.010368167 0.06627019 0.119015746 -0.078139134
-0.048128746 -0.025161033 0.108670406 0.053960815 0.04988238 0.05570819 0.04908235 -0.030277217
0.014185425 -0.103347 -0.03020322 -0.036832128 0.043681353 0.0543033 0.09778999 -0.01625918
0.041132834 0.10740631 0.084024526 0.07945803 -0.017981773 0.06084818 0.068958126 0.069195665
0.017364394 -0.052245226 -0.0072663627 0.04513012 -0.040571086 -0.012988715 0.105399296 0.0038841602
-0.00034846936 -0.019851387 0.067683294 0.1114941 0.058359083 0.039189503 -0.045157313 -0.09110118
-0.073697664 -0.07564374 -0.09954403 0.06544584 -0.075109094 0.009437522 -0.034905437 -0.06982888
-0.022740649 0.040571 0.024466615 0.06922084 0.0734572 0.024400527 0.010471485 -0.11091417
0.057796374 0.08297602 -0.0021944437 -0.033910193 0.020054523 -0.020505842 0.082949154 -0.05923321
-0.104484506 0.051080935 0.045517515 0.0036749546 -0.088429086 0.09769137 0.02714939 -0.11197391
-0.04372369 0.0681929 0.09847655 -0.082988955 -0.03115153 -0.049160417 -0.018330865 0.045665085
0.025513144 -0.0220597 -0.062440068 0.01957791 -0.08868064 -0.0022281744 -0.05247648 -0.054399695
0.04359446 -0.029468765 -0.052577637 -0.017098548 0.09023123 -0.011078764 0.022401465 0.027892714
0.04439422 -0.049514152 -0.0455992 -0.0019868813 -0.09072462 -0.034036864 -0.039001994 -0.0030426665
-0.00029811365 0.077821344 -0.040048216 -0.063004956 0.1081283 -0.0692227 -0.10572046 0.09463522
0.1213991 0.071085945 -0.0022560249 -0.103032924 0.021528518 -0.056805525 -0.082194805 0.025346037
0.030024895 -0.076411895 -0.06067487 -0.046841346 0.12507072 0.092811376 -0.092270344 -0.06555038
-0.069637045 -0.015100457 -0.053193685 -0.05145603 0.06258773 -0.08568725 0.07515263 0.10673748
-0.06303774 -0.05187912 -0.030453976 0.011133049 0.018811043 -0.066817135 0.050913263 0.009478313
-0.051605586 0.05195762 -0.020187937 0.07884852 -0.012790135 -0.041255534 -0.06502039 0.010543736
0.07298923 -0.1182549 -0.01040316 0.08557088 0.017869174 0.02112463 0.010708972 0.058825888
0.001172325 0.09941036 0.012558152 0.04368425 0.09145997 -0.051026847 0.06840501 0.12525167
0.122619 0.040543247 0.057199303 0.030573038 0.02362232 0.014759494 0.06848005 -0.009769504
0.03646482 -0.0068544815 0.0033728895 0.029574389 -0.020745946 0.030379053 0.005978194 0.038861375
0.024672128 0.059470914 0.050413333 -0.072511524 0.04040871 0.04137005 0.10391466 -0.07509909
0.042312156 -0.023197612 -0.042173598 0.004548107 -0.0077113896 0.073080376 0.05918869 0.004671895
0.021933425 -0.011496472 -0.021913856 -0.03719459 0.093240716 0.026203698 0.11731691 0.041851785
0.018921144 0.040091764 0.10558084 0.072489955 -0.05419158 0.07812435 -0.00011271657 0.054319464
0.025741857 -0.05958054 -0.040094912 -0.0037473768 0.07578986 0.00885666 -0.0018966782 -0.03281359
0.07996621 -0.073384814 0.022634584 -0.008072509 0.008603686 -0.041916844 -0.00069510064 0.10200012
00000000: a1ef 5c3d dfe5 c5bd f111 91bd 9cbf a43c
00000010: 28d0 a0bd 8d12 023d fb0b 0fbd a655 183c
00000020: 1a77 493d acc2 633d 600f d6bd f4cb e23c
00000030: c7a0 69bd 7fd4 0e3d 6d72 403c c55e 76bc
00000040: e10f 6cbc 6508 563d 7b62 90bd 86ad 863d
00000050: 3fdf 293c aab8 873d 87be f33d 6907 a0bd
00000060: a622 45bd 831e cebc 978e de3d 0406 5d3d
00000070: 7751 4c3d 452e 643d 930a 493d ed07 f8bc
00000080: fc69 683c 98a7 d3bd be6c f7bc 49dd 16bd
00000090: 38eb 323d 236d 5e3d 1e46 c83d f931 85bc
000000a0: e77a 283d d7f7 db3d 0d15 ac3d e4ba a23d
000000b0: 834e 93bc f13b 793d eb39 8d3d 75b6 8d3d
000000c0: c63f 8e3c 17ff 55bd ab1a eebb 5cda 383d
000000d0: de2d 26bd 9fce 54bc 96db d73d 658d 7e3b
000000e0: c4b2 b6b9 609f a2bc 8a9d 8a3d 0557 e43d
000000f0: ef09 6f3d 2c85 203d e0f6 38bd 4193 babd
00000100: cdee 96bd 1beb 9abd bedd cbbd 7808 863d
00000110: ccd2 99bd d69f 1a3c 01f9 0ebd 7202 8fbd
00000120: 994a babc c72d 263d 366e c83c a8c3 8d3d
00000130: ba70 963d 9de3 c73c 9790 2b3c f826 e3bd
00000140: e4bb 6c3d 55ef a93d a8d0 0fbb 6ae5 0abd
00000150: 6249 a43c defb a7bc 3fe1 a93d 869e 72bd
00000160: f9fb d5bd 3e3a 513d 9370 3a3d 82d7 703b
00000170: 4f1a b5bd 6a12 c83d 6668 de3c 9452 e5bd
00000180: 9d17 33bd b8a8 8b3d 13ae c93d 1df6 a9bd
00000190: 7e31 ffbc 6f5c 49bd 9c2a 96bc 500b 3b3d
000001a0: f100 d13c 8bb6 b4bc 28c1 7fbd da61 a03c
000001b0: 329e b5bd 9006 12bb 94f1 56bd 37d2 5ebd
000001c0: 1b90 323d 7b68 f1bc a65b 57bd 4112 8cbc
000001d0: 27cb b83d b483 35bc 4783 b73c 437f e43c
000001e0: b7d6 353d 5acf 4abd 3ac6 3abd 5636 02bb
000001f0: d4cd b9bd 3d6a 0bbd 8ec0 1fbd 7967 47bb
00000200: 234c 9cb9 cc60 9f3d 9909 24bd be08 81bd
00000210: 5f72 dd3d a2c4 8dbd f883 d8bd 1cd0 c13d
00000220: 17a0 f83d 8295 913d d1d9 13bb ed02 d3bd
00000230: 935c b03c e9ac 68bd c055 a8bd 7ea2 cf3c
00000240: c5f6 f53c d77d 9cbd 3686 78bd b6dc 3fbd
00000250: 8a12 003e e413 be3d 3cf8 bcbd 473f 86bd
00000260: de9d 8ebd e867 77bc 9fe1 59bd 8fc3 52bd
00000270: ff2d 803d cc7c afbd 9fe9 993d 2e99 da3d
00000280: ee19 81bd 337f 54bd 9e7a f9bc 6467 363c
00000290: 9e19 9a3c 6cd7 88bd 6d8a 503d ed4a 1b3c
000002a0: 6160 53bd 83d1 543d 2c61 a5bc 557b a13d
000002b0: b78d 51bc 90fb 28bd 6929 85bd a2bf 2c3c
000002c0: 617b 953d a02f f2bd 0472 2abc c93f af3d
000002d0: 6062 923c 8f0d ad3c af74 2f3c 6af3 703d
000002e0: b3a8 993a a997 cb3d b5c0 4d3c 42ee 323d
000002f0: 5d4f bb3d 8701 51bd ed17 8c3d f941 003e
00000300: ac1f fb3d ad10 263d d149 6a3d 4f74 fa3c
00000310: 9883 c13c ced1 713c 453f 8c3d 4510 20bc
00000320: 235c 153d 8f9b e0bb b20b 5d3b fd45 f23c
00000330: 67f3 a9bc 7edd f83c bae4 c33b 1b2d 1f3d
00000340: 341d ca3c c697 733d 367e 4e3d ec80 94bd
00000350: 9a83 253d a473 293d 36d1 d43d 8dcd 99bd
00000360: 834f 2d3d eb08 bebc 39be 2cbd 4908 953b
00000370: d3af fcbb 2aab 953d d76f 723d b216 993b
00000380: baad b33c b35b 3cbc b084 b3bc 5b59 18bd
00000390: fdf4 be3d 23a9 d63c d943 f03d c76c 2b3d
000003a0: 8400 9b3c 4337 243d c43a d83d 9d75 943d
000003b0: fdf7 5dbd a9ff 9f3d 3f62 ecb8 167e 5e3d
000003c0: 96e0 d23c b90a 74bd 903a 24bd 8d96 75bb
000003d0: b737 9b3d 861b 113c f699 f8ba 8b67 06bd
000003e0: 53c5 a33d c74a 96bd 2a6c b93c 8f42 04bc
000003f0: 79f6 0c3c ffb0 2bbd 6a37 36ba 70e5 d03d

fc2.bias f4 [50]
0.08281121 0.078157835 -0.06403769 -0.06824541 -0.0033503887 0.042778414 -0.08323381 -0.070204735
0.061753664 0.024773622 0.070159234 0.015300846 -0.046022736 -0.06920514 -0.08881678 -0.095644906
-0.031107575 -0.032348976 0.073522404 -0.07712395 0.01611516 0.011019565 -0.060845688 -0.008825102
0.023832165 0.004666495 -0.008497217 0.06706519 0.11141525 -0.008885121 0.037837714 0.048122633
-0.04691909 0.020726535 -0.022431973 0.043097656 0.019797018 -0.062382434 -0.085703276 0.046429906
0.003821732 -0.034841806 0.07226772 0.05738407 0.10558942 0.0067032333 0.0028364465 0.018905923
0.018079098 0.044876467
00000000: ec98 a93d 3711 a03d 3126 83bd 40c4 8bbd
00000010: 3292 5bbb 6b38 2f3d 7d76 aabd 80c7 8fbd
00000020: 69f1 7c3d 0df2 ca3c a5af 8f3d 66b0 7a3c
00000030: 5682 3cbd 6dbb 8dbd 92e5 b5bd 7ae1 c3bd
00000040: 50d5 febc 5c80 04bd ea92 963d 29f3 9dbd
00000050: f103 843c 688b 343c 5439 79bd 2997 10bc
00000060: ac3b c33c 66e9 983b e937 0bbc 7959 893d
00000070: ae2d e43d e692 11bc b8fb 1a3d 3d1c 453d
00000080: 3b2e 40bd b2ca a93c 42c3 b7bc 2b87 303d
00000090: 5b2d a23c b984 7fbd 3385 afbd 492d 3e3d
000000a0: 0676 7a3b 48b6 0ebd 1901 943d 8f0b 6b3d
000000b0: 443f d83d cca6 db3b ade3 393b 98e0 9a3c
000000c0: 9e1a 943c 63d0 373d

fc3.weight f4 [4, 50]
-0.05921708 -0.011766652 0.046575163 -0.12742634 -0.13919401 0.15051109 -0.04880178 -0.15690231
0.15594263 -0.14505154 -0.107387185 -0.12855348 -0.1320063 -0.14444159 0.075440295 0.012812093
0.1330017 0.052698936 -0.03724619 -0.055272102 0.09979538 0.0898641 -0.061729465 -0.06741067
0.084895544 -0.09093614 -0.10783894 0.118817836 0.11626399 -0.1105986 0.02354074 0.11770195
0.07228099 -0.065881304 0.15443777 -0.021392787 0.129211 -0.12498324 0.019144561 0.10891984
-0.13240944 0.07490607 0.11681622 -0.03177086 -0.107985236 -0.107751235 -0.00091777125 0.015917467
0.15246361 -0.15482405 0.011847322 -0.027679265 0.16756268 0.14851072 0.08294198 0.075080976
-0.08695997 0.019461337 -0.036513455 -0.1182162 0.15419665 0.029518714 0.03919663 0.1637111
0.056664873 -0.1450177 0.006900627 0.03564226 -0.114499666 0.084691465 0.15402621 0.06479612
-0.03916516 -0.037607085 -0.058559045 -0.122383304 0.024304342 -0.023333339 -0.16933818 -0.09107251
-0.1335316 -0.08729288 0.09213017 0.10491199 -0.12998566 -0.07407869 0.094010025 -0.06761956
-0.037776075 -0.055752564 0.022834834 0.118723705 -0.1363148 -0.07700564 -0.04935435 -0.12209677
-0.0046335654 -0.09595332 0.08678492 0.10303225 -0.09575125 0.16815929 0.111659825 0.06312117
0.1462004 -0.1257483 -0.013284244 -0.065094024 -0.12531085 -0.03574697 -0.07488345 0.1658455
-0.13125189 0.02179225 0.1622883 -0.13005605 -0.13754356 -0.08619677 0.16218533 -0.029713348
-0.03041922 0.030720556 0.03419213 0.02290008 -0.13357802 -0.13777632 0.08852771 -0.043045886
-0.04928091 -0.021252327 -0.010815533 0.09464206 -0.106999174 0.09176814 0.054464314 0.11384657
-0.04067545 0.03243568 -0.021929879 -0.13618214 -0.036358073 0.06432221 -0.057385538 -0.11092499
-0.11012879 0.032173224 0.15556549 0.116468914 -0.051484697 0.0007349355 -0.1151478 0.038193017
0.010472374 -0.06755068 0.09856904 -0.1565579 -0.08537621 0.15152866 -0.038297724 0.1401289
-0.1449734 -0.04552678 0.00069452886 -0.055396575 -0.02577155 -0.122617304 -0.16001548 0.019650871
0.033716083 0.15601088 -0.06494022 -0.13224243 -0.15016538 -0.019440897 -0.08856663 0.016190097
-0.09936637 0.10004032 -0.06654532 -0.07363486 -0.0881771 -0.018026989 -0.07433927 0.12821986
0.019657908 0.029300254 -0.03511529 0.053151224 -0.15912199 0.10077536 -0.015373767 -0.059803713
-0.027221855 -0.025405446 -0.01475005 0.032327246 -0.13791262 0.019968167 -0.15548941 0.11867285
00000000: 9c8d 72bd eac8 40bc 99c5 3e3d 0d7c 02be
00000010: e088 0ebe 941f 1a3e 60e4 47bd 00ab 20be
00000020: 6daf 1f3e 6488 14be d0ed dbbd 86a3 03be
00000030: a92c 07be 7fe8 13be 7180 9a3d d0e9 513c
00000040: 9931 083e d7da 573d 768f 18bd 0065 62bd
00000050: 8561 cc3d ab0a b83d 09d8 7cbd 9b0e 8abd
00000060: b7dd ad3d ba3c babd aada dcbd c456 f33d
00000070: d11b ee3d 8581 e2bd 83d8 c03c b80d f13d
00000080: 0e08 943d c7ec 86bd ef24 1e3e ed3f afbc
00000090: e34f 043e 37f7 ffbd 0ed5 9c3c 5d11 df3d
000000a0: 5796 07be 5b68 993d 583d ef3d 2922 02bd
000000b0: 5d27 ddbd aeac dcbd 9696 70ba 5965 823c
000000c0: 6c1f 1c3e 328a 1ebe 451b 423c a0bf e2bc
000000d0: 8d95 2b3e 3213 183e 7cdd a93d 0ec4 993d
000000e0: 1218 b2bd 626d 9f3c 228f 15bd 561b f2bd
000000f0: bae5 1d3e 3bd1 f13c a58c 203d e2a3 273e
00000100: 6d19 683d 857f 14be a81e e23b 9efd 113d
00000110: cd7e eabd b872 ad3d 0cb9 1d3e d4b3 843d
00000120: a66b 20bd e309 1abd 9cdb 6fbd 19a4 fabd
00000130: e619 c73c 8f25 bfbc fd66 2dbe 3984 babd
00000140: 82bc 08be 9cc6 b2bd beae bc3d 19dc d63d
00000150: f61a 05be 91b6 97bd 5488 c03d 207c 8abd
00000160: 16bb 1abd cd5c 64bd 1e10 bb3c 6a25 f33d
00000170: 1b96 0bbe 22b5 9dbd c927 4abd df0d fabd
00000180: 2ad5 97bb 2d83 c4bd 4bbc b13d 9302 d33d
00000190: 3b19 c4bd f331 2c3e e8ad e43d ac45 813d
000001a0: 8fb5 153e 2ac4 00be 28a6 59bc 0450 85bd
000001b0: 7d51 00be 6a6b 12bd 7f5c 99bd 67d3 293e
000001c0: e566 06be a985 b23c e72e 263e 6a2d 05be
000001d0: 38d8 0cbe ef87 b0bd e913 263e 6869 f3bc
000001e0: ba31 f9bc ada9 fb3c 0c0d 0c3d f398 bb3c
000001f0: adc8 08be 3c15 0dbe 044e b53d e250 30bd
00000200: c8da 49bd 5c19 aebc a233 31bc b2d3 c13d
00000210: 6222 dbbd eff0 bb3d f915 5f3d 6428 e93d
00000220: 4d9b 26bd 47db 043d 4aa6 b3bc 5573 0bbe
00000230: 34ec 14bd 5dbb 833d 190d 6bbd a42c e3bd
00000240: 348b e1bd 12c8 033d 8f4c 1f3e 4187 ee3d
00000250: 9ee1 52bd b0a8 403a 9cd2 ebbd 4870 1c3d
00000260: 5294 2b3c 0358 8abd 91de c93d b750 20be
00000270: b9d9 aebd 542a 1b3e 13de 1cbd f37d 0f3e
00000280: e873 14be 4a7a 3abd 0b11 363a 85e7 62bd
00000290: dc1e d3bc c81e fbbd 19db 23be ddfa a03c
000002a0: e019 0a3d 51c1 1f3e 61ff 84bd 8f6a 07be
000002b0: f4c4 19be 8442 9fbc 6c62 b5bd 18a1 843c
000002c0: 9880 cbbd f0e1 cc3d ea48 88bd e0cd 96bd
000002d0: 3296 b4bd 56ad 93bc 303f 98bd 114c 033e
000002e0: 9f09 a13c 1607 f03c 0dd5 0fbd 19b5 593d
000002f0: e0f0 22be 5063 ce3d 41e2 7bbc bdf4 74bd
00000300: 5e00 dfbc 151f d0bc 32aa 71bc 9369 043d
00000310: f738 0dbe 4894 a33c 9e38 1fbe c00a f33d

fc3.bias f4 [4]
0.05831959 -0.056820635 -0.033805273 0.06849595
00000000: 86e0 6e3d c1bc 68bd 6677 0abd 9b47 8c3d
