models/mlp_model_transient.pth (torch, 94711 bytes, 6 tensors)

fc1.weight f4 [100, 178]
-0.03419688 -0.032056 0.011700106 0.08781887 0.02202118 0.036872137 -0.0758744 -0.075625196
-0.013831673 0.100440405 -0.0397624 -0.0018338381 0.049540605 5.3424155e-05 0.095049486 0.05598918
0.0630831 -0.06089361 0.017965456 0.020073557 0.033530284 0.04733719 0.014461621 -0.0036695995
0.044661794 0.044458475 -0.058769997 -0.048614807 0.057493903 0.019574113 -0.06372661 -0.031302165
0.06314053 0.054075293 0.009554435 0.07403333 0.0045731384 -0.029792864 -0.056959372 -0.049284678
0.01781347 0.06197051 -0.049355138 0.045957733 -0.06026335 0.08709795 -0.040303927 0.055247214
0.050072946 0.081035815 0.043162186 -0.049046893 0.0492155 0.08267387 -0.030093778 0.075743295
-0.0047062105 0.09727098 0.007860482 0.015999226 0.061648402 -0.03483627 -0.0063631297 0.0494142
-0.010948384 0.028789578 0.05874523 0.007432769 0.06046578 0.038551483 0.051337913 -0.022910204
0.041357845 -0.012432303 -0.046344016 -0.03570191 -0.02128803 0.002112075 0.089323185 -0.06407963
-0.061307013 -0.07987515 0.026988469 0.02029017 0.044765055 -0.021889318 -0.0066076154 -0.024130663
-0.082685985 -0.10335017 -0.0070844227 0.0014634008 -0.0045074564 0.008876544 -0.005978972 0.036424626
-0.038776144 -0.043356545 0.07547723 0.04013796 -0.09294845 -0.048316978 -0.030700367 0.040158764
-0.0011006028 0.016418366 -0.04092964 -0.050483733 -0.012235863 0.029432964 -0.026549255 -0.020492602
0.04572556 0.0484288 0.0028468308 -0.0567666 0.09274162 0.08620055 0.094860055 0.058130078
0.013338102 0.07581641 -0.08277754 -0.009601233 0.05872073 0.06860146 -0.04723127 0.03123585
-0.08663915 -0.017652037 -0.017430194 -0.067072324 0.05330783 -0.03332892 -0.035500616 0.05643174
-0.004412689 -0.04130864 0.09096117 -0.08157324 -0.068219915 -0.0045976103 -0.050812963 -0.09706258
-0.09324778 -0.003909173 0.07089798 -0.014442828 0.006943204 0.071954675 -0.051028475 0.006875294
-0.060110465 -0.055051595 0.075228035 -0.0046874643 -0.010085613 -0.0027509427 -0.04721913 -0.0271772
0.010177601 -0.050608885 0.031051522 0.09430453 0.069648705 -0.021234857 0.036017757 -0.041624095
0.086339496 0.096714534 0.013856676 -0.022554863 0.06640769 0.07636581 0.043593213 -0.019815389
-0.048899814 -0.03846121 -0.07444039 -0.015357282 -0.079667665 -0.072065495 -0.0002199256 0.024245417
-0.023535965 -0.015385851 0.03385607 0.08901831 -0.014308517 -0.06585958 0.015195984 -0.056937166
0.08433959 0.060262136 0.08509688 0.015372864 -0.031149967 -0.00871214 -0.04386788 0.092026904
-0.027724307 0.068902545 0.086107306 -0.029739426 0.020609437 0.028283851 0.078490175 0.055592258
-0.012824315 -0.0485093 -0.002647488 0.098754466 0.05206792 0.05091383 0.03948916 0.09375965
0.020306839 0.0051927944 0.0667988 0.033577908 0.086264215 0.09044149 -0.032134347 0.036559045
0.046540346 0.05385466 0.087997235 -0.021565394 0.0048376294 0.075182416 0.0788562 0.08981898
-0.008641565 0.061367806 0.051156305 0.076139726 0.05976426 -0.028366128 0.09029808 0.015156962
0.0723427 -0.0018976085 -0.035473064 0.01878867 0.04661263 0.009983387 0.054832455 -0.010553422
0.06489122 0.057996273 0.06849133 -0.059406545 -0.07541189 -0.028718457 -0.010951225 0.026447866
00000000: 0712 0cbd 274d 03bd cdb1 3f3c 61da b33d
00000010: c365 b43c 3d07 173d 0a64 9bbd 62e1 9abd
00000020: 3e9e 62bc b3b3 cd3d e6dd 22bd 655d f0ba
00000030: 17eb 4a3d c013 6038 4ea9 c23d e954 653d
00000040: b631 813d 946b 79bd 4b2c 933c 4d71 a43c
00000050: 0d57 093d a4e4 413d 6ff0 6c3c aa7d 70bb
00000060: 49ef 363d 171a 363d cfb8 70bd 5220 47bd
00000070: ba7e 6b3d e459 a03c 1983 82bd b336 00bd
00000080: d24f 813d 0e7e 5d3d 348a 1c3c c99e 973d
00000090: 44da 953b 2a10 f4bc 3b4e 69bd bbde 49bd
000000a0: 8eed 913c cad4 7d3d 9d28 4abd 2d3e 3c3d
000000b0: b4d6 76bd 6960 b23d bb15 25bd e74a 623d
000000c0: 4a19 4d3d 1bf6 a53d d5ca 303d 65e5 48bd
000000d0: 3196 493d eb50 a93d 3a87 f6bc 4d1f 9b3d
000000e0: 8e36 9abb 0236 c73d 40c9 003c cf10 833c
000000f0: 0983 7c3d 7ab0 0ebd cd81 d0bb 8b66 4a3d
00000100: da60 33bc 1fd8 eb3c d79e 703d 968e f33b
00000110: f7aa 773d 29e8 1d3d b447 523d 2eae bbbc
00000120: d866 293d dcb0 4bbc 39d3 3dbd 2a3c 12bd
00000130: 3c64 aebc bd6a 0a3b 13ef b63d 2e3c 83bd
00000140: 101d 7bbd 9595 a3bd ec16 dd3c 9237 a63c
00000150: 905b 373d 3a51 b3bc b284 d8bb abad c5bc
00000160: 4557 a9bd 41a9 d3bd 7224 e8bb 95cf bf3a
00000170: 49b3 93bb ed6e 113c 41eb c3bb fd31 153d
00000180: bcd3 1ebd a296 31bd ce93 9a3d b467 243d
00000190: c25b bebd 06e8 45bd 567f fbbc 847d 243d
000001a0: 1a42 90ba cf7f 863c d7a5 27bd 08c8 4ebd
000001b0: ee78 48bc 661d f13c d37d d9bc 1ae0 a7bc
000001c0: ba4a 3b3d 475d 463d e591 3a3b 1884 68bd
000001d0: 52ef bd3d ea89 b03d fd45 c23d ce19 6e3d
000001e0: 0e88 5a3c a245 9b3d 4587 a9bd 7d4e 1dbc
000001f0: 2685 703d ec7e 8c3d 9375 41bd 53e2 ff3c
00000200: de6f b1bd 019b 90bc c4c9 8ebc 375d 89bd
00000210: 5059 5a3d e883 08bd 1869 11bd f824 673d
00000220: 5198 90bb 4033 29bd da49 ba3d df0f a7bd
00000230: e2b6 8bbd 8da7 96bb 4121 50bd bfc8 c6bd
00000240: b1f8 bebd 8518 80bb f632 913d 9ca1 6cbc
00000250: d183 e33b f95c 933d 3c03 51bd 254a e13b
00000260: 6436 76bd c87d 61bd 2811 9a3d 4d99 99bb
00000270: 203e 25bc 2949 34bb d968 41bd b8a2 debc
00000280: f4bf 263c 434b 4fbd c35f fe3c bc22 c13d
00000290: fba3 8e3d b9f4 adbc 5b87 133d 077e 2abd
000002a0: c3d2 b03d 4512 c63d 1d07 633c fac4 b8bc
000002b0: c100 883d ae65 9c3d cc8e 323d e253 a2bc
000002c0: 2c4b 48bd 8089 1dbd 3474 98bd 1c9d 7bbc
000002d0: cd28 a3bd 1397 93bd d49b 66b9 539e c63c
000002e0: 7fce c0bc f014 7cbc aaac 0a3d 3b4f b63d
000002f0: 456e 6abc 63e1 86bd 94f8 783c f236 69bd
00000300: 3cba ac3d 6ed5 763d 4647 ae3d 77de 7b3c
00000310: 372e ffbc 5dbd 0ebc ceae 33bd 9a78 bc3d
00000320: 161e e3bc c71c 8d3d 0759 b03d 19a0 f3bc
00000330: 1fd5 a83c 89b3 e73c 75bf a03d b5b4 633d
00000340: 131d 52bc b0b1 46bd 7a81 2dbb c83f ca3d
00000350: 2c45 553d 058b 503d 63bf 213d 0f05 c03d
00000360: 875a a63c 5128 aa3b cfcd 883d fd88 093d
00000370: 4bab b03d 6339 b93d 4e9f 03bd f0be 153d
00000380: 17a1 3e3d b496 5c3d e537 b43d e9a9 b0bc
00000390: fa84 9e3b 3df9 993d 5c7f a13d 03f3 b73d
000003a0: 5a95 0dbc cf5c 7b3d 4689 513d 25ef 9b3d
000003b0: 5ecb 743d 1560 e8bc 33ee b83d e854 783c
000003c0: 6928 943d 2db9 f8ba 344c 11bd b2ea 993c
000003d0: e3ec 3e3d 5c91 233c ff97 603d 43e8 2cbc
000003e0: b0e5 843d 808d 6d3d 2f45 8c3d 4754 73bd
000003f0: 8d71 9abd f842 ebbc c46c 33bc 32a9 d83c

fc1.bias f4 [100]
-0.009688147 0.017936068 0.023763893 0.0090526845 -0.07518005 -0.025126772 -0.020749152 0.08363617
0.020885427 -0.040195104 0.043750238 -0.025772806 0.024311602 0.015003965 0.04822022 0.04982298
0.07703531 -0.06442238 0.07471199 -0.046681885 0.041978665 -0.013286339 -0.035943266 -0.03628063
0.038460366 0.049548123 -0.026734613 -0.025783844 -0.012817923 -0.02557449 0.027967032 -0.025395034
-0.06963552 0.0048008207 0.032098126 0.06809085 0.04725724 -0.013765264 0.0634204 0.012178296
-0.054478228 -0.04034291 0.03860029 -0.034802414 0.00092835625 -0.060209174 0.07143793 -0.03133447
0.07947218 0.04487437 0.06291872 0.060876675 -0.041869733 0.08757616 0.050786335 -0.045136116
0.060027912 0.026758429 -0.05384989 0.09260105 -0.011676439 -0.008112109 -0.06855532 -0.029672772
-0.078958146 0.027775118 0.09488629 0.013457594 0.08759616 0.038872395 0.0528955 -0.03784523
0.04297897 -0.007321217 0.088562414 -0.0038320255 -0.03378547 0.039245762 0.087925196 0.013560799
0.043170948 -0.024648791 -0.028354798 -0.08061803 0.030420057 -0.011103285 -0.010884482 0.04795093
-0.04217061 0.0492993 0.072084256 0.07842476 -0.00016478315 0.04434854 0.006848869 -0.022606485
-0.040587753 -0.007528333 -0.04329251 -0.03971909
00000000: 09bb 1ebc a9ee 923c 7fac c23c b651 143c
00000010: 00f8 99bd a9d6 cdbc 20fa a9bc 7149 ab3d
00000020: ea17 ab3c 9fa3 24bd 7333 333d 7e21 d3bc
00000030: 2029 c73c 31d3 753c 9182 453d 2e13 4c3d
00000040: b0c4 9d3d e1ef 83bd 9a02 993d 8135 3fbd
00000050: d2f1 2b3d f2ae 59bc 3f39 13bd ff9a 14bd
00000060: 9e88 1d3d f9f2 4a3d 8c02 dbbc a438 d3bc
00000070: 4402 52bc 9881 d1bc 1e1b e53c 3f09 d0bc
00000080: 119d 8ebd 3450 9d3b 5379 033d 3773 8b3d
00000090: cf90 413d b487 61bc 8ee2 813d 7a87 473c
000000a0: 9024 5fbd 9b3e 25bd 561b 1e3d fa8c 0ebd
000000b0: ef5c 733a e59d 76bd 0d4e 923d 9358 00bd
000000c0: 4fc2 a23d 30ce 373d 88db 803d d259 793d
000000d0: 997f 2bbd 215b b33d 5505 503d a6e0 38bd
000000e0: d4df 753d 7e34 db3c b491 5cbd 9fa5 bd3d
000000f0: 894e 3fbc a7e8 04bc bb66 8cbd 5014 f3bc
00000100: cfb4 a1bd a588 e33c be53 c23d 3e7d 5c3c
00000110: 9e65 b33d a938 1f3d f4a8 583d 9a03 1bbd
00000120: b70a 303d d2e6 efbb 3660 b53d b822 7bbb
00000130: a262 0abd 2ac0 203d 2012 b43d 1d2e 5e3c
00000140: 05d4 303d 43ec c9bc 5248 e8bc 111b a5bd
00000150: 7c33 f93c 8dea 35bc d454 32bc 3268 443d
00000160: 17bb 2cbd 10ee 493d e9a0 933d 299d a03d
00000170: a4c9 2cb9 d1a6 353d 7a6c e03b 3c31 b9bc
00000180: 583f 26bd 3cb0 f6bb 7d53 31bd 7cb0 22bd

fc2.weight f4 [50, 100]
0.0634443 -0.07723014 0.03297781 0.11280095 0.06316214 0.0912242 0.026543178 -0.09831506
0.10610271 -0.075514205 -0.04971973 -0.11921775 0.07806172 0.06469562 -0.024035895 0.05903089
-0.011022299 -0.009202473 0.028498713 -0.051872324 -0.051708747 0.027734725 0.103697464 -0.089535035
0.090808116 -0.10673243 0.06290722 0.063756995 -0.0072173397 -0.011965705 -0.06413774 0.08089884
-0.056244846 0.030816384 0.06422101 0.091982506 0.024443898 0.08367512 -0.027799994 -0.05708266
-0.04056791 0.048290834 -0.087999485 0.03385675 0.094535 -0.09092645 -0.012529521 -0.06573279
0.04563582 0.04679296 0.021250386 0.04609203 0.08779993 -0.041882187 0.11653738 -0.042800058
0.07800224 -0.061980393 -0.06052242 0.06016318 0.09134921 -0.06797208 -0.08098872 0.029103959
0.04657206 -0.0049775657 -0.0550801 -0.049732137 -0.054024413 0.0060427682 -0.09792115 0.11919332
-0.07119563 0.10796162 -0.074274816 -0.054530736 -0.044375367 0.081694506 0.120510176 -0.027027862
-0.020272965 0.021553125 0.0505425 -0.0891904 -0.08852717 0.09028499 -0.05524952 0.07973809
0.02084123 -0.058600448 0.11335863 0.07303898 -0.02863482 -0.014892213 -0.09170914 0.070064746
0.019606162 -0.08265676 0.067307875 0.068088114 -0.07561598 0.042315617 0.11873998 -0.004680502
0.047824856 -0.09071639 0.102844544 0.026746977 -0.049810965 -0.014111874 -0.029964434 -0.022542942
0.037150912 -0.072413266 0.02010437 -0.051144794 -0.079034865 -0.056998186 0.08219483 -0.10142722
-0.06521648 0.090858854 0.06902709 -0.0492979 0.092022195 -0.10811352 -0.016408535 0.061942138
-0.09922007 -0.08720814 0.09035229 0.050209355 0.02424698 0.0985186 0.0854281 -0.028123854
0.1172598 0.057390124 -0.029694427 -0.0037783526 0.044850335 0.026175182 -0.03400027 0.008209593
-0.0003376266 -0.0052823927 0.0100040445 0.040999625 -0.02964712 0.06360555 -0.0002248114 0.12656125
0.103477605 0.059982944 0.059500378 -0.059307467 -0.06272111 0.09220019 0.07592345 0.05756861
0.10740638 -0.027373692 0.06792106 0.10935357 -0.032482255 0.04018189 0.09639382 -0.07857689
0.0815379 -0.03387568 -0.044452958 0.09532779 0.11087967 0.023020744 -0.07827255 0.05450127
0.04472881 0.10052649 0.09189119 0.11727579 -0.041674893 -0.08472188 0.09373098 0.051270682
-0.0223933 0.0944881 0.07526575 0.01376388 0.035767645 0.105474405 0.022971554 0.019903196
-0.053835206 0.06057666 -0.049558733 0.061721414 0.10773195 0.0010115161 0.12874795 -0.06805437
0.0150581375 0.11356768 0.058974434 -0.030475723 -0.03399504 -0.03739708 -0.019521572 0.119489685
-0.061679635 0.05672635 0.022874618 -0.046192344 -0.033426728 -0.029401496 0.0570233 0.06909479
0.008559055 -0.010983012 0.069429 -0.06621667 0.103538014 -0.039640523 -0.08491211 -0.06486752
-0.07539727 -0.00043388942 0.027992722 -0.067213275 0.003283291 -0.028903168 -0.023367656 -0.056132317
0.034059644 -0.08716998 -0.03905816 -0.10063884 -0.0065830527 -0.08739427 0.027968748 -0.04399409
0.039076615 -0.06296622 0.088174745 -0.025874145 0.07221577 -0.011050095 -0.004839874 -0.009089304
0.06264851 -0.05633181 -0.04114647 0.01425112 0.051602535 -0.12047029 0.023486475 -0.083046295
00000000: 16ef 813d d62a 9ebd bd13 073d 2f04 e73d
00000010: 275b 813d c1d3 ba3d 1471 d93c 6859 c9bd
00000020: 614c d93d 31a7 9abd eaa6 4bbd 7028 f4bd
00000030: d3de 9f3d 237f 843d ede6 c4bc 60ca 713d
00000040: df96 34bc f8c5 16bc 2276 e93c 1378 54bd
00000050: 8dcc 53bd ef33 e33c 565f d43d 255e b7bd
00000060: 9bf9 b93d 8896 dabd 80d5 803d 0793 823d
00000070: 6f7f ecbb ce0b 44bc a65a 83bd 4bae a53d
00000080: ff60 66bd a472 fc3c 4e86 833d 5361 bc3d
00000090: 923e c83c dc5d ab3d d0bc e3bc 82cf 69bd
000000a0: 892a 26bd 9ccc 453d 1339 b4bd 60ad 0a3d
000000b0: 919b c13d a637 babd 9f48 4dbc ea9e 86bd
000000c0: a0ec 3a3d faa9 3f3d 4a15 ae3c ffca 3c3d
000000d0: 73d0 b33d a88c 2bbd 26ab ee3d 1d4f 2fbd
000000e0: a3bf 9f3d 27df 7dbd 5be6 77bd ab6d 763d
000000f0: 4b15 bb3d f234 8bbd 6add a5bd 6d6b ee3c
00000100: 58c2 3e3d d91a a3bb ac9b 61bd edb3 4bbd
00000110: b448 5dbd 6a02 c63b e28a c8bd a11b f43d
00000120: 04cf 91bd fb1a dd3d 651d 98bd 9f5b 5fbd
00000130: f2c2 35bd 734f a73d 0ace f63d 8969 ddbc
00000140: 7d13 a6bc 2e90 b03c a705 4f3d 75a9 b6bd
00000150: bc4d b5bd 56e7 b83d 524d 62bd b94d a33d
00000160: 3abb aa3c 0607 70bd 9228 e83d 7695 953d
00000170: 9293 eabc 78fe 73bc 00d2 bbbd 1b7e 8f3d
00000180: 1a9d a03c f347 a9bd b6d8 893d c871 8b3d
00000190: 8ddc 9abd 2453 2d3d f22d f33d e65e 99bb
000001a0: ffe3 433d 84c9 b9bd 29a0 d23d 7a1c db3c
000001b0: 9506 4cbd 7d35 67bc f977 f5bc faab b8bc
000001c0: 8e2b 183d 684d 94bd ebb1 a43c 347d 51bd
000001d0: 08dd a1bd ee76 69bd c355 a83d 13b9 cfbd
000001e0: 3890 85bd 3514 ba3d 135e 8d3d 98ec 49bd
000001f0: 2276 bc3d 9f6a ddbd 316b 86bc 0ab7 7d3d
00000200: e433 cbbd 2e9a b2bd 9f0a b93d 53a8 4d3d
00000210: 9aa1 c63c 1fc4 c93d edf4 ae3d ff63 e6bc
00000220: e825 f03d e811 6b3d ba41 f3bc 3d9e 77bb
00000230: fcb4 373d 566d d63c de43 0bbd 8781 063c
00000240: 7a03 b1b9 ec17 adbb 01e8 233c 39ef 273d
00000250: 84de f2bc a043 823d 5abb 6bb9 4699 013e
00000260: 11ec d33d adb0 753d abb6 733d 63ec 72bd
00000270: ed73 80bd 74d3 bc3d c17d 9b3d 10cd 6b3d
00000280: e0f7 db3d cb3e e0bc 321a 8b3d c4f4 df3d
00000290: 1d0c 05bd c495 243d 206a c53d ecec a0bd
000002a0: 58fd a63d 3ac1 0abd 4e14 36bd 373b c33d
000002b0: e114 e33d 0096 bc3c 5c4d a0bd b93c 5f3d
000002c0: 8f35 373d d5e0 cd3d 7331 bc3d 4a2e f03d
000002d0: 4bb3 2abd aa82 adbd 07f6 bf3d 3501 523d
000002e0: 2772 b7bc fa82 c13d ee24 9a3d e681 613c
000002f0: 1881 123d f702 d83d d72e bc3c 070c a33c
00000300: 4e82 5cbd 3b1f 783d 19fe 4abd 98cf 7c3d
00000310: 92a2 dc3d d994 843a 81d6 033e 1760 8bbd
00000320: 68b6 763c 2c96 e83d 2d8f 713d 39a8 f9bc
00000330: 623e 0bbd ae2d 19bd b4eb 9fbc 02b7 f43d
00000340: c9a3 7cbd e459 683d 8d63 bb3c 2f34 3dbd
00000350: 77ea 08bd 68db f0bc 4491 693d 9281 8d3d
00000360: 473b 0c3c 17f2 33bc cb30 8e3d 9b9c 87bd
00000370: bd0b d43d 1a5e 22bd 66e6 adbd 43d9 84bd
00000380: e269 9abd a77b e3b9 fe50 e53c 1da7 89bd
00000390: 7b2c 573b 56c6 ecbc 876d bfbc 00eb 65bd
000003a0: 2082 0b3d 2d86 b2bd 73fb 1fbd bc1b cebd
000003b0: a6b6 d7bb c4fb b2bd b71e e53c 2633 34bd
000003c0: cd0e 203d 6ff4 80bd f694 b43d 04f6 d3bc
000003d0: dde5 933d 750b 35bc ce97 9ebb 4eeb 14bc
000003e0: dd4d 803d 2fbc 66bd 3389 28bd 887d 693c
000003f0: 2e5d 533d 21b9 f6bd b566 c03c 2d14 aabd

fc2.bias f4 [50]
0.04966144 0.03760137 -0.023486685 0.10265601 -0.007021773 0.07536588 0.08005792 0.013240256
-0.058854695 0.06873094 -0.0052397577 0.07626177 0.076222815 0.08864764 -0.069729045 -0.012671297
0.087275185 -0.007937774 0.02465328 0.020085696 0.030213041 -0.09662503 0.039998252 0.052528635
-0.061874554 -0.034810603 -0.006537026 0.0522272 0.09368735 0.0569747 0.09447871 -0.030440457
-0.02112091 0.087849125 0.074305624 -0.05431631 -0.02013024 0.003325439 -0.02811519 0.04036762
0.032626666 0.05898869 0.07867862 0.011988429 -0.027286666 0.09935737 0.09414129 0.10778703
0.005225004 -0.060853593
00000000: cb69 4b3d e503 1a3d 2667 c0bc 503d d23d
00000010: e716 e6bb 6d59 9a3d 68f5 a33d a9ed 583c
00000020: 9f11 71bd cfc2 8c3d 46b2 abbb 222f 9c3d
00000030: b51a 9c3d e58c b53d 1ace 8ebd 469b 4fbc
00000040: 55bd b23d 700d 02bc adf5 c93c c28a a43c
00000050: 5781 f73c 58e3 c5bd 35d5 233d 4428 573d
00000060: 2c70 7dbd 9095 0ebd 8c34 d6bb 30ec 553d
00000070: 27df bf3d 4e5e 693d 0e7e c13d 445e f9bc
00000080: c205 adbc 3eea b33d 8c2d 983d c77a 5ebd
00000090: 2ce8 a4bc 9cef 593b d451 e6bc 8458 253d
000000a0: 8aa3 053d 209e 713d 4222 a13d 1e6b 443c
000000b0: 4988 dfbc e07b cb3d 26cd c03d 72bf dc3d
000000c0: 8336 ab3b 9e41 79bd

fc3.weight f4 [4, 50]
-0.14540778 -0.13928613 0.127754 0.09255462 -0.16675484 -0.046945896 0.09372136 0.042689756
-0.06533746 0.05857953 -0.040908143 0.14783846 -0.0360072 0.08575875 0.024976231 -0.14813769
-0.031988174 0.07521302 -0.08419373 0.123230055 -0.1270842 0.06768165 -0.098054245 -0.13025998
-0.1300857 -0.03424879 0.07862257 0.15331735 -0.022671407 0.15180005 -0.04055437 -0.0074004424
0.053523675 0.11828623 -0.13557464 0.10744456 -0.0541813 -0.14185251 0.030851528 -0.12995912
0.09694365 0.010515246 0.13554953 -0.04728161 -7.550279e-05 0.13830052 0.1615491 0.13536322
0.08143249 -0.09677057 0.026727453 -0.015913082 0.062291536 -0.09272251 -0.11667646 -0.10865116
-0.0898832 -0.11367131 -0.1081297 -0.12823927 0.124479555 -0.08368318 -0.06372842 -0.061380476
-0.034667023 -0.062023703 -0.01093419 0.12266399 0.13792719 -0.0073321145 0.13064417 -0.013919518
-0.07725816 -0.14792724 0.11220655 -0.03601907 -0.02587301 0.045091443 -0.02659246 -0.12766977
0.15332134 0.1582415 -0.035718028 -0.118715025 -0.018379917 -0.08190626 -0.06654725 0.111105695
0.0065770233 -0.09047264 -0.0111511545 -0.08234768 0.10959159 -0.060775205 0.077846974 -0.087249056
0.10110603 -0.15150757 -0.086101234 -0.080945924 0.11471327 -0.021515334 -0.0585096 0.04484887
0.0781495 0.058774367 0.11754463 -0.12055385 0.10126201 -0.10065239 0.13973415 -0.16097975
0.16072045 0.033409264 -0.123722814 0.06830271 -0.12076599 0.065207176 -0.032899693 -0.118488535
0.048057266 0.020118795 0.061462678 0.11246597 0.010786059 0.12695065 -0.06588131 -0.06466419
-0.13514903 0.09788408 0.15866838 -0.10890488 0.0055909543 -0.081636295 -0.018884096 -0.07576542
0.1476973 -0.10682068 -0.07912163 0.15939797 0.06339755 -0.06742212 0.016307686 0.12915196
-0.15021114 -0.016068796 0.0007853108 -0.09511432 0.054182135 0.16047993 0.04622462 0.04046803
0.048648644 0.023293585 -0.09638756 0.09394774 -0.110439666 0.14252433 -0.10432675 -0.059097096
-0.057380766 -0.14608036 0.036777355 -0.01794542 -0.15063551 -0.0456566 0.059619013 -0.0025455316
-0.11570708 -0.13735001 0.05734633 0.009786358 0.093732126 0.004852793 0.03354295 0.11823047
-0.07627706 -0.10212037 0.117032826 -0.15659732 0.11495613 -0.12963854 -0.1287817 -0.135375
0.08992575 0.14865178 0.074198745 0.06452904 -0.0623889 -0.11960113 0.091696486 -0.08550778
-0.031670142 0.15389486 -0.15849367 0.14794548 -0.07341177 0.13794138 -0.0771188 -0.07069514
00000000: c7e5 14be 06a1 0ebe f2d1 023e 478d bd3d
00000010: c8c1 2abe 574a 40bd fcf0 bf3d 74db 2e3d
00000020: a5cf 85bd 17f1 6f3d 4c8f 27bd f762 173e
00000030: 497c 13bd 49a2 af3d f49a cc3c 68b1 17be
00000040: 0806 03bd 4909 9a3d c36d acbd 0a60 fc3d
00000050: 5c22 02be ad9c 8a3d aad0 c8bd df62 05be
00000060: 3035 05be 7648 0cbd df04 a13d 39ff 1c3e
00000070: 63b9 b9bc 7971 1b3e 571c 26bd 697f f2bb
00000080: a43b 5b3d 0d40 f23d 14d4 0abe e50b dc3d
00000090: 36ed 5dbd c941 11be 58bc fc3c 0114 05be
000000a0: 648a c63d 2348 2c3c 7fcd 0a3e 5daa 41bd
000000b0: 4057 9eb8 a79e 0d3e 216d 253e a89c 0a3e
000000c0: 14c6 a63d a62f c6bd 88f3 da3c 275c 82bc
000000d0: 6925 7f3d 4de5 bdbd 11f4 eebd 8084 debd
000000e0: af14 b8bd 81cc e8bd 1b73 ddbd 2851 03be
000000f0: 23ef fe3d 1662 abbd 0c84 82bd 186a 7bbd
00000100: 02ff 0dbd 910c 7ebd 5125 33bc 4237 fb3d
00000110: c93c 0d3e 3c42 f0bb 96c7 053e b10e 64bc
00000120: 8739 9ebd 3d7a 17be 8ccc e53d bb88 13bd
00000130: a2f3 d3bc ceb1 383d 6ed8 d9bc ddbb 02be
00000140: 4500 1d3e 0f0a 223e 114d 12bd dd20 f3bd
00000150: 7b91 96bc 78be a7bd ed49 88bd 628b e33d
00000160: 1284 d73b b849 b9bd 55b3 36bc e7a5 a8bd
00000170: 8e71 e03d 6cef 78bd 3c6e 9f3d a2af b2bd
00000180: ae10 cf3d cd24 1bbe d855 b0bd fac6 a5bd
00000190: caee ea3d ed40 b0bc c3a7 6fbd 73b3 373d
000001a0: d80c a03d 64bd 703d 3dbb f03d f0e4 f6bd
000001b0: 7562 cf3d d722 cebd 7816 0f3e e0d7 24be
000001c0: e793 243e 27d8 083d 6362 fdbd 4be2 8b3d
000001d0: 2954 f7bd 578b 853d d4c1 06bd 1eaa f2bd
000001e0: b2d7 443d 2cd0 a43c 4ac0 7b3d 8f54 e63d
000001f0: 03b8 303c 5aff 013e c8ec 86bd a96e 84bd
00000200: 8264 0abe 7377 c83d f779 223e 8609 dfbd
00000210: 5334 b73b ee30 a7bd d2b2 9abc e72a 9bbd
00000220: f63d 173e cdc4 dabd 850a a2bd 3939 233e
00000230: 93d6 813d 9c14 8abd b297 853c 6940 043e
00000240: f3d0 19be b5a2 83bc 51dd 4d3a 4ccb c2bd
00000250: 16ee 5d3d da54 243e 0756 3d3d cec1 253d
00000260: cd43 473d 30d2 be3c d766 c5bd ac67 c03d
00000270: 312e e2bd e6f1 113e 43a9 d5bd cc0f 72bd
00000280: 1808 6bbd 1796 15be daa3 163d 4602 93bc
00000290: 3240 1abe 6a02 3bbd 1133 743d efd2 26bb
000002a0: d5f7 ecbd 7ba5 0cbe fce3 6a3d f656 203c
000002b0: a1f6 bf3d 2e04 9f3b 5564 093d d122 f23d
000002c0: 2637 9cbd 7c24 d1bd e8ae ef3d 0c5b 20be
000002d0: 1f6e eb3d f7bf 04be 5adf 03be be9f 0abe
000002e0: fe2a b83d 2c38 183e 83f5 973d cd27 843d
000002f0: 818b 7fbd 70f1 f4bd 5ecb bb3d b41e afbd
00000300: 8db8 01bd 9d96 1d3e 2a4c 22be 057f 173e
00000310: e958 96bd 8140 0d3e 76f0 9dbd 9dc8 90bd

fc3.bias f4 [4]
0.037599836 0.12887923 -0.1374528 0.0560828
00000000: 4902 1a3d ebf8 033e 6dc0 0cbe 14b7 653d
