models/mlp_model_transient.pth (torch, 94711 bytes, 6 tensors)

fc1.weight f4 [100, 178]
00000000: 45f5 a33c 3f6d 0ebc 83e0 b73c 46df 513d
00000010: c3cc 183d 15aa 17bd 859c 90bc 0817 bebd
00000020: e864 303d 9ede dabc 869f a7bd 3aca 0e3d
00000030: f358 003d 8cb1 aa3c 88fc e23c 4c30 a43d
00000040: 975e 573d 6387 983d 6d08 9a3d ef29 643d
00000050: 3d50 97bd d9e3 463d 3437 9dbd d58c a0bc
00000060: c745 3c3c ac17 a9bb 4ac3 2abd 899e 643d
00000070: 8bc9 273d dc5e a5bd 371a d4bc 2b79 8abd
00000080: 28f5 633d 08e4 85bd 3f83 d6bc fb3e 45bd
00000090: f0e8 283d 02d8 643d 6405 123d a10f 4e3b
000000a0: 0972 263d 0502 d5bc 9610 a5bd 133a 183d
000000b0: 2c7d 32bd d164 91bd a15e 79bd 264d b6bc
000000c0: 28ed 88bb 2469 2d3c 7785 76bd db43 963d
000000d0: bc74 853d afc4 7939 a772 d23b 67e0 9dbc
000000e0: 3f37 93bc 20c2 93bb 0f61 8a3d 3d85 a03d
000000f0: e623 4cbd ea58 323c 73e0 ebbc 1ef9 983c
00000100: fb3a 0f3c c866 c8bc ae1f 5e3c 962e 70bd
00000110: 42c7 8dbd be07 3a3d ea7b 2b3d 9205 2f3d
00000120: 735b 5fbd d7c9 df3c c4a9 11bd 9cb5 86bc
00000130: 66c6 69bd 71ee 963d c173 1fbc 2741 643c
00000140: 528d 193d 4901 c63c 8fad f13c 1970 2e3d
00000150: 211d e7bb 5e67 edbb d5a9 e03b 2285 79bd
00000160: 3cab c53d e2e7 583c 94a6 093d 825b ea3c
00000170: c8dd 28bd 67d6 a73d 358c 573b 9d1c 1d3d
00000180: eefe c73b 35ac 52bc 9d47 4c3d 95d7 80bd
00000190: 72cc 01bd a189 cebc a416 753d d100 d6bc
000001a0: 65e6 5b3d fb7a 0cbc 5cc7 b03d ba44 573d
000001b0: 2880 aa3d abe3 91ba c36c aabd 8047 523d
000001c0: aa3c 3c3d 82e8 093d e5ca 08bd 41d2 643c
000001d0: 508e b53d 98b5 a2bd e800 9a3d bd21 613d
000001e0: 3557 473d feb1 91bc d339 e2bc 1417 383b
000001f0: 2312 573d 090c 6dbd 7058 85bd 352d b03d
00000200: c8cf 803d 297e 48bd 3bd0 7b3d aa10 d6bc
00000210: a8a0 b93c ded9 773d 82c0 fd3c 1f5c a13d
00000220: eb91 763d a72a 753d 0544 2b3d eda5 9b3d
00000230: aa8a 643d 0193 57bc 0630 0b3d a715 9d3d
00000240: 5b6d 933c b0a1 53bd d376 033d dff4 edbb
00000250: de7f ea3c e378 6abc 9a84 f23c 6bce 1f3d
00000260: e834 8ebd ae15 163d 567a 22bd ab08 043d
00000270: a6d6 32bb 7edd 31bc 9572 9ebd 5a8f d23c
00000280: efae 4c3d 0ca0 433d 684a 2abd ffe1 42bd
00000290: 2f53 a2ba 985d 723d 727e 163d c701 103c
000002a0: 02c2 8cbd db9f 5ebd 0211 b6bb 5e5c 60bd
000002b0: a1b2 49bc 5ffc 60bd f0bf 3bbd b9f7 87bd
000002c0: 665a 57bd e1be 95bd c770 413d 817e 7a3d
000002d0: 4032 4d3c 1b57 62bd 2704 073d 5651 26bc
000002e0: b96c 203d ac10 d1bd 72cd a0bd fb96 623d
000002f0: 934f 2bbd 63e0 433d d7ef ffbc 7f99 abbb
00000300: 6c61 49bd fff4 b4bc f7b2 a43d 31c8 38bd
00000310: 1a9b 6a3d 32bd 42bd 681d a93b c2fd 7a3c
00000320: a193 72bd 03af 643d 928a 07bd da0c 35bd
00000330: 9574 1e3d b7a4 353d d2b6 703d c647 873d
00000340: 9fd0 383d 78e2 84bb 864b 66bd 7c2b 773c
00000350: 21bb 6bbc 764a 9dbd 473d 3bbd 8a2e 28bd
00000360: 93b8 283b 78c3 0bbd b1cc 84bd d4ec 01bd
00000370: e17a 2bbd aa0b 493a 1b44 803c 32e1 9a3d
00000380: 5064 b03d 818f 3e3d 4646 cd3b aeda 54bc
00000390: 7c5b 5a3c 0d19 ccbc 53c0 48bc 2e23 053c
000003a0: d3e2 1d3d ebaa 9abc bf62 763c 9aba 033d
000003b0: ea5a c33c cbf9 d5bc 16df 21bd 0000 9c3d
000003c0: c289 0ebd 4d9f 6b3b 0112 8c3d 43ed 5d3d
000003d0: efa2 6e3d b6d9 b63d c2ad 9d3b c8de b83d
000003e0: 03bc cc3b 4f0a fabc 4c6d 00bd 299a 98bc
000003f0: 08f6 2a3d 6cdb 10bd 63b4 f5b9 c845 30bd
0.020014415 -0.0086930385 0.022445923 0.05123832 0.03730465 -0.037027437 -0.01765276 -0.092817366
0.04306498 -0.02671748 -0.081847236 0.034860827 0.03133483 0.020836614 0.027708307 0.080170244
0.052580442 0.07447698 0.07521138 0.055704053 -0.07388351 0.048557136 -0.07676545 -0.019598404
0.011491246 -0.0051602926 -0.04169015 0.055815253 0.04096369 -0.080747336 -0.025891406 -0.06761392
0.05565372 -0.06537634 -0.02618563 -0.048155766 0.04123777 0.055870064 0.035649672 0.003144242
0.040636096 -0.02600194 -0.08059804 0.03716476 -0.043576404 -0.07099307 -0.06088126 -0.022253584
-0.004178662 0.0105841495 -0.060185876 0.07337161 0.06516406 0.00023819761 0.006422359 -0.019272042
-0.01797068 -0.0045092255 0.06756794 0.07837913 -0.049838923 0.010885457 -0.02879355 0.018673476
0.008742089 -0.024463072 0.013557358 -0.058638178 -0.06922771 0.04541754 0.04186622 0.04272992
-0.054530572 0.027317924 -0.03556229 -0.01644402 -0.057073973 0.07369698 -0.009732188 0.013931549
0.03748829 0.024170535 0.029501704 0.042587373 -0.007053033 -0.0072449883 0.006856183 -0.06091798
0.09651801 0.013238879 0.033606127 0.028608087 -0.041227132 0.08195191 0.0032889966 0.038357366
0.006103388 -0.01285844 0.049872983 -0.06291119 -0.031689115 -0.025212111 0.059836045 -0.026123436
0.05368652 -0.008574243 0.08631775 0.052555777 0.08325225 -0.0011130472 -0.08321526 0.05133772
0.04595629 0.033669002 -0.03339662 0.013966144 0.088650346 -0.079447925 0.07519704 0.054963816
0.04866715 -0.017785069 -0.027615463 0.0028089928 0.05250753 -0.057872806 -0.06511009 0.086023726
0.06289631 -0.04894844 0.06147788 -0.026130993 0.022659615 0.06051051 0.030975584 0.07878899
0.060197752 0.05985513 0.041812915 0.07600007 0.055796303 -0.013157607 0.033981346 0.076701455
0.01799648 -0.05166787 0.03209574 -0.007261857 0.028625425 -0.014311048 0.029604245 0.039015215
-0.06943685 0.03664177 -0.03966745 0.03223483 -0.0027288585 -0.0108560305 -0.077366985 0.025703121
0.049971517 0.047760054 -0.041574866 -0.047578808 -0.001238441 0.05917129 0.03674168 0.008789486
-0.068729416 -0.05435167 -0.0055562267 -0.05477559 -0.012310655 -0.05492818 -0.045837343 -0.06639046
-0.052576445 -0.07311798 0.047226693 0.0611558 0.012524188 -0.05525885 0.032962944 -0.010151228
0.039166186 -0.10208258 -0.078516856 0.055319767 -0.041823935 0.047821414 -0.031242294 -0.005236804
-0.049165174 -0.02208948 0.08041947 -0.045112792 0.057276823 -0.047543712 0.005160976 0.01531929
-0.05922282 0.055830967 -0.033091135 -0.04420171 0.0386854 0.044346537 0.0587681 0.066054866
0.04512083 -0.0040553175 -0.05622437 0.015086051 -0.014387877 -0.07680218 -0.045712736 -0.041060008
0.002574478 -0.03412196 -0.06484354 -0.031719998 -0.041865233 0.00076692796 0.015657475 0.07562484
0.08612883 0.046523575 0.0062644808 -0.01299159 0.013327476 -0.024914289 -0.012252885 0.008126063
0.038546395 -0.018880328 0.015038191 0.03216038 0.023847062 -0.026120087 -0.039519392 0.076171875
-0.034799345 0.0035953105 0.068393715 0.05418135 0.058260854 0.08928244 0.0048119733 0.09026867
0.0062479987 -0.030522494 -0.031354234 -0.018628197 0.04173854 -0.035365507 -0.0004686444 -0.0430353

fc1.bias f4 [100]
00000000: 1ad4 ddbc 15ed a13d 88ab 803d c9dd 15bd
00000010: 87c5 e13b 4dc8 15bd 4757 9c3d 782e 1f3c
00000020: e9cb 933d 0207 783d 55f1 793c 8f8d 8c3c
00000030: c523 bb3c dfd0 24bd c118 7c3b 12e3 30bd
00000040: 1265 1b3d 16f8 56bd eb63 783d e90f 20bd
00000050: 3815 263d b6d5 c0bc fb9e 613d 2860 10bd
00000060: 2838 bebc 35b3 1bbc b05b 07bc 3dfd a73d
00000070: ca5c bdbc f5c2 2a3d dc89 1fbd 93fc be3c
00000080: 62d1 c43c 0560 983d 3721 ba3c aaef 9c3d
00000090: 6609 04bd e64f 373d beba 1f3d 7463 87bd
000000a0: 92c6 c33d 1b2d 2b3c 05eb 553d e395 873b
000000b0: da9f fcbc 6c1b c53d f2e1 a4bb d0ff 68bc
000000c0: 0acb 9f3c 00bb 973d 2a27 d03b bfe7 c8bb
000000d0: c88a 3abc 1475 463d dd57 793d aa67 cc3d
000000e0: 7c94 733d 85d3 c03d c5e3 47bd 41ad 133d
000000f0: 8b6d 19bd 2d3f 3ebd 6787 3cbd abfb 933d
00000100: e025 783d 7bf5 223d e3e4 2fbd 7bff 04bc
00000110: bb63 0abd d2a0 133d 7b74 92bd aa73 a3bb
00000120: 85c6 5fbd bd85 4d3c 1cf2 aabc 0f68 8e3d
00000130: 70bd 3fbd 36fd ee3a 06b5 013d de94 8bbd
00000140: 6a75 4e3d bd5e 873d c292 e1bb e8bd e63b
00000150: 826e 4ebd 0f1e f6bb fca5 14bd 65c3 a83c
00000160: 86e5 7a3d 7af3 bebc acbe 163c a0be 38bc
00000170: bb41 3fbd c88c f1bc a973 8a3c 0d5a b03d
00000180: b546 ad3c e89a 0fbc 65e1 ddbc 30b3 4f3c
-0.027078677 0.07906548 0.06282717 -0.036588464 0.006890002 -0.036567975 0.07633834 0.009715669
0.07216627 0.06055356 0.015255292 0.017157344 0.022844205 -0.040238257 0.0038466903 -0.0431853
0.037938185 -0.052482687 0.060642164 -0.039077673 0.04054758 -0.023539405 0.055083256 -0.03524795
-0.023220137 -0.0095031755 -0.008261606 0.08202598 -0.023115534 0.04168983 -0.038949832 0.023313796
0.024025623 0.07440189 0.022720916 0.076629 -0.032235526 0.04475393 0.03899645 -0.06610766
0.09559359 0.010447766 0.052226085 0.004137741 -0.030837942 0.09624371 -0.0050318176 -0.014221147
0.019505996 0.07408714 0.006352325 -0.006131142 -0.011385627 0.0484515 0.06087481 0.0998071
0.059467778 0.09415344 -0.048801202 0.0360539 -0.037457984 -0.046446968 -0.046027567 0.07225736
0.060582995 0.03978489 -0.042942893 -0.008117552 -0.033786517 0.036042042 -0.07151123 -0.0049881535
-0.054632682 0.012544093 -0.0208674 0.06953441 -0.04681152 0.0018233422 0.031666778 -0.068155035
0.050404944 0.06609867 -0.00688395 0.0070416816 -0.050398357 -0.0075109075 -0.036291108 0.020600984
0.061254047 -0.023309458 0.009200733 -0.011275917 -0.046693545 -0.029486075 0.016900854 0.08610926
0.02115188 -0.00876496 -0.027085016 0.012676999

fc2.weight f4 [50, 100]
00000000: 53d3 f1bc 20a3 b03d 0131 523b 8a62 a33b
00000010: 9269 dabc 5b50 ec3d 86c8 38bd ad84 733d
00000020: fd5b 8f3d 2cac c93b 4751 c5bc d7db 7fbd
00000030: cbf2 593d 51e1 103d d265 84bd 9671 a83d
00000040: 0417 ca3c 368b 82bd b846 1f3d e631 cabc
00000050: 7cc9 b83d e528 b7bc c22a 47bd ed60 7ebc
00000060: 9995 86bd a813 fe3c cd0c 8fbd 7424 063d
00000070: 2a9d fabc 66fc ee3d 26cc 51bd 1145 bebb
00000080: 69cd a43c 46ea a03d 8e40 ce3d aa3c a03c
00000090: d24e db3d c2c0 ca3d eeef 06bd 8408 aabd
000000a0: b230 58bd 65aa 913d c8d6 3ebd 2074 f13d
000000b0: cef6 303d fcca 023d 303a 533d cb5a 033e
000000c0: 4949 74bc 202f b6bc ef45 12bc b6cd acbc
000000d0: 5b64 723d 2301 923c 7fb7 89bb 9bce 21bd
000000e0: 1f1c 203d 1170 4dbd dd60 4fbd 9664 79bd
000000f0: 6661 6abd b893 eb3c 15e4 573d 42c5 d73c
00000100: 0681 483d 288d 183d 0e89 fcbc bb29 ea3d
00000110: 8eae 9dbd 94ce ef3d 0873 873d 1814 71bd
00000120: 0371 73bb bc8b 59bc 2aeb 233d e68c 903d
00000130: ff2d 363d 3d07 00bd 6481 21bd 3634 ea3c
00000140: 4221 a13c f89d f1bc 499a 01bc a74a 813d
00000150: a563 c63c bcf9 853c 7aa9 2c3d 1793 59bc
00000160: c1b1 40bd c823 ca3d f8c1 5a3c 0777 ad3c
00000170: be59 563c a718 a5bc ba8a e2bc 7d27 353c
00000180: 853d f03c 0af5 773d 8885 b83d 36f6 ccbd
00000190: 1b26 553d c1dd af3d a45a 73bc 011c ea3d
000001a0: 05bd 8cbd 074f d3bd e778 fb3d b82c e53c
000001b0: 114b 16bc dd14 f53d 5485 53bd 05d8 84bd
000001c0: 29db e53c fbb5 0dbd 0ea7 83bd 2c56 8e3d
000001d0: 66c2 a7bc df6e 9cbd 046e 08bc 9815 5f3c
000001e0: 5734 d5bc 72ca 883d 67d4 99bd 811d ce3d
000001f0: 3801 d63c 4c14 a13b 1052 c6bc 2e4f a3bc
00000200: 4339 d6bc 2c62 91bd f591 a4bd f96b 4a3d
00000210: 3ffa d53d 657d a0bc aa5f 88bd 66af 9fbd
00000220: 812f f73a 81ed c0bd 9b27 333d a97f 78bb
00000230: fea1 17bb bbbf 7dbd aa19 a33c 7e0c d63d
00000240: 9a26 a13d 6eca 2d3d 6e09 973d e7af 37bd
00000250: c210 673c c641 64bd 1043 2d3c 9333 8e3d
00000260: 6e19 373d db66 ba3c 1663 b13d ba20 a1bd
00000270: b980 c93c 9dc0 e7bd 02e6 c3bd 2f05 11bd
00000280: c8ed 643d 96db 843d 38f1 003d 6cb7 f8ba
00000290: 38f0 fdbc cd23 dabd f26f d13d b262 61bd
000002a0: 31e1 47bc fec2 98bd c2b1 7f3d 8c4c e73b
000002b0: 0e7b 91bd 0fd8 a4bb 988e 82bd 7c59 043d
000002c0: b80f 12bd f339 133d 1d88 be3d 9141 edbc
000002d0: 4bd1 9bbd 4a76 bcbd 5209 b1bc 6a9e 67bd
000002e0: 8b8a a03c d4a8 9bbd a4ad 8dbb 48c0 c7bd
000002f0: 026f 233d 2c84 cabc e0d9 8bbd ed64 483c
00000300: a761 55bd cfd6 353d 53f3 d73c 90da 853d
00000310: c061 1f3d 6d7e c03d 02f9 e9bd 1484 e43c
00000320: 0284 89bc ee79 5c3c e0bb 21bd 5de3 c93d
00000330: dade eeba 3c1b bcbd 34e1 ae3d b652 113d
00000340: 6854 9cbd bbb2 8f3d c7d9 8fbd 82a8 8a3c
00000350: 5da5 bdbd b878 1b3d 7808 93bd 17df ee3d
00000360: 9e40 4a3c cd0b 063d 188a 82bc 9733 82bd
00000370: d91d c23c 454b ebbc b252 1cbd d382 a73d
00000380: cc82 793d 8e00 4c3c 07ff 6cbd 6052 883c
00000390: 18ff 55bd 2514 b2bd 163f 3e3d 12a3 8dbb
000003a0: fba5 aa3d d451 833d b0b8 5dbd c36f 57bd
000003b0: 477f c53d a87c 63bd b793 9dbd 06e4 cf3c
000003c0: ee0a 693d 912c ee3d 7fd2 bb3d 47b4 d73c
000003d0: 45b2 0d3b 0e45 97bd 6e9e e73d eb1b a6bd
000003e0: c670 943c c6b5 a83d 9258 86bd 4de8 eabc
000003f0: 75d5 37bb 0b98 f33d 6828 81bd 6f97 96bd
-0.029519713 0.086248636 0.0032072666 0.004986112 -0.026661668 0.11538764 -0.04511311 0.0594527
0.06999967 0.0061545577 -0.024086608 -0.062465515 0.05321006 0.03537113 -0.06464733 0.0822479
0.024669178 -0.06374209 0.038885802 -0.024681997 0.09022805 -0.022358367 -0.04862476 -0.015526039
-0.06571502 0.031015232 -0.069848634 0.03274961 -0.03059252 0.11669235 -0.05122008 -0.005806573
0.020117478 0.07857184 0.100709066 0.019560177 0.10708393 0.09900047 -0.03294366 -0.083024055
-0.052780814 0.07112578 -0.04659155 0.11789727 0.04320412 0.031931862 0.051569164 0.12827604
-0.014910051 -0.022239268 -0.008927806 -0.021094184 0.059177738 0.017822808 -0.0042027826 -0.039503675
0.03908932 -0.050155703 -0.050629485 -0.06088694 -0.057221793 0.028756961 0.05270775 0.026339177
0.04895117 0.037243992 -0.030827072 0.11433741 -0.07699309 0.117093235 0.06613737 -0.058857054
-0.0037146218 -0.013277944 0.04001919 0.07058124 0.04447746 -0.031256903 -0.039430037 0.02858935
0.019669179 -0.02949427 -0.00791032 0.06313067 0.024217436 0.016354434 0.042153813 -0.013279698
-0.04704452 0.09870106 0.01335191 0.02117492 0.01308292 -0.020153357 -0.02765404 0.011056778
0.02932621 0.06053642 0.09009844 -0.100078985 0.052038293 0.08587218 -0.014853153 0.114311226
-0.0687199 -0.10317808 0.1227892 0.027975425 -0.009173171 0.1196687 -0.051640823 -0.06486515
0.028058605 -0.03459738 -0.064283475 0.0695003 -0.020478439 -0.076383345 -0.008327011 0.013615988
-0.026025934 0.066792384 -0.07511216 0.10064221 0.026123628 0.0049157497 -0.024209052 -0.019935217
-0.026150351 -0.07098803 -0.080356516 0.049419377 0.10448121 -0.019591043 -0.066588715 -0.077971265
0.0018858762 -0.094203 0.043738943 -0.0037917888 -0.0023137326 -0.061950427 0.019909699 0.104516014
0.07868691 0.04242938 0.073748454 -0.044845488 0.0141031165 -0.05572679 0.010575071 0.06943431
0.044701986 0.022754123 0.08661477 -0.0786757 0.024597513 -0.11316035 -0.09565355 -0.035405334
0.05589083 0.06487195 0.031480044 -0.0018975562 -0.030998334 -0.1065136 0.1022643 -0.055025764
-0.012199686 -0.07459067 0.062425382 0.0070586856 -0.07103549 -0.005030639 -0.06374854 0.0323119
-0.03565952 0.035943937 0.09303305 -0.028961929 -0.07608279 -0.09202249 -0.02161089 -0.05654756
0.019597312 -0.07600561 -0.004323678 -0.097534716 0.039900787 -0.024721228 -0.06828666 0.012231094
-0.05209508 0.04439431 0.026361143 0.06535828 0.03891158 0.09399114 -0.114244476 0.027895011
-0.016786579 0.013456805 -0.039485812 0.09857819 -0.0018224374 -0.09184882 0.08539048 0.03547927
-0.07633287 0.07016512 -0.070239596 0.016926054 -0.09260056 0.037956923 -0.0717935 0.11663645
0.0123445075 0.032726098 -0.015934989 -0.06357496 0.023695873 -0.028722415 -0.038164802 0.081792496
0.060915753 0.012451304 -0.0578604 0.016640842 -0.05224523 -0.086952485 0.046446882 -0.004322418
0.083324395 0.06412092 -0.05413121 -0.05259682 0.09643417 -0.055538803 -0.0769419 0.025377285
0.05689519 0.11629594 0.09171008 0.02633108 0.002162115 -0.07386218 0.11309515 -0.08110794
0.01812018 0.082377955 -0.06559862 -0.028675223 -0.0028050814 0.11894234 -0.06306535 -0.073531024

fc2.bias f4 [50]
00000000: 635f 803c 07cf ba3d e635 f4bc fd80 9bbc
00000010: 82df 80bd 1cc6 60bb 2a72 b6bd 3388 613d
00000020: 25d1 ddbb 510e af3c 1589 4c3b 6951 ed3d
00000030: 89f5 fa3c 2f6c ed3c b117 623d 280f 0b3d
00000040: 9919 d53d 516b f63d c1c2 963d ce67 a9bd
00000050: 97d8 54bd f722 42bd 8630 063b 1b63 d13d
00000060: 1df6 d53a 04c9 1abd d9fd 843d 806b 6e3d
00000070: c99f 683c 18ba 9cbc 9547 94bd 1ba1 75bb
00000080: c35e 9b3d 2c30 5139 69bc d3bc 3e1a 5f3d
00000090: 59ff 6abc 895e d03c 5228 90bd cc4d a93d
000000a0: 9c77 ac3d ce68 12bd 1747 6b3d d478 2a3d
000000b0: 1a4f 13b9 812f bbbc 2774 d53d 75b0 e3bc
000000c0: 402f adbc 07e7 9dbd
0.015670484 0.091215186 -0.029810857 -0.018982405 -0.06292631 -0.003429777 -0.08908494 0.05506153
-0.0067693167 0.021369131 0.0031209637 0.115877934 0.030634658 0.02898225 0.055198375 0.03395
0.10405273 0.12032188 0.07361365 -0.08271752 -0.05196437 -0.047396626 0.00204757 0.10223981
0.0016323958 -0.03778936 0.0649373 0.05820799 0.014198252 -0.019131705 -0.07240216 -0.003748006
0.07586434 0.00019949739 -0.025846677 0.054468386 -0.014343106 0.025435703 -0.070389405 0.08266792
0.08421251 -0.03574448 0.057440843 0.041619137 -0.0001404848 -0.0228498 0.10422545 -0.027794102
-0.021140695 -0.077100806

fc3.weight f4 [4, 50]
00000000: 5baf 03be d205 013e 6b77 333d 1606 2bbe
00000010: 3f92 d73c 7d38 1c3e 228a 2c3e 1927 d2bd
00000020: f60e f0bd 94fb fa3c d37e cbbd 6480 49bd
00000030: b393 babd b5fd 10bd 08ac e4bd 4d25 1dbe
00000040: 91f8 b23d 9f43 103c 3542 b9bd 15a1 e03d
00000050: eb23 28be fbea e2bc 417a a03c 9b6b 05be
00000060: 5595 51bc 3d65 183c 1efa 1ebe 7abf bebc
00000070: e379 1e3e 6e65 07be 3975 12be 8294 b63d
00000080: 314d b43c d3ed a2bd ab88 d83d 4d9b 1e3e
00000090: 32d3 46bd 3138 4cbd dadb e7bc 323a 2e3e
000000a0: f623 683d 2fe2 433d 5e3c 153e 6741 aa3d
000000b0: 5254 b0bc 0a8e 9abd 4a0f 47bc 3a17 053e
000000c0: 4c15 0cbd 32f8 9bbd 6657 ea3c b05c bebd
000000d0: 4686 133d db75 d0bd 9f01 1abe d98c af3d
000000e0: 5290 03be 92aa b03c 90c1 8a3d 28e4 26be
000000f0: ce7a 44bd 597c 113e 3ef6 4fbc 0f7b fb3d
00000100: 999a df3d d817 ea3d c4b4 2f3e ebd0 01bd
00000110: f109 103e 20d6 d93d ca67 32be ed2f af3d
00000120: c291 7dbc 2c0d d2b9 3bbf 12bc 257e 5f3d
00000130: 8088 debd b2bd 433d 2f20 23be 63fe 42bc
00000140: cf24 26bd 8d59 0dbe 0713 d2bc 646f 4bbd
00000150: 66af 5e3d 0372 1ebe 0bef 3a3d ed5c 6bbd
00000160: 0c2e aabb 913b 513d fef9 22be 5efc d93c
00000170: 672b a0bd 5147 963d 4304 07be b1ea ef3d
00000180: b36e fc3d 3b0d 953d fa94 393c c733 233e
00000190: df23 e83c ed81 b2bd faab 80bd 2331 943d
000001a0: b43b 5d3d c436 03be 5746 df3d 0c3f febc
000001b0: 7a0b 553c ceba 0dbe abde efbc 3975 9abd
000001c0: 517e 2e3e e9f1 3ebd 76d3 fc3b d63b 0c3e
000001d0: 5e5e 093c 56f2 a33d 0de7 a83d 514a 0b3e
000001e0: a926 71bd 6fed 27bd 90e5 16be b0ba 8b3d
000001f0: 2817 1d3d bb26 c4bd 3e3e e8bc 8976 153c
00000200: e199 8ebd 6113 92bd b28b b03c 2181 afbd
00000210: 440b f73d 2ef4 bd3d 3f43 e7bd d1cf 99bd
00000220: b564 aabd a0ab 8b3c 5b4b a4bd 7215 1b3e
00000230: 4a3d 203e a744 423c bdf2 c83d b31e 19be
00000240: 6072 ac3d 2d90 d13d 3321 06be f0e7 23be
00000250: dae9 0db9 e36c dc3d 2374 b5bd 7938 04be
00000260: 88a0 89bd 3de6 dbbd a422 21be 15ff 283d
00000270: f8b9 15be 277b a13d 3c46 f43d 3afd 05bd
00000280: 411a 163e 3a2d 2fbd 1de1 b3bd 7be1 763c
00000290: 6a13 a63d e528 cfbc 5fa0 0fbc 217b ac3b
000002a0: 4bd8 1ebe 5752 57bd 4d9d dfbd 7319 b13c
000002b0: 0743 a8bd 6eca 753d 9365 a13d 4065 8bba
000002c0: 6994 0e3e 25ba 173e c5af ae3b 66db 123e
000002d0: 1f10 1a3d 1adb 0a3e 5fe5 103e dc55 90bd
000002e0: 8868 94bd 78ec a7bd 6f0b dbbd 45d5 293e
000002f0: 1eed d8bd ab2e 803d 41af 68bd 4347 22be
00000300: a650 69bd ec2f ba3d 3586 04be b8c3 b5bd
00000310: 231d 113e 5293 1dbe 94b9 e5bd 0350 27be
-0.12859862 0.12599877 0.043815058 -0.1670154 0.026314853 0.15255924 0.16849568 -0.102613635
-0.117216036 0.03063754 -0.09936299 -0.04919471 -0.09110203 -0.035398204 -0.11165625 -0.1534626
0.087388165 0.008805185 -0.09045831 0.10968224 -0.16419952 -0.027699938 0.019589545 -0.1302933
-0.012791951 0.009301481 -0.155251 -0.023284663 0.15476184 -0.13222286 -0.1430253 0.08915044
0.022009464 -0.079555176 0.10572942 0.1548893 -0.048541255 -0.049858276 -0.028303076 0.17014387
0.05667492 0.047823127 0.1457381 0.08313256 -0.021524582 -0.07546623 -0.012149641 0.12997141
-0.034199998 -0.07615699 0.028606128 -0.092950225 0.036016725 -0.10178729 -0.15039681 0.085717864
-0.12848023 0.02156571 0.067752 -0.16297972 -0.04796868 0.14207591 -0.012692986 0.12279331
0.10918159 0.11430329 0.171588 -0.03169338 0.14066292 0.10636544 -0.17422405 0.08554063
-0.015476646 -0.00040064135 -0.008956726 0.05456366 -0.10865879 0.04778833 -0.15930246 -0.011901471
-0.040562447 -0.13803692 -0.025643839 -0.049666777 0.05436649 -0.1547318 0.045638125 -0.057461668
-0.0051934775 0.051082198 -0.15915677 0.026609596 -0.07820778 0.07337821 -0.1318522 0.11714686
0.12325802 0.07277914 0.011327023 0.1593772 0.028337417 -0.087161876 -0.06282802 0.072359346
0.054012015 -0.1281386 0.10902088 -0.031035922 0.0130032245 -0.13840792 -0.029280981 -0.0754189
0.17040373 -0.046617422 0.007715638 0.136947 0.008384315 0.08005206 0.082471944 0.13602568
-0.05887476 -0.04099792 -0.14736009 0.06822717 0.03835216 -0.095777 -0.028349992 0.009122499
-0.06962944 -0.071326025 0.021550987 -0.08569551 0.120626956 0.09275089 -0.11292123 -0.07510341
-0.083199896 0.01704961 -0.080221854 0.151449 0.1564838 0.011857188 0.09811924 -0.14953117
0.08420253 0.102325775 -0.13098602 -0.16006446 -0.00013533924 0.10762956 -0.08860042 -0.12912168
-0.06720072 -0.10737274 -0.1573587 0.04125889 -0.14621723 0.078848176 0.11927459 -0.0327122
0.14658453 -0.04276774 -0.08783171 0.015068407 0.08109172 -0.025288055 -0.008766263 0.0052637015
-0.15512197 -0.05256876 -0.109186746 0.02161858 -0.082159095 0.060007505 0.07880702 -0.0010635033
0.13923801 0.14817102 0.005331012 0.14341506 0.03761303 0.13560143 0.14149998 -0.070476264
-0.072465 -0.081994 -0.1069554 0.16585262 -0.105921015 0.06258901 -0.05680776 -0.15847497
-0.056961678 0.090911716 -0.12941821 -0.08875221 0.14171271 -0.1538823 -0.11217037 -0.16339116

fc3.bias f4 [4]
00000000: 2d95 c3bd 8267 b43c e042 8ebd 630e 143d
-0.095499374 0.022022013 -0.06946349 0.036146533
