models/mlp_model_transient.pth (torch, 94711 bytes, 6 tensors)

fc1.weight f4 [100, 178]
0	0xbd35dce3	-0.044400107
1	0xbd49b77d	-0.049247254
2	0xbc75c2da	-0.0150000695
3	0x3d0344be	0.03204798
4	0xbd0173d3	-0.0316046
5	0xbd96d155	-0.07364146
6	0x3d8cf0e8	0.06881887
7	0xbd170416	-0.03686913
8	0x3d210006	0.039306663
9	0xbd2fe33c	-0.042941317
10	0xbc22f772	-0.009946691
11	0x3cad44bf	0.021150945
12	0x3ce353f5	0.027749995
13	0xbd56d543	-0.052449476
14	0x3d824fe1	0.06362892
15	0x3c7b38ec	0.015333395
16	0x3c308fa4	0.010776434
17	0xbc19e8bd	-0.009393868
18	0x3d81d1c0	0.06338835
19	0xbc0e7da1	-0.008696944
20	0x3d3e66d7	0.046484794
21	0x3ce58618	0.028018042
22	0x3d261cc7	0.040554788
23	0xbd466d3e	-0.048444025
24	0xbd381811	-0.044944827
25	0x3a06bf68	0.0005140216
26	0xbca0ca5e	-0.019627746
27	0x3d615182	0.055009373
28	0x3c6c5c1e	0.014426259
29	0xbccb0d60	-0.024786651
30	0x3cc32c43	0.023824817
31	0xbda6757c	-0.08127877
32	0x3d2ebc9d	0.042660344
33	0xbdbb9f38	-0.09161228
34	0xbda3f277	-0.08005231
35	0x3c7fe41d	0.015618351
36	0x3c899232	0.016793344
37	0x3c99672c	0.018725954
38	0x3d1245b8	0.03571102
39	0xbdae5c62	-0.085137144
40	0xbda691e9	-0.08133299
41	0x3ad062d7	0.0015898597
42	0xbdb376c9	-0.08762891
43	0xbd2b381b	-0.041801553
44	0x3cdfe0f0	0.027328938
45	0xbc1737e8	-0.009229638
46	0x3daec8ff	0.08534431
47	0x3d9c872c	0.076429695
48	0x3c1fba48	0.009749003
49	0x3d1c956e	0.038228445
50	0x3d920571	0.07129944
51	0x3dc7228b	0.097233854
52	0x3cc86df7	0.024466498
53	0x3acb5633	0.001551336
54	0x3d258bff	0.040416714
55	0x3d42b512	0.047535963
56	0x3c1fc1cd	0.009750796
57	0x3cc8e4de	0.024523195
58	0xbd121959	-0.035668705
59	0xbcf82846	-0.030292641
60	0x3d79e578	0.061009854
61	0x3cd3b311	0.025842221
62	0x3d363f18	0.044493765
63	0x3db6b62e	0.08921467
64	0x3da23ead	0.07922111
65	0x3d289cfd	0.04116534
66	0x3d8f2b49	0.06990678
67	0xbc881bbd	-0.01661479
68	0x3d955f3a	0.07293554
69	0x3d3b0f68	0.04566899
70	0x3d4b3621	0.04961217
71	0x3cd84e72	0.026404593
72	0x3cd13591	0.025538238
73	0x3d7a9825	0.061180253
74	0x3d711df8	0.05886647
75	0x3d5262c3	0.051363718
76	0x3d391774	0.045188382
77	0x3d39ca6a	0.045359053
78	0xbc8af06d	-0.016960347
79	0x3da790e2	0.08181931
80	0xbd8e1ea4	-0.06939438
81	0xbd747a44	-0.059686914
82	0x3d4d40ef	0.050110754
83	0xbcb0c24b	-0.021577021
84	0x3ca4306c	0.02004262
85	0x3cdc9f4a	0.026931424
86	0xbda30bc6	-0.0796123
87	0xbd1d9070	-0.038467824
88	0x3dba1d4b	0.090876184
89	0x3d8f9838	0.07011455
90	0x3d22dbf0	0.03976053
91	0xbcb49c43	-0.022047168
92	0xbd53c119	-0.051697824
93	0x3c5e91ec	0.013584595
94	0xbd524a66	-0.051340483
95	0xbd3aedcb	-0.045636933
96	0x3d5b37e4	0.0535201
97	0xbcc91964	-0.02454824
98	0x3a34c15b	0.0006895267
99	0xbcae2515	-0.021257916
100	0x3d3988de	0.045296542
101	0x3c8d312a	0.017235357
102	0xbd5161da	-0.05111871
103	0xbd432e95	-0.047651846
104	0xbda4d90c	-0.08049211
105	0x3cc5db00	0.024152279
106	0xbd87c612	-0.06629576
107	0x3db545c2	0.08851196
108	0xbd3788e2	-0.044808276
109	0xbd381e6b	-0.044950884
110	0xbb438db0	-0.002983909
111	0xbd5542af	-0.052065548
112	0x3d71a3c5	0.058994073
113	0x3ca261a8	0.019821957
114	0x3dc01cee	0.09380518
115	0xbced3eac	-0.028960548
116	0x3da53857	0.080673866
117	0xbd00e8a9	-0.031471882
118	0xbad67a22	-0.0016363303
119	0x3a8d2743	0.0010769147
120	0x3daf6546	0.08564238
121	0x3c9f44ba	0.019441951
122	0xbcb5d3fe	-0.022195812
123	0xbd38889e	-0.045052163
124	0xbd69f461	-0.057117824
125	0x3bc06266	0.005871105
126	0x3d2d3745	0.042289037
127	0x3d8539e1	0.0650518
128	0x3cbff5e8	0.023432687
129	0xbd3f39f3	-0.046686124
130	0x3d5eb023	0.054367196
131	0x3d1e76f6	0.03868767
132	0x3d8ae0ab	0.06781133
133	0x3d3f0dfb	0.046644192
134	0xbd1662c6	-0.03671529
135	0x3cc32690	0.023822099
136	0xbd1b6e31	-0.037946884
137	0xbd11411a	-0.035462476
138	0x3d0f910b	0.035050433
139	0xbd8d045b	-0.06885596
140	0xbd1a5a18	-0.037683576
141	0x3d753196	0.059861742
142	0xbd0be9b5	-0.034158427
143	0xbc520b94	-0.012820143
144	0xbda0638a	-0.078314856
145	0x3d2eac96	0.04264506
146	0x3d9ab5ea	0.075542286
147	0x3c464730	0.012101933
148	0xba302165	-0.00067188434
149	0x3db261ab	0.08710035
150	0xbd47caf7	-0.048777547
151	0xbcbacb87	-0.022802128
152	0x3d3a9703	0.045554172
153	0x3da60bec	0.08107743
154	0x3d3e2976	0.04642626
155	0x3d88374d	0.06651173
156	0x3cd41168	0.025887206
157	0x3c546b0d	0.012964976
158	0xbd983a7d	-0.07433031
159	0xbd802edc	-0.06258938
160	0xbc361338	-0.011112981
161	0xbce16034	-0.027511694
162	0x3ce7fc10	0.028318435
163	0xbcdb2038	-0.026748762
164	0xbd1e3f18	-0.03863439
165	0x3c82e180	0.015976667
166	0x3d89f121	0.06735445
167	0x3c5bc826	0.013414418
168	0xbcf864f4	-0.030321576
169	0x3d079715	0.033103067
170	0x3d771521	0.060322884
171	0x3d201735	0.039084632
172	0xbd2c0fdc	-0.042007312
173	0xbd793e12	-0.06085021
174	0x3d7f4269	0.062319193
175	0xbcf907fe	-0.030399319
176	0x3d721da1	0.059110288
177	0x3b9e6f8f	0.004835076
178	0xbd6126cf	-0.05496865
179	0xbd4adf77	-0.04952952
180	0xbd9de61e	-0.07709907
181	0xbd754bb1	-0.059886638
182	0xbd8c4aeb	-0.06850227
183	0x3bdd8642	0.0067603895
184	0x3db9e407	0.09076696
185	0xbd55a8af	-0.052162822
186	0xbcc8e43b	-0.024522891
187	0xbd23ca73	-0.039987992
188	0xbcda1097	-0.026619239
189	0xbd4a8b3a	-0.049449183
190	0xbd80f9a7	-0.062976174
191	0x3dab25d5	0.08356825
192	0x3da0d966	0.078539655
193	0xbdb5bcf8	-0.088739336
194	0xbc840101	-0.01611376
195	0x3d6a4fb7	0.05720493
196	0x3ce423d8	0.027849123
197	0x3da9a4b1	0.082833655
198	0xbbe295d4	-0.0069148336
199	0x3d90e909	0.07075698
200	0x3c68b9e3	0.014204475
201	0x3a8555a4	0.0010172618
202	0x3cec3b62	0.02883691
203	0xba2aeb24	-0.0006520024
204	0xbd32d4eb	-0.043660086
205	0x3dbc3271	0.091893084
206	0x3d701881	0.05861712
207	0x3d694571	0.05695099
208	0x3d0ed84d	0.03487425
209	0xbccef589	-0.025263565
210	0x3cfc837a	0.030824412
211	0xbd2ed304	-0.04268171
212	0x3d8208b4	0.06349316
213	0x3d3ec184	0.04657127
214	0xbd422e69	-0.04740754
215	0x3dc551f4	0.09634772
216	0x3da798af	0.08183419
217	0x3d8a0e27	0.067409806
218	0xbd2d3b71	-0.042293016
219	0x3dc72aac	0.09724936
220	0xbd25ef88	-0.040511638
221	0xbd19d2b0	-0.037554443
222	0x3d3ecb5b	0.046580654
223	0xbd2b1c43	-0.041775
224	0x3dc0e86c	0.09419331
225	0x3d2a519d	0.04158174
226	0x3c8c82f9	0.017152296
227	0xba4918db	-0.0007671245
228	0x3bc6c24c	0.0060656425
229	0x3da713d4	0.08158079
230	0x3cf90a5a	0.030400444
231	0x3d50428a	0.050844707
232	0xbc7d6bff	-0.015467643
233	0x3b676a9c	0.0035311347
234	0x3dbf3d3b	0.09337851
235	0xbd5565a4	-0.052098885
236	0x3d3beb2f	0.045878585
237	0xbb76a2b5	-0.0037633602
238	0x3ac95ee3	0.0015363361
239	0x3db9125f	0.09036707
240	0xbd1db624	-0.03850378
241	0xbc89cd04	-0.016821392
242	0x3da357e5	0.07975749
243	0x3c266abe	0.010157285
244	0x3cca7915	0.02471594
245	0x3d8e90ea	0.06961234
246	0xbbd69cd6	-0.006549458
247	0x3da094f5	0.07840911
248	0x3ce423c7	0.027849091
249	0xbcd3687d	-0.02580666
250	0xbd73ee71	-0.059553567
251	0xbb8d6ee8	-0.0043161996
252	0x3d7c3904	0.06157781
253	0xbda0d01d	-0.078521945
254	0x3b942262	0.0045207003
255	0x3d47ed16	0.048810087

fc1.bias f4 [100]
0	0x3d2491d0	0.04017812
1	0x3cee44e0	0.029085577
2	0x3d20625e	0.03915631
3	0x3d88ff64	0.06689337
4	0x3d037189	0.032090697
5	0x3d951248	0.072788775
6	0xbd3f5803	-0.046714794
7	0xbc877342	-0.016534451
8	0x3d34bfda	0.044128276
9	0x3da7b085	0.08187965
10	0x3d8c65ce	0.06855355
11	0x3d291210	0.04127699
12	0xbb87e95a	-0.0041476907
13	0x3c494bb4	0.012286115
14	0x3da8cf13	0.08242621
15	0xbd47968d	-0.04872756
16	0x3d8aa40d	0.067695715
17	0xbcac4950	-0.021031052
18	0x3b86cc88	0.0041137375
19	0x3da6b9bc	0.08140895
20	0xbd69dfc4	-0.057098165
21	0x3ced6f63	0.028983777
22	0x3d6b026e	0.057375364
23	0xbc5d1dce	-0.0134958755
24	0x3c223ee6	0.0099026915
25	0x3db6a503	0.08918192
26	0x3d0a7dc5	0.03381135
27	0xbc2d7083	-0.010585907
28	0xbce40116	-0.027832549
29	0x3d747f04	0.059691444
30	0xbd19da24	-0.03756155
31	0xbd3567a1	-0.04428828
32	0x3c07be79	0.008285158
33	0x3d987fb7	0.07446235
34	0xbc26f6c7	-0.010190672
35	0xbce754b7	-0.028238637
36	0xbc8234fc	-0.015894406
37	0x3c733aff	0.014845609
38	0x3d26d8be	0.040734045
39	0x3dbe7495	0.0929958
40	0xbd8b26a7	-0.06794482
41	0x3d3dee9f	0.046370145
42	0x3ba6127f	0.005068123
43	0xbc284af5	-0.010271777
44	0x3dbe0324	0.09277943
45	0x3c7046f9	0.014665359
46	0x3cfba40c	0.030717872
47	0x3cf1249e	0.029436406
48	0x3d4e7308	0.05040267
49	0x3d84aa99	0.064778514
50	0xbd01768a	-0.03160719
51	0x3d0bcefd	0.034132946
52	0x3c37ca8a	0.011217723
53	0x3d61aa05	0.055093784
54	0xbccf1687	-0.025279297
55	0x3d52b30b	0.05144028
56	0x3c9f31ab	0.019432863
57	0xbd8098ce	-0.06279145
58	0x3c0aab24	0.008463655
59	0x3cbffc50	0.023435742
60	0xbcada182	-0.021195177
61	0x3d7c6427	0.06161895
62	0xbd8857fc	-0.06657407
63	0xbadd25f5	-0.0016872274
64	0x3d33972b	0.043845337
65	0x3d913026	0.07089262
66	0xbca3aff7	-0.019981368
67	0x3dbb9c6d	0.09160695
68	0xbd18f893	-0.037346434
69	0x3d364f33	0.044509124
70	0xbc460145	-0.012085264
71	0xbce9c2d8	-0.028535292
72	0xbd342567	-0.043980982
73	0x3d0eff11	0.03491122
74	0xbd579ac6	-0.052637838
75	0x3ca39249	0.019967215
76	0x3cf76fc4	0.030204661
77	0x3cd1424a	0.025544304
78	0x3d6034f4	0.054738
79	0xbd5c89dc	-0.05384241
80	0x3d1d72d3	0.038439583
81	0x3c62cab7	0.013842276
82	0xbc9ffa60	-0.019528568
83	0xbccd01fa	-0.025025357
84	0x3d910c2c	0.070824
85	0x3da999a3	0.08281257
86	0xbc9cbe59	-0.019133734
87	0xbcda9b3f	-0.026685355
88	0x3da85472	0.08219232
89	0x3cca874d	0.02472272
90	0xbd54123f	-0.051775213
91	0x3cbd657d	0.023119682
92	0xbb5ccc85	-0.003369124
93	0xbd815fba	-0.063170865
94	0xbc46d89e	-0.0121366065
95	0xbd0a0140	-0.0336926
96	0x3c8095f2	0.0156965
97	0x3d919da7	0.07110148
98	0x3d2541e0	0.040346026
99	0x3d91472f	0.07093655

fc2.weight f4 [50, 100]
0	0x3c612795	0.013742347
1	0xbd875a8b	-0.066090666
2	0xbd7cd54d	-0.061726857
3	0x3ca56da2	0.020193879
4	0xba437c0f	-0.0007457146
5	0x3db50036	0.08837931
6	0x3db2bffb	0.087280236
7	0xbd5b324e	-0.05351477
8	0xbd863401	-0.06552888
9	0xbcb98b97	-0.02264957
10	0x3deef519	0.116678424
11	0xbd733ff0	-0.059387147
12	0xbdf3ea73	-0.11909952
13	0x3d5b22ff	0.05350017
14	0x3cd6717f	0.026177166
15	0x3c42c8b4	0.011888672
16	0x3bfffcdc	0.0078121256
17	0xbdcd6008	-0.10028082
18	0xbd8ab5ad	-0.06772933
19	0xbdbf534d	-0.0934206
20	0xbdd6dfa4	-0.10491875
21	0xbc30f7b5	-0.010801245
22	0x3d1c4be1	0.0381583
23	0x3dc0e46a	0.094185665
24	0x3d83d03f	0.06436204
25	0x3d9dd519	0.07706661
26	0x3d841e3b	0.064510785
27	0x3d7c8226	0.061647557
28	0x3d9248b8	0.07142776
29	0xbd5542b4	-0.052065566
30	0x3d2c1b9b	0.042018514
31	0xbdcc6646	-0.099804446
32	0x3d6b87f5	0.057502706
33	0x3d9aecd5	0.075647034
34	0x3cb2d0a0	0.021827996
35	0x3d9483cb	0.072517
36	0xbd40728a	-0.046984233
37	0x3c30cbae	0.0107907485
38	0x3c860deb	0.016364058
39	0xbcfd2241	-0.030900123
40	0xbd8f5543	-0.06998684
41	0x3c61f8d4	0.013792235
42	0x3dcee5ab	0.101023994
43	0xbd235c04	-0.039882675
44	0x3d80eeb6	0.062955305
45	0xbb502581	-0.0031760635
46	0x3a2f0fa4	0.0006678051
47	0xbd720ceb	-0.05909435
48	0x3c186a3c	0.009302672
49	0xbd942a59	-0.0723464
50	0x3d0b6ffd	0.034042347
51	0x3dd548ee	0.10414301
52	0x3d7c8dda	0.061658718
53	0x3d0484c9	0.032353196
54	0xbbda0fab	-0.0066547
55	0x3d22fafc	0.03979014
56	0x3dede160	0.116152525
57	0x3d23f794	0.04003103
58	0x3db514c7	0.088418536
59	0xbd31de3a	-0.043424822
60	0x3db50ebc	0.08840701
61	0x3db6df18	0.089292705
62	0x3bc13ade	0.00589691
63	0xbcc56d1c	-0.024099879
64	0x3dc80608	0.09766775
65	0x3c9779a4	0.01849062
66	0x3d4be9f7	0.049783673
67	0xbd0331c1	-0.03202987
68	0x3d27b567	0.040944483
69	0x3d474e20	0.04865849
70	0x3dc1d2b7	0.09464019
71	0x3e003503	0.12520222
72	0x3d06c344	0.032901064
73	0x3d10db51	0.035365406
74	0xbcbc5368	-0.02298899
75	0x3df3b31a	0.11899395
76	0xbd81e916	-0.06343286
77	0xba40e1f0	-0.0007357886
78	0x3d7c8680	0.061651707
79	0x3dfe4c06	0.12416844
80	0xbd8299fc	-0.063770264
81	0xbda48675	-0.08033458
82	0x3ddf39de	0.10899709
83	0x3be6ec15	0.007047186
84	0x3cfda96b	0.030964574
85	0xbac78b59	-0.0015224024
86	0x3d97f103	0.07419016
87	0xbc6aead5	-0.014338215
88	0x3dcfb870	0.101426005
89	0x3d8d9de7	0.06914883
90	0x3a62e93a	0.0008655969
91	0x3d3ebf14	0.046568945
92	0x3da79c4c	0.08184108
93	0xbdb213c4	-0.08695176
94	0x3dc24886	0.09486489
95	0x3d9430f6	0.07235901
96	0x3d9a3534	0.07529679
97	0xbd8d4cbc	-0.068994015
98	0x3d819405	0.063270606
99	0x3d986b2c	0.074423164
100	0x3cdb43c5	0.026765713
101	0x3d9c3fe2	0.07629372
102	0xbd1baee6	-0.038008593
103	0x3b319421	0.0027096348
104	0x3beaf0b0	0.0071698055
105	0x3c862888	0.016376749
106	0x3d5d79fb	0.054071408
107	0x3d738a2e	0.05945795
108	0x3cf364ec	0.02971121
109	0x3d4182ff	0.04724407
110	0xbd9c264e	-0.076244935
111	0xbcc44b63	-0.023961728
112	0x3c834d90	0.016028196
113	0x3d076ce4	0.03306283
114	0xbd8c874b	-0.068617426
115	0xbcb2bbdc	-0.021818094
116	0x3d314534	0.043278888
117	0xbd99700e	-0.07492076
118	0xbd65bf5f	-0.05609071
119	0xbb93d241	-0.004511148
120	0x3d5aa86f	0.053383287
121	0x3df1e7df	0.11811804
122	0xbd87d02f	-0.06631505
123	0xbc002ace	-0.007822705
124	0x3cc49d54	0.024000801
125	0xbc15e5dd	-0.009149042
126	0xbbe6816a	-0.0070344703
127	0xbc632962	-0.013864847
128	0xbc70530a	-0.014668236
129	0xbce4b695	-0.027919093
130	0x3db0ce13	0.086330555
131	0xbd44673d	-0.04795002
132	0xbd836467	-0.064156346
133	0x3db177c1	0.08665419
134	0xbbeb27dc	-0.0071763825
135	0x3d385338	0.04500124
136	0x3df45789	0.119307585
137	0x3d67da16	0.056604467
138	0xbd84aa91	-0.064778455
139	0x3d4da96c	0.0502104
140	0x3c87bec9	0.016570466
141	0x3dee390d	0.11631975
142	0x3dbb8f43	0.091581844
143	0xbc1de829	-0.009637871
144	0x3d8b5013	0.06802382
145	0x3d47fc2d	0.048824478
146	0xbca9ac97	-0.02071218
147	0x3d3de744	0.04636313
148	0x3da27eb2	0.079343215
149	0xbdac27d2	-0.084060326
150	0xbd842e5e	-0.06454156
151	0xbccf64e1	-0.025316657
152	0xbd0b28e2	-0.033974536
153	0x3c52facb	0.0128771765
154	0x3d8a6863	0.067581914
155	0x3d3d7dc1	0.046262506
156	0xbdc00a6a	-0.09376986
157	0x3d7bebda	0.061504222
158	0x3c0bb107	0.008526093
159	0xbcb39857	-0.021923227
160	0xbdd17903	-0.10228159
161	0xbccfcd7b	-0.025366535
162	0x3da1d348	0.07901627
163	0xbda3887f	-0.07985019
164	0x3dac0eb8	0.08401245
165	0x3c4e289e	0.012582926
166	0xbd2bd397	-0.041949835
167	0xbc9391b4	-0.018013813
168	0xbddace92	-0.106839314
169	0xbcc97b40	-0.024594903
170	0x3de1075c	0.10987732
171	0xbdab7ed1	-0.08373798
172	0xbd949309	-0.07254607
173	0xbd0fa25e	-0.035066955
174	0xbc5e278b	-0.0135592325
175	0x3c2d358e	0.01057185
176	0xbd9c924a	-0.0764509
177	0xbc208de1	-0.009799452
178	0x3da83d45	0.08214811
179	0xbd39d51b	-0.04536925
180	0xbd066318	-0.032809347
181	0x3d814709	0.06312377
182	0x3d171a5d	0.036890376
183	0xbb4d8038	-0.0031356942
184	0x3d486e1d	0.048933137
185	0xbcd5b701	-0.02608824
186	0xbd710643	-0.058843862
187	0x3cd9bf72	0.026580546
188	0xbd8e4bcc	-0.06948051
189	0x3dac0cc3	0.084008716
190	0xbd70b882	-0.05876971
191	0x3d217b56	0.039424263
192	0x3d084d45	0.033276815
193	0x3db99e95	0.0906345
194	0x3d58fe47	0.052976873
195	0xbda52f10	-0.08065617
196	0xbcf15bed	-0.029462779
197	0xbdd4a542	-0.10383083
198	0xbd6bf3d6	-0.057605587
199	0x3d9ad719	0.07560558
200	0xbdec25f3	-0.11530676
201	0xbda2c09a	-0.07946892
202	0xbd1d31fc	-0.038377747
203	0xbd0ab0b6	-0.03385993
204	0xbc2de51a	-0.010613704
205	0x3db48692	0.0881473
206	0xbdeb8eb3	-0.11501827
207	0x3c1d375a	0.009595716
208	0xbd5ec174	-0.05438371
209	0xbda01581	-0.078166015
210	0xbd3123b2	-0.043246932
211	0x3c4b1ae8	0.012396552
212	0xbd22c3d9	-0.039737556
213	0x3dda3fc2	0.10656692
214	0xbdbfbc44	-0.09362081
215	0xbdd1f3f6	-0.1025161
216	0x3d4770aa	0.04869143
217	0x3d53d305	0.051714916
218	0xbd781fcd	-0.060577203
219	0x3d06f8a8	0.03295198
220	0xbd2a5932	-0.04158897
221	0xbd6cdce9	-0.057827864
222	0x3d16988a	0.036766566
223	0x3ba9cafd	0.005181669
224	0x3d6f092f	0.058358368
225	0x3df04f26	0.11733846
226	0x3da07d85	0.07836441
227	0xbd42013e	-0.047364466
228	0x3d3748ca	0.04474715
229	0xbcac65d5	-0.021044651
230	0x3dc61d12	0.096735135
231	0xbce65abb	-0.028119436
232	0xbd7bddb1	-0.06149072
233	0x3da1eab4	0.07906094
234	0x3d478135	0.048707206
235	0x3d38a354	0.045077637
236	0x3dbf2342	0.09332897
237	0x3db41535	0.087931074
238	0xbd9fabc3	-0.07796433
239	0x3dcceeca	0.10006483
240	0x3d2ca888	0.04215291
241	0xbd47a8b0	-0.048744857
242	0xbd3d5ed2	-0.046233006
243	0xbd0117f5	-0.031516988
244	0x3d0a707c	0.03379868
245	0xbc4586fa	-0.012056107
246	0x3cc8fe99	0.024535464
247	0x3ca9689c	0.020679764
248	0xbd8b422f	-0.06799733
249	0x3d366cf2	0.044537492
250	0xbd4a6b0c	-0.049418494
251	0x3d171b73	0.036891412
252	0x3d4b8669	0.04968873
253	0x3cafd6a0	0.021464646
254	0x3d880161	0.06640888
255	0x3d5aa4a3	0.053379666

fc2.bias f4 [50]
0	0xbc2760f6	-0.010215988
1	0x3ded66a7	0.11591845
2	0x3d07279d	0.032996763
3	0x3d0a9082	0.03382922
4	0x3b85efcf	0.0040874253
5	0x3d93c4f7	0.072153024
6	0x3b792ba5	0.00380204
7	0x3d39d1f6	0.04536625
8	0xbd66d8e7	-0.056359198
9	0x3bea4fd6	0.0071506305
10	0x3c8318a5	0.016002962
11	0xbd8c5bcb	-0.068534456
12	0x39f5a217	0.00046850808
13	0x3d5d539c	0.054034814
14	0x3d0d1a22	0.03444875
15	0x3c9b1c9c	0.01893454
16	0x3d618626	0.055059575
17	0x3cec3771	0.02883503
18	0x3da343d2	0.0797192
19	0x3df4d832	0.119552985
20	0xbd1076d5	-0.035269577
21	0xbd301e64	-0.042997733
22	0x3dae0aff	0.08498191
23	0xbccf20d5	-0.02528421
24	0x3db8a37a	0.09015556
25	0x3d897fd3	0.06713834
26	0x3bdd98b0	0.0067625865
27	0x3c0769f1	0.0082650045
28	0x3c928736	0.01788674
29	0x3daf8b9f	0.085715525
30	0x3db18bfa	0.086692765
31	0x3d9f7783	0.07786467
32	0x3dcf07fe	0.10108946
33	0x3d71466d	0.058905054
34	0x3daad15b	0.08340713
35	0x3c9826ee	0.01857325
36	0xbd94d91b	-0.07267972
37	0xbd1ec424	-0.038761273
38	0xbda2aa5c	-0.0794265
39	0xbbfcd0c5	-0.007715317
40	0x3ddb736e	0.10715376
41	0xbcb466e1	-0.022021713
42	0x3d832a6c	0.06404576
43	0xbc97757f	-0.018488644
44	0x3d0901c3	0.033448946
45	0x3d51dbdd	0.05123507
46	0xbd4792cf	-0.048723992
47	0x3d835d6b	0.064143024
48	0xbbd59ba9	-0.0065188003
49	0x3dc2b7b2	0.09507693

fc3.weight f4 [4, 50]
0	0xbd5fa038	-0.054596156
1	0x3d9fc0d9	0.07800455
2	0x3e293541	0.16524221
3	0xbe15486b	-0.14578407
4	0xbd515c7f	-0.0511136
5	0xbd931b3c	-0.07182929
6	0x3d81e250	0.06341994
7	0xbd84323e	-0.064548954
8	0xbe126f27	-0.14300214
9	0xbdf80c50	-0.121117234
10	0xbbf83a20	-0.0075752884
11	0x3de22c67	0.11043625
12	0x3e0e7021	0.13909961
13	0x3df284d6	0.11841743
14	0x3d8dcbd3	0.06923642
15	0x3e271b34	0.16318971
16	0x3baf2674	0.00534516
17	0x3db393de	0.08768438
18	0x3e0aea7f	0.13566016
19	0x3cd88c37	0.026434047
20	0xbe014c1d	-0.12626691
21	0x3e2085a5	0.15675981
22	0x3e139f3a	0.14416209
23	0xbdde1433	-0.108436964
24	0xbe18063a	-0.14846125
25	0xbcea6aeb	-0.028615436
26	0xbd37f45e	-0.04491078
27	0x3c8724ee	0.016497102
28	0x3dee395b	0.116320334
29	0x3c248088	0.01004041
30	0x3e2889c0	0.16458797
31	0x3dec21b2	0.11529864
32	0xbe0b84c2	-0.13624862
33	0xbcace85d	-0.021106893
34	0xbe068726	-0.13137493
35	0x3d83ec2b	0.0644153
36	0xbcb0ffe0	-0.021606386
37	0xbdcb5420	-0.09928155
38	0xbd6f6ba2	-0.058452256
39	0xbe0c4f1b	-0.13702051
40	0xbe0e7d54	-0.13914996
41	0x3df2ea02	0.1186104
42	0x3d25330e	0.040331893
43	0x3bc74d99	0.0060822484
44	0x3a805b27	0.000979279
45	0xbd8849ad	-0.066546775
46	0xbd349b9a	-0.044093706
47	0x3dcd5095	0.100251354
48	0xbdce538f	-0.10074531
49	0x3d862bab	0.06551298
50	0x3cf8200f	0.030288724
51	0xbe1cc60f	-0.15309928
52	0x39fb6442	0.0004794915
53	0x3de2c080	0.11071873
54	0xbc92aca5	-0.017904589
55	0xbdc3d3f4	-0.09561911
56	0x3cdb5866	0.02677555
57	0x3ddf7382	0.10910703
58	0x3e143080	0.14471626
59	0xbd758553	-0.0599416
60	0x3c0c2b5a	0.008555258
61	0x3d0412ce	0.032244496
62	0xbdb4b3f5	-0.088233866
63	0x3bdda09c	0.006763531
64	0xbe0c1d49	-0.13683046
65	0x3df8d665	0.121502675
66	0x3cedef2e	0.029044714
67	0xbdd8d6c5	-0.10587839
68	0xbd561326	-0.052264355
69	0xbe0d1fba	-0.13781634
70	0xbaf8d28f	-0.001898365
71	0x3df8aad5	0.121419586
72	0x3de8940d	0.113563634
73	0xbdfbf65f	-0.12302851
74	0x3df77f7e	0.12084864
75	0x3dc94c60	0.098290205
76	0xbde2e146	-0.11078124
77	0xbbae81b9	-0.0053255227
78	0x3dff6d45	0.124720134
79	0xbdbda29b	-0.0925953
80	0x3da27595	0.07932583
81	0x3d636f4c	0.055526063
82	0xbe00daec	-0.12583512
83	0x3da4d1d3	0.08047833
84	0x3de5cc1a	0.1122057
85	0xbd9fa51a	-0.077951625
86	0xbdbd3e64	-0.09240416
87	0x3e1ff7ff	0.15621947
88	0x3dd81606	0.10551076
89	0xbd17c1d0	-0.03705007
90	0x3e12d1d3	0.14337854
91	0xbb7fbbe3	-0.0039021901
92	0x3e1b4d98	0.15166318
93	0x3b33a49a	0.0027411343
94	0xbe26ee62	-0.16301873
95	0x3d9148c6	0.070939586
96	0xbe1ce3a7	-0.15321217
97	0xbd43e733	-0.04782791
98	0x3d91c532	0.0711769
99	0x3e249f6a	0.16076437
100	0x3e05b684	0.13057905
101	0x3d4f59e2	0.05062283
102	0xbe042cb6	-0.12907681
103	0x3d2d175e	0.042258613
104	0xbe176a21	-0.14786579
105	0x3dab97be	0.08378552
106	0xbdbb939d	-0.091590144
107	0x3d8ae162	0.067812696
108	0xbe24fdca	-0.16112438
109	0x3d8d94e9	0.06913168
110	0x3b41a401	0.0029547217
111	0xbdfa8c06	-0.122337386
112	0xbb501d67	-0.0031755806
113	0xbd91b432	-0.07114448
114	0xbe1149d9	-0.14188327
115	0xbdcbf9da	-0.09959765
116	0x3d94db0e	0.07268344
117	0x3dadc91c	0.08485624
118	0x3e1709f6	0.14749894
119	0x3e0c3cbc	0.13695043
120	0x3e15d268	0.14631045
121	0xbe27cb87	-0.16386233
122	0xbdc4cdf3	-0.09609594
123	0xbd35a687	-0.044348266
124	0x3ded1409	0.11576087
125	0x3df2daa5	0.118581094
126	0xbd747240	-0.05967927
127	0x3e287a96	0.16453013
128	0x3dc03512	0.09385122
129	0xbe02db47	-0.1277896
130	0xbe031750	-0.12801862
131	0xbd8a2fea	-0.0674742
132	0xbd4a5b47	-0.049403455
133	0x3d09a6b5	0.03360625
134	0x3da18105	0.07885937
135	0xbd4cbde6	-0.04998579
136	0xbe25fbe2	-0.16209367
137	0xbddc827c	-0.107670754
138	0x3d59de25	0.05319037
139	0x3ca80ce1	0.020513954
140	0x3dda9d5f	0.106745474
141	0xbda80048	-0.08203179
142	0xbe0c42ff	-0.13697432
143	0xbdf4eb5e	-0.11958955
144	0x3e2abfd0	0.16674733
145	0xbdd69a54	-0.104786545
146	0x3e2a1fee	0.16613743
147	0xbde3761b	-0.11106511
148	0xbe1213c4	-0.14265352
149	0x3cd0925b	0.025460413
150	0x3bcbce51	0.006219663
151	0xbd04ad3e	-0.03239178
152	0xbda7581f	-0.08171105
153	0x3db0940a	0.08621986
154	0xbdae4d53	-0.08510842
155	0x3d76e8e8	0.06028071
156	0xbde5d4d7	-0.112222366
157	0x3e25e9bf	0.16202448
158	0xbc40c562	-0.01176581
159	0xbd61a52f	-0.055089172
160	0x3e1173b5	0.14204295
161	0x3dde59bc	0.10856959
162	0xbd20c711	-0.039252345
163	0xbdf82962	-0.12117268
164	0xbdf7a099	-0.120911784
165	0xbe11a9a4	-0.14224869
166	0xbd90bd5c	-0.070673674
167	0x3dc98857	0.09840458
168	0x3d2d632e	0.042330913
169	0xbe1535b6	-0.1457127
170	0x3d61ffdd	0.05517565
171	0xbd4a3083	-0.04936267
172	0xbde48c5f	-0.11159586
173	0x3d6ca750	0.05777675
174	0x3d2dc157	0.04242071
175	0xbe12bb25	-0.14329202
176	0x3e075dde	0.13219401
177	0x3deea89b	0.11653253
178	0xbdacd7ba	-0.08439584
179	0x3def083b	0.11671492
180	0xbe1db176	-0.15399727
181	0x3c34b0c5	0.011028473
182	0xbc8e3a68	-0.017361835
183	0x3dc4bdb3	0.09606495
184	0x3dc98f79	0.09841818
185	0x3d9b22a1	0.07574964
186	0x3e0e2d40	0.13884449
187	0x3dd42d0a	0.10360153
188	0xbd5630aa	-0.052292503
189	0xbd228ecf	-0.039686974
190	0xbc0f98cf	-0.00876446
191	0x3ddddff3	0.108337305
192	0x3d1c719c	0.038194284
193	0xbcab64a9	-0.020922022
194	0x3c0df2a6	0.008663809
195	0xbc348a5e	-0.011019317
196	0xbdd92c26	-0.10604124
197	0x3cd704b6	0.026247364
198	0x3d61b60c	0.055105254
199	0xbd8dd079	-0.06924529

fc3.bias f4 [4]
0	0xbe07b5e8	-0.13252985
1	0xbded9c22	-0.116020456
2	0xbc3c4fe8	-0.0114936605
3	0x3dee9cec	0.11651024
