models/trained_parameters.pth (torch, 94703 bytes, 6 tensors)

fc1.weight f4 [100, 178]
-0.00026669572 -0.028657855 0.029857712 0.0014466838 0.011387617 0.02478556 -0.049528074 -0.09880198
-0.016716707 -0.044015232 -0.0428103 0.054787196 -0.041634984 0.08212043 -0.016933857 0.060593776
0.04455951 0.013691761 0.07837113 -0.05887764 -0.007984661 -0.03549466 -0.007953551 0.0035664563
0.061275277 0.029525343 -0.03603314 -0.07377612 0.02272386 -0.024841312 -0.059490804 0.057685018
-0.044318296 0.03507328 -0.025245795 0.027081318 -0.07387602 0.052930683 0.0038350013 0.008785404
-0.028325118 -0.005584707 0.009216607 0.019303424 0.01296154 0.059103698 -0.044846117 0.04552028
-0.05742717 -0.060744464 -0.0044129174 -0.06056694 -0.07939581 -0.0295612 -0.04770229 -0.08449198
0.041428793 0.0477203 0.020341968 -0.007919523 -0.07046956 -0.073139 -0.07442431 -0.06034914
-0.082362555 0.046952333 0.054462314 -0.060816556 0.025550196 0.014150218 -0.045171488 -0.054712523
0.026955657 -0.075604185 0.042302947 -0.032809123 0.048603587 0.0030811857 -0.038382266 0.060011506
-0.016796282 0.015121099 -0.04596745 0.014714332 -0.041087076 -0.020464186 0.02916359 -0.03520775
0.0032287668 0.010949834 0.065123335 -0.041218147 -0.058355834 0.08303164 -0.008582369 -0.06355997
0.022134533 -0.004340772 -0.039678514 0.0012108119 -0.014650614 0.028767005 0.09850982 -0.015534029
0.0408425 0.033816505 0.0048431386 -0.089953944 -0.06476418 0.0485856 0.006581827 0.049050033
0.046733715 -0.012205443 0.031178461 0.018013172 0.004218706 -0.036815684 0.049322072 -0.017680828
-0.021235444 -0.04331274 -0.07402412 -0.029089432 -0.061755132 -0.055270355 -0.026482396 -0.0011844396
-0.06463537 0.056884907 -0.004729566 0.013870581 0.01744453 -0.01556791 0.0116472505 -0.0699617
-0.03549279 0.00036216446 -0.030827226 -0.011122436 -0.035086952 -0.081198625 -0.07012965 -0.013854783
0.02000897 -0.08705111 -0.008877616 -0.071655884 0.05025374 -0.008350225 0.06285325 0.0029228206
-0.008821359 -0.023593707 0.053025257 -0.05643906 -0.043837223 -0.08528374 0.029261792 0.013863351
-0.018527156 -0.024914687 0.040618166 0.033916898 -0.04137585 0.017239954 0.07783484 -0.07148071
0.036384404 0.018337699 -0.01440542 -0.013440795 -0.0027892222 0.030091744 -0.029380713 -0.016937867
0.008007288 0.04002213 -0.009304318 -0.029863475 -0.06399586 -0.02844639 -0.07060293 0.009534897
0.081652395 -0.029447531 0.03263303 0.008306939 -0.030990353 -0.06312438 0.028234873 0.014306175
0.035433885 -0.05811086 -0.02111735 -0.04545888 -0.02603192 0.0443213 -0.041293565 -0.034376685
-0.027444318 0.049011294 -0.06857573 -0.080628686 0.0071862126 -0.056473177 -0.030442087 0.015649773
0.023996834 -0.014270115 -0.04884809 0.020478146 -0.031921633 0.022622772 0.0015787715 -0.036725428
-0.08313228 -0.074748375 -0.012293184 -0.017706838 -0.047399327 -0.031280506 -0.06254609 -0.030389318
-0.08806693 -0.07836618 0.035653654 -0.035646394 -0.051519755 -0.041719247 -0.06684967 -0.004476453
-0.041179463 -0.034231685 -0.010505262 -0.056264244 -0.020385908 0.019909715 0.004297773 0.017370386
-0.058166124 0.052398324 -0.03737133 -0.0030456656 0.012654098 -0.0128874285 -0.09270453 -0.074108265
0.020661049 -0.043251637 0.008262335 -0.045387708 -0.05294602 -0.006948241 0.057902623 -0.06980548
00000000: 4bd3 8bb9 e1c3 eabc 2998 f43c a79e bd3a
00000010: 2193 3a3c 160b cb3c f3dd 4abd b158 cabd
00000020: 7af1 88bc 5149 34bd da59 2fbd 8a68 603d
00000030: 7289 2abd c22e a83d dfb8 8abc 2e31 783d
00000040: 0884 363d 6853 603c 0b81 a03d ae29 71bd
00000050: 18d2 02bc d962 11bd 9c4f 02bc 35bb 693b
00000060: c9fb 7a3d 22df f13c 7c97 13bd ef17 97bd
00000070: 6327 ba3c 0280 cbbc a1ac 73bd 2047 6c3d
00000080: 1a87 35bd 00a9 0f3d 45d0 cebc a4d9 dd3c
00000090: 504c 97bd d8cd 583d a554 7b3b a8f0 0f3c
000000a0: 140a e8bc ebff b6bb 4001 173c 3722 9e3c
000000b0: a45c 543c b816 723d 90b0 37bd 7973 3a3d
000000c0: c138 6bbd 30cf 78bd 3c9a 90bb 0a15 78bd
000000d0: 459a a2bd 542a f2bc 7a63 43bd 220a adbd
000000e0: 3db1 293d 5c76 433d 33a4 a63c e3c0 01bc
000000f0: 5852 90bd e6c9 95bd c66b 98bd a930 77bd
00000100: b3ad a8bd 1751 403d e013 5f3d c81a 79bd
00000110: a54e d13c 51d6 673c bd05 39bd 3d1a 60bd
00000120: 1cd2 dc3c 5ed6 9abd db45 2d3d dc62 06bd
00000130: 8e14 473d b8ed 493b b936 1dbd a0ce 753d
00000140: 5b98 89bc 7cbe 773c 5d48 3cbd 6214 713c
00000150: ec4a 28bd 82a4 a7bc 7be8 ee3c 0036 10bd
00000160: b899 533b ef66 333c 625f 853d 5cd4 28bd
00000170: 8706 6fbd 7e0c aa3d 119d 0cbc bb2b 82bd
00000180: 7b53 b53c 093d 8ebb f085 22bd 1bb4 9e3a
00000190: 2109 70bc c8a8 eb3c 84bf c93d 7182 7ebc
000001a0: 774a 273d 2d83 0a3d 31b3 9e3b c639 b8bd
000001b0: 15a3 84bd b201 473d 5eac d73b b0e8 483d
000001c0: da6b 3f3d 57f9 47bc f969 ff3c 5c90 933c
000001d0: 123d 8a3b 0bcc 16bd f105 4a3d 62d7 90bc
000001e0: f4f5 adbc b368 31bd f599 97bd f64c eebc
000001f0: f3f2 7cbd 2b63 62bd 9cf1 d8bc 333f 9bba
00000200: 8d5f 84bd 2600 693d 7afa 9abb 6f41 633c
00000210: d5e7 8e3c 8c10 7fbc 1cd4 3e3c 1448 8fbd
00000220: e360 11bd e4e0 bd39 6189 fcbc e13a 36bc
00000230: 56b7 0fbd 774b a6bd 22a0 8fbd 2cff 62bc
00000240: dae9 a33c da47 b2bd 6c73 11bc 52c0 92bd
00000250: ded6 4d3d 62cf 08bc 34b9 803d cb8c 3f3b
00000260: 7687 10bc 9747 c1bc 0331 593d a52c 67bd
00000270: a98e 33bd 3ea9 aebd 6db6 ef3c 1c23 633c
00000280: 43c6 97bc e319 ccbc 3c5f 263d 72ec 0a3d
00000290: b979 29bd ce3a 8d3c df67 9f3d 7a64 92bd
000002a0: d007 153d f138 963c b604 6cbc c836 5cbc
000002b0: 62cb 36bb f682 f63c d2af f0bc 48c1 8abc
000002c0: 0031 033c 3fee 233d 2371 18bc 3fa4 f4bc
000002d0: 4310 83bd 6708 e9bc 4598 90bd 4238 1c3c
000002e0: 5f39 a73d f33b f1bc 36aa 053d d419 083c
000002f0: 7bdf fdbc 5b47 81bd d24c e73c 7264 6a3c
00000300: 1f23 113d a705 6ebd 4bfe acbc 1733 3abd
00000310: e540 d5bc 408a 353d 7123 29bd 91ce 0cbd
00000320: e8d2 e0bc 11c0 483d 6f71 8cbd a720 a5bd
00000330: 527a eb3b 6b50 67bd af61 f9bc f433 803c
00000340: 0295 c43c 33cd 69bc ef14 48bd c9c1 a73c
00000350: 42c0 02bd 6453 b93c c8ee ce3a 676d 16bd
00000360: 4241 aabd ad15 99bd 5a69 49bc ee0d 91bc
00000370: cc25 42bd fd1f 00bd 2a18 80bd 05f3 f8bc
00000380: 6f5c b4bd 737e a0bd 9109 123d f401 12bd
00000390: 6106 53bd cde1 2abd 7be8 88bd 36af 92bb
000003a0: ccab 28bd 8636 0cbd 431e 2cbc 5675 66bd
000003b0: 5900 a7bc b319 a33c 55d4 8c3b 574c 8e3c
000003c0: 9a3f 6ebd a09f 563d ae12 19bd ca99 47bb
000003d0: 2253 4f3c cb25 53bc dfdb bdbd 13c6 97bd
000003e0: 5c41 a93c a128 31bd bf5e 073c 76e8 39bd
000003f0: eddd 58bd 12ae e3bb 4d2b 6d3d 2df6 8ebd

fc1.bias f4 [100]
0.07604934 0.043867648 -0.03186121 0.024838125 0.06688839 0.0015330614 0.03975661 0.020181509
-0.011487818 -0.005223543 0.075052634 0.00032896837 0.050702147 0.06765426 0.068457745 -0.0017920834
-0.031398933 -0.06914352 0.008680387 0.037454598 0.03360159 0.035355 -0.048884463 0.075769514
0.046391588 0.016645364 0.060784142 0.008402158 0.047554657 -0.039844353 0.06144534 -0.04607262
-0.032123365 -0.051868387 -0.03651453 0.034799214 0.011428617 -0.032888032 0.07441345 0.029699447
-0.027771516 -0.0036173994 0.0010630934 -0.066786684 0.09282792 -0.05493039 0.06786281 -0.023924205
0.01797658 -0.0555268 0.0063141533 0.064611875 0.024111137 0.046626516 0.08428129 -0.0073765754
0.0108163105 -0.024694312 -0.023092467 -0.047783386 -0.050171006 -0.003080428 0.058897324 0.07040764
0.03471197 0.008990405 0.005653345 0.06779951 0.062160347 0.0023957954 0.045921367 0.075755015
0.043030456 -0.029783832 0.032238737 -0.042389765 0.03133817 -0.023947129 0.0066655395 0.049407255
0.009720464 -0.029165106 0.053206123 0.013655276 0.031531163 0.09540085 0.069851235 0.004621804
-0.058574192 0.038570985 -0.015596373 0.016171455 0.021815756 -0.037427537 0.014047144 0.00427436
0.050497867 0.00039347183 0.030333577 -0.06173089
00000000: c2bf 9b3d 90ae 333d e680 02bd 5379 cb3c
00000010: c8fc 883d 01f1 c83a d4d7 223d b153 a53c
00000020: 6737 3cbc 412a abbb 32b5 993d 6379 ac39
00000030: 0ead 4f3d 518e 8a3d 9333 8c3d 57e4 eaba
00000040: 2b9c 00bd 1e9b 8dbd 2f38 0e3c fe69 193d
00000050: d2a1 093d 68d0 103d 133b 48bd 0c2d 9b3d
00000060: 1b05 3e3d dc5b 883c cbf8 783d 34a9 093c
00000070: acc8 423d d533 23bd 1cae 7b3d a5b6 3cbd
00000080: ca93 03bd f273 54bd 4390 15bd 9f89 0e3d
00000090: 183f 3b3c 9ab5 06bd 1466 983d 414c f33c
000000a0: 1781 e3bc e411 6dbb 7f57 8b3a 75c7 88bd
000000b0: 911c be3d b0fe 60bd a8fb 8a3d b2fc c3bc
000000c0: 9f43 933c 1270 63bd f5e6 ce3b 3b53 843d
000000d0: b884 c53c 72fb 3e3d ab9b ac3d 33b7 f1bb
000000e0: e536 313c ba4b cabc 6a2c bdbc 83b8 43bd
000000f0: 1d80 4dbd 02e1 49bb 523e 713d e131 903d
00000100: 232e 0e3d 7e4c 133c b23f b93b 78da 8a3d
00000110: d99b 7e3d c702 1d3b 0b18 3c3d 7225 9b3d
00000120: b440 303d 39fd f3bc c40c 043d e4a0 2dbd
00000130: 745c 003d c52c c4bc 996a da3b 435f 4a3d
00000140: 9542 1f3c a9eb eebc aaee 593d 61ba 5f3c
00000150: d226 013d 8561 c33d 2a0e 8f3d 8172 973b
00000160: 7eeb 6fbd 9cfc 1d3d ee87 7fbc 007a 843c
00000170: f5b6 b23c 9e4d 19bd fe25 663c ee0f 8c3b
00000180: dad6 4e3d e54a ce39 1f7e f83c 88d9 7cbd

fc2.weight f4 [50, 100]
-0.0901319 -0.028776083 0.044903927 -0.07633662 -0.048376396 0.10469949 -0.04784899 0.007622931
-0.060068555 0.06177375 0.024230877 0.07787671 0.02288818 0.11818767 -0.058469214 -0.08378593
0.03926252 -0.07123742 -0.026484108 0.0016059267 0.048956044 -0.022590248 -0.00077802094 0.09304136
0.0076958197 0.022847543 0.030091079 0.026976038 0.011894455 0.11227739 0.06124504 -0.03131726
-0.09380984 0.07719698 0.06957974 0.100720696 0.022766942 0.11884343 0.04919604 0.07723478
-0.00480929 -0.103481755 -0.053002845 -0.08444132 -0.013832242 -0.059370004 0.02529645 -0.037859347
-0.051153116 -0.038774572 0.105581775 -0.040242378 0.086337216 0.066748776 -0.007653589 0.0060702018
0.11210189 0.058521934 0.009104289 0.09317036 0.10171683 0.08384839 -0.093480095 -0.04464955
-0.0018664319 0.06219527 -0.06543244 0.11131072 0.005010545 -0.028541375 0.09353047 0.020744266
0.09309266 -0.032819975 0.060585182 0.015801162 0.04365247 0.118726686 0.071054436 0.007382561
-0.083844185 -0.018349586 -0.096368894 0.057509776 -0.02802309 -0.046520986 -0.09692072 0.09704184
0.11304169 0.024364369 0.09322534 -0.013921846 -0.02000596 -0.05041677 -0.07970928 0.033675652
0.029881487 -0.03480186 -0.015552601 0.09233138 -0.0132523 -0.08853612 -0.02608603 0.0038496703
0.0013791479 0.0021325243 -0.0776283 0.0012017011 0.096997954 0.005134275 -0.043431345 -0.039662663
0.07278852 0.03444232 0.0009693789 -0.041512165 0.11261989 -0.055140585 -0.035417106 -0.026923804
0.03796917 -0.013873653 -0.038769737 -0.07209602 0.116588645 0.103508934 -0.02396508 0.11190929
0.07882126 -0.038633946 -0.06701222 0.05317258 0.093846515 0.08870798 -0.048638485 -0.02450322
0.019182833 0.018150728 -0.030545646 -0.11935219 0.051379498 0.08140022 0.08470858 -0.04273949
0.119579956 0.06580667 0.048353016 0.09675239 -0.032832153 -0.07186451 -0.017159892 -0.018640202
0.076645985 -0.0037261564 -0.06370691 0.04716291 -0.08718725 -0.06464541 0.10899809 -0.009601602
0.118819416 0.039200246 -0.0061835805 -0.07992259 0.07926353 -0.020831866 -0.05153952 0.12156938
0.06352429 0.09380749 -0.092065744 -0.07210776 0.069958925 0.013719619 -0.031793647 0.078312196
-0.04730585 -0.00014871344 0.0049627163 0.0011507425 0.11514477 -0.041136183 -0.006330004 0.0731373
-0.0007338553 -0.093942285 -0.034500547 -0.081894465 0.07826719 -0.002527014 0.12512392 -0.09726616
-0.02974771 0.06815749 -0.00523038 0.07810006 0.11053124 -0.06930352 0.1080981 -0.040682178
0.0078183245 -0.062453043 -0.034934096 -0.053618815 -0.09103029 -0.029883537 0.006840949 -0.04099797
-0.052682523 0.044928573 0.08686849 0.006897326 0.078709975 0.07902771 -0.090698905 0.021223344
0.0013485878 -0.041328073 -0.018369837 -0.006695518 0.044925716 -0.09095866 0.05461849 0.08565434
0.107091695 -0.06460999 -0.02433638 0.103298604 0.07289096 -0.044559833 0.07161371 -0.05091394
-0.019120473 -0.07033576 0.013673716 -0.08838662 0.042212103 0.097135335 0.037418157 -0.08392611
-0.001527276 0.09007591 0.1182078 -0.07041315 0.0061425166 -0.04438758 0.037644416 -0.045159295
0.07519489 0.011594298 0.040651314 0.032740224 0.017418701 0.002874639 0.1065879 0.10670941
00000000: 1397 b8bd d2bb ebbc 2eed 373d 6056 9cbd
00000010: 5426 46bd b06c d63d 4dfd 43bd c8c9 f93b
00000020: 720a 76bd 7906 7d3d d57f c63c d37d 9f3d
00000030: fe7f bb3c 610c f23d 6a7d 6fbd f597 abbd
00000040: bcd1 203d ede4 91bd 33f5 d8bc f57d d23a
00000050: 2286 483d 2f0f b9bc 1af4 4bba 788c be3d
00000060: 372d fc3b c52a bb3c 9181 f63c dafc dc3c
00000070: f6e0 423c b0f1 e53d 14dc 7a3d 8746 00bd
00000080: 601f c0bd 7319 9e3d d37f 8e3d a746 ce3d
00000090: bd81 ba3c 2f64 f33d c981 493d 452d 9e3d
000000a0: 4097 9dbb 3eee d3bd 8319 59bd 92ef acbd
000000b0: a1a0 62bc f62d 73bd 803a cf3c 6712 1bbd
000000c0: ee85 51bd 16d2 1ebd 423b d83d 31d5 24bd
000000d0: 91d1 b03d 95b3 883d f5ca fabb 8be8 c63b
000000e0: ad95 e53d b2b4 6f3d 282a 153c 1ad0 be3d
000000f0: ea50 d03d b4b8 ab3d 7e72 bfbd 72e2 36bd
00000100: 10a3 f4ba 78c0 7e3d 7101 86bd e0f6 e33d
00000110: 7f2f a43b 9acf e9bc e78c bf3d e1ef a93c
00000120: 5da7 be3d 3d6e 06bd 2b28 783d 7071 813c
00000130: efcc 323d fa26 f33d fd84 913d 69e9 f13b
00000140: 80b6 abbd df51 96bc 0e5d c5bd 5f8f 6b3d
00000150: ae90 e5bc ca8c 3ebd 5f7e c6bd dfbd c63d
00000160: 6782 e73d c997 c73c edec be3d 7418 64bc
00000170: 8ae3 a3bc d181 4ebd 9e3e a3bd 7bef 093d
00000180: 05ca f43c 658c 0ebd 56d0 7ebc 3c18 bd3d
00000190: 2d20 59bc 6d52 b5bd 5fb2 d5bc c04a 7c3b
000001a0: 86c4 b43a d2c1 0b3b 96fb 9ebd 6682 9d3a
000001b0: dda6 c63d 6c3d a83b 11e5 31bd 5175 22bd
000001c0: 2612 953d 6413 0d3d eb1d 7e3a a908 2abd
000001d0: 42a5 e63d 18db 61bd 8711 11bd 4f8f dcbc
000001e0: 8f85 1b3d 514e 63bc 04cd 1ebd 14a7 93bd
000001f0: 07c6 ee3d 7efc d33d 6a52 c4bc b330 e53d
00000200: 0a6d a13d a13e 1ebd b43d 89bd 7ecb 593d
00000210: 9a32 c03d 88ac b53d 2639 47bd faba c8bc
00000220: 5125 9d3c d6b0 943c dd3a fabc ec6e f4bd
00000230: 4f73 523d 29b5 a63d b17b ad3d 9a0f 2fbd
00000240: 56e6 f43d a6c5 863d d00d 463d 1e26 c63d
00000250: 027b 06bd b32d 93bd e792 8cbc 56b3 98bc
00000260: 92f8 9c3d 8832 74bb c578 82bd e52d 413d
00000270: 3b8f b2bd d064 84bd 643a df3d 0a50 1dbc
00000280: 9857 f33d 7090 203d a29f cabb 74ae a3bd
00000290: eb54 a23d 97a7 aabc 1b1b 53bd 5ef9 f83d
000002a0: 0619 823d 241e c03d f78c bcbd 3cad 93bd
000002b0: a046 8f3d 41c8 603c 0e3a 02bd 2562 a03d
000002c0: c7c3 41bd f6ef 1bb9 489e a23b 83d4 963a
000002d0: 05d1 eb3d 6a7e 28bd ec6b cfbb 02c9 953d
000002e0: 3260 40ba d064 c0bd 7250 0dbd 49b8 a7bd
000002f0: 8c4a a03d 429c 25bb 7c20 003e 7b33 c7bd
00000300: 78b1 f3bc 2796 8b3d 9c63 abbb edf2 9f3d
00000310: 345e e23d 01ef 8dbd 8962 dd3d 5ba2 26bd
00000320: 6e18 003c c3ce 7fbd 0e17 0fbd 679f 5bbd
00000330: 176e babd 52ce f4bc 0a2a e03b 7ded 27bd
00000340: a1c9 57bd 0607 383d 1be8 b13d f702 e23b
00000350: b232 a13d 48d9 a13d 59c0 b9bd 94dc ad3c
00000360: 19c3 b03a a047 29bd 577c 96bc 1366 dbbb
00000370: 0704 383d 8948 babd a3b7 5f3d 8b6b af3d
00000380: e452 db3d 3e52 84bd 175d c7bc 388e d33d
00000390: db47 953d 5f84 36bd 35aa 923d 238b 50bd
000003a0: 8aa2 9cbc 320c 90bd b907 603c 0b04 b5bd
000003b0: 99e6 2c3d e4ee c63d c843 193d 74e1 abbd
000003c0: e12e c8ba b879 b83d ee16 f23d c534 90bd
000003d0: 2a47 c93b c0cf 35bd 0831 1a3d f4f8 38bd
000003e0: c7ff 993d 03f6 3d3c fe81 263d 9d1a 063d
000003f0: aab1 8e3c 7064 3c3b c24a da3d 778a da3d

fc2.bias f4 [50]
0.08164553 0.05732143 -0.095499925 0.05660329 -0.016858071 0.029558225 -0.07219103 0.06712124
0.10918142 -0.025030382 0.11448448 0.07254111 0.08428878 0.10698637 0.06868038 0.053197414
0.10589906 -0.00954367 0.078966714 -0.0016015334 -0.037295774 0.115531474 0.034006603 -0.02368848
-0.07329965 -0.0010355023 0.0035050407 0.046510264 -0.060151663 0.11928269 -0.0044073802 -0.09365141
-0.021179855 0.022508767 0.034357283 0.112013936 -0.0815501 -0.0635844 0.032205738 -0.010261799
0.097305626 0.013078875 0.065369286 -0.07381895 0.0690358 -0.07763294 -0.028597053 0.025374217
-0.093782514 -0.07999444
00000000: c635 a73d e0c9 6a3d 7795 c3bd dad8 673d
00000010: f019 8abc 1724 f23c e4d8 93bd dc76 893d
00000020: 829a df3d 840c cdbc d776 ea3d 6f90 943d
00000030: 999f ac3d ac1b db3d 4da8 8c3d 88e5 593d
00000040: 9be1 d83d 0e5d 1cbc 4db9 a13d 8bea d1ba
00000050: 74c3 18bd c49b ec3d 824a 0b3d 580e c2bc
00000060: 201e 96bd b1b9 87ba d3b4 653b 8c81 3e3d
00000070: 9761 76bd 7c4a f43d c96b 90bb 4fcc bfbd
00000080: 6081 adbc 4e64 b83c 39ba 0c3d 9067 e53d
00000090: bd03 a7bd 8a38 82bd 2aea 033d 1b21 28bc
000000a0: 2c48 c73d c748 563c 55e0 853d 642e 97bd
000000b0: a462 8d3d 05fe 9ebd 5e44 eabc 97dd cf3c
000000c0: 0c11 c0bd 20d4 a3bd

fc3.weight f4 [4, 50]
0.031859033 -0.15803616 -0.133615 0.11211577 -0.13841896 0.13373336 -0.08697315 -0.101753615
-0.07895407 0.00084471586 0.08458964 0.019102424 -0.056990534 -0.15765128 0.003789453 -0.09497682
-0.083019376 -0.072937414 -0.10448425 -0.11271236 -0.16686252 0.1003648 -0.1458896 -0.03187476
-0.08493353 0.09763584 -0.15487294 -0.0035990824 -0.07357307 -0.05286542 -0.16120426 0.050420538
-0.08342146 0.09454503 -0.10742006 -0.03826461 -0.12985466 0.11245817 0.08210997 -0.101609
-0.12423232 0.10586015 -0.121568814 0.109727204 -0.03933574 -0.0051496318 -0.035880942 0.025634388
0.11792635 0.10726343 0.02472612 0.026518501 0.02921859 0.12303331 0.042177323 0.017104274
0.13986285 0.12497899 -0.016047407 0.004352006 -0.16946481 -0.1617395 0.019630801 0.07373845
0.12775649 0.069805816 -0.1063127 -0.13290738 -0.06203269 0.015208107 0.08284124 -0.09344271
-0.10060485 0.15008968 0.1617295 -0.11426058 0.01762557 0.124614626 -0.101143464 -0.08725013
-0.11295059 -0.11263328 -0.071325235 -0.035282277 -0.14567457 -0.14711297 -0.024171522 0.09271695
-0.0842827 0.008904497 -0.054951508 0.102185294 0.015489868 -0.003210589 0.16567816 -0.11572405
0.106562644 0.09900162 -0.1312145 -0.0033278875 -0.03544361 0.10176663 0.045909017 -0.10008261
0.01946817 0.04808843 -0.042374913 0.02998225 0.05869366 0.11977774 -0.12397937 0.0065773707
0.09965975 -0.13258149 0.0033891355 -0.12204134 0.101200506 0.16041978 0.14537042 0.07093818
-0.08336577 -0.099771135 -0.023567589 0.05446372 -0.036918145 0.007456808 0.065325 0.13047725
0.048579723 -0.15864982 0.11633536 -0.024256814 -0.029368436 -0.003528668 0.11610221 0.0120393755
-0.025063172 0.04114964 -0.059748515 0.16676411 0.07026972 -0.051412247 -0.09961316 -0.07992888
-0.11783163 0.056326512 -0.075465046 -0.09616798 0.10612826 -0.11525844 -0.09122761 -0.017866272
-0.0877105 -0.16701533 -0.09096845 -0.008030045 -0.088961475 -0.052559745 0.08709405 0.021561846
0.1290388 0.029015532 0.08825842 -0.029971696 -0.15294833 -0.16464218 -0.114790514 -0.120994456
0.06264741 0.09363049 -0.041635938 -0.08331956 0.09600469 0.12184762 0.06463217 0.120822184
-0.018015703 -0.15949894 -0.017163679 -0.13496435 -0.12589124 -0.13750306 0.060447305 0.16571513
-0.078150034 0.0871801 0.010194413 0.10924067 0.06561846 0.031268872 0.040317476 0.08317755
0.116238825 -0.120222956 0.15254633 0.0036025292 -0.031144615 0.038145225 -0.14603406 -0.15576959
00000000: 9e7e 023d 3bd4 21be 5fd2 08be f49c e53d
00000010: b3bd 0dbe 66f1 083e fb1e b2bd 3364 d0bd
00000020: acb2 a1bd ec6f 5d3a 553d ad3d b07c 9c3c
00000030: e86e 69bd 566f 21be 7958 783b 3583 c2bd
00000040: 1006 aabd 3660 95bd d7fb d5bd bdd5 e6bd
00000050: 02de 2abe 0f8c cd3d 1564 15be 1c8f 02bd
00000060: a1f1 adbd 4df5 c73d 0397 1ebe 95de 6bbb
00000070: 7aad 96bd 6989 58bd bb12 25be c485 4e3d
00000080: dfd8 aabd d3a0 c13d 0cff dbbd 5abb 1cbd
00000090: 9ff8 04be 7850 e63d 4629 a83d 6118 d0bd
000000a0: 846d febd 35cd d83d 12f9 f8bd a8b8 e03d
000000b0: 831e 21bd 3ebe a8bb e5f7 12bd 35ff d13c
000000c0: 5f83 f13d eeac db3d 6f8e ca3c 543d d93c
000000d0: d35b ef3c e3f8 fb3d 21c2 2c3d 431e 8c3c
000000e0: 3538 0f3e fcf4 ff3d da75 83bc 469b 8e3b
000000f0: 2f88 2dbe 0a9f 25be c6d0 a03c 2f04 973d
00000100: 99d2 023e 5af6 8e3d 79ba d9bd df18 08be
00000110: fd15 7ebd 6d2b 793c aba8 a93d e45e bfbd
00000120: ea09 cebd 1cb1 193e 6b9c 253e 7301 eabd
00000130: 8063 903c f435 ff3d 4e24 cfbd 32b0 b2bd
00000140: a452 e7bd 47ac e6bd f712 92bd 2684 10bd
00000150: b72b 15be c8a4 16be 5b03 c6bc 62e2 bd3d
00000160: 699c acbd 2be4 113c d514 61bd 8646 d13d
00000170: 37c9 7d3c bf68 52bb 89a7 293e bb00 edbd
00000180: 843d da3d 5dc1 ca3d 185d 06be b018 5abb
00000190: 522d 11bd 066b d03d 180b 3c3d 1df8 ccbd
000001a0: b67b 9f3c 60f8 443d 5191 2dbd 569d f53c
000001b0: c368 703d 084e f53d e5e8 fdbd fc86 d73b
000001c0: 691a cc3d 71c3 07be 421c 5e3b cff0 f9bd
000001d0: 3642 cf3d 1545 243e fcdb 143e 0948 913d
000001e0: acbb aabd cf54 ccbd d110 c1bc 5a15 5f3d
000001f0: 7b37 17bd 3d58 f43b 1dc9 853d d49b 053e
00000200: 88fb 463d 1975 22be 3c41 ee3d 3ab6 c6bc
00000210: 1396 f0bc 3a41 67bb ffc6 ed3d cd40 453c
00000220: 4851 cdbc 868c 283d dcba 74bd 36c4 2a3e
00000230: 92e9 8f3d a695 52bd fc01 ccbd c1b1 a3bd
00000240: b651 f1bd a1b6 663d 6b8d 9abd b8f3 c4bd
00000250: c659 d93d 9e0c ecbd 8bd5 babd 4a5c 92bc
00000260: 90a1 b3bd 1106 2bbe ab4d babd 7390 03bc
00000270: 6f31 b6bd e348 57bd 5e5e b23d 78a2 b03c
00000280: bf22 043e fbb1 ed3c d5c0 b43d 3487 f5bc
00000290: 7d9e 1cbe f697 28be 4a17 ebbd f1cb f7bd
000002a0: 494d 803d 58c1 bf3d 728a 2abd 72a3 aabd
000002b0: 1b9e c43d 3f8b f93d df5d 843d 9f71 f73d
000002c0: ab95 93bc b153 23be d89a 8cbc 1834 0abe
000002d0: a2e9 00be 9acd 0cbe 9897 773d 3ab1 293e
000002e0: 200d a0bd 7b8b b23d 7806 273c 93b9 df3d
000002f0: f962 863d ca13 003d f023 253d fe58 aa3d
00000300: 9f0e ee3d 7437 f6bd 1b35 1c3e 6918 6c3b
00000310: fe22 ffbc 2b3e 1c3d f489 15be 1082 1fbe

fc3.bias f4 [4]
0.14426371 -0.14180839 -0.06701959 0.07134422
00000000: deb9 133e 3836 11be 9141 89bd eb1c 923d
