models/trained_parameters.pth (torch, 94703 bytes, 6 tensors)

fc1.weight f4 [100, 178]
-0.06524214 -0.07821689 0.030765327 -0.022186007 0.0711518 -0.0067580556 0.010382424 0.0071775448
0.010803775 0.08398695 0.03688987 0.06434481 0.08735545 0.024857042 0.0002756346 0.036675904
-0.051755507 0.014816485 -0.02884218 -0.07220945 -0.0789769 -0.010279188 0.003100295 -0.015609377
-0.017444177 -0.019581744 -0.073117666 0.05935851 -0.011457551 0.024425684 -0.0020901118 -0.0039518387
0.0012567176 -0.0021339178 -0.0017241304 -0.072174765 0.05423189 -0.081194796 -0.08435649 0.062409
-0.077886924 0.012101904 -0.016236741 0.020846872 -0.06736592 0.010541715 -0.039127573 0.0037735226
0.02954554 0.048050437 -0.0065435697 -0.021890633 0.015897911 0.00295224 0.02115267 0.03019545
-0.025941132 -0.048939783 0.04090439 0.026500376 0.025681963 0.0057985964 0.03586882 0.062808245
-0.04562929 0.037500825 -0.065226294 0.006162669 -0.00065862446 -0.056618042 -0.014966747 -0.060638484
-0.06038946 0.06151032 0.06612956 0.0012534923 0.051294733 -0.041375507 0.025696581 -0.055073716
0.07560777 0.038202077 -0.013628879 0.026467327 0.075704 0.08446156 0.0920327 -0.04125008
-0.006515888 -0.015471943 0.005027668 0.0069234306 -0.007257455 0.022129407 -0.024386186 -0.03180196
-0.02273292 0.045855068 0.06737779 0.09609516 -0.0004741678 -0.03673718 0.0051072626 0.07021398
0.08676708 -0.042180713 0.09095129 -0.073769785 -0.028876236 0.023802523 0.03871049 -0.03240285
0.0052643092 -0.06123833 -0.03215732 0.0814496 0.04786615 0.0645791 0.01561184 0.022293577
0.046536427 0.04376236 -0.06582634 -0.08826437 -0.00532136 -0.055138357 -0.0044076024 0.0008871623
-0.061681513 0.026145142 -0.0263292 0.004283507 -0.0002759534 -0.034065068 0.036203187 0.05069672
-0.07877976 -0.026114382 0.08160737 0.005277725 -0.029806798 -0.08687981 -0.059647866 0.063725255
-0.07648457 -0.013485835 0.035360795 -0.048975423 0.04625876 -0.06112303 -0.026090376 -0.03035036
0.032987304 -0.06953385 0.017773911 -0.061328944 -0.05663943 -0.09850852 -0.08764185 0.037214953
-0.018932626 0.028801192 0.01369199 0.05223634 -0.0502415 0.070596725 0.019252777 -0.004262642
-0.041906226 -0.044359967 -0.09566802 -0.04295018 0.056233983 0.07904694 -0.012403767 -0.014977323
-0.012125619 0.069627434 0.014805174 -0.01738159 0.062393848 -0.0378642 -0.042902105 0.022855524
0.02086455 0.06300774 -0.013090281 0.008409526 -0.051438082 -0.047915913 -0.052279536 0.008402515
-0.014827249 -0.04757659 -0.003309281 0.04233124 -0.03002361 0.06095157 0.034876242 0.030736435
0.082011074 0.008957613 0.02472215 0.0075529744 0.015690403 0.07900944 -0.05609397 0.031591594
-0.027043609 0.05932106 0.08138229 0.044559572 0.0476203 -0.031981785 0.08812064 0.09073969
0.04862364 0.09186867 -0.04470748 0.03297661 -0.05278939 0.066511646 -0.05377503 0.06153463
0.05682233 0.011820926 0.049551748 0.08976586 -0.0026912899 -0.028776143 0.022330975 -0.008090263
0.042503167 -0.052645646 -0.036815424 0.08442238 0.08807283 0.0153790815 0.06666208 -0.0037228381
0.084162444 -0.037110128 0.04542243 0.016381832 -0.055411894 0.0425361 0.0057882583 0.057331067
0.07968744 -0.06385486 -0.06433258 0.030865386 0.072705954 0.017860562 -0.073533304 0.07116158
00000000: ac9d 85bd 2d30 a0bd 9107 fc3c 6ebf b5bc
00000010: 09b8 913d ae72 ddbb 0b1b 2a3c 9c31 eb3b
00000020: 5102 313c 5a01 ac3d d519 173d 36c7 833d
00000030: 6ae7 b23d ffa0 cb3c 0d83 9039 7939 163d
00000040: 95fd 53bd d8c0 723c 6f46 ecbc 8ce2 93bd
00000050: a4be a1bd 0a6a 28bc 522e 4b3b 79be 7fbc
00000060: 17e7 8ebc e569 a0bc b7be 95bd e921 733d
00000070: 74b8 3bbc 5f18 c83c 42fa 08bb 6d7e 81bb
00000080: 72b8 a43a 33d9 0bbb 37fc e1ba 5dd0 93bd
00000090: 4222 5e3d 7549 a6bd 18c3 acbd 94a0 7f3d
000000a0: 2e83 9fbd 1047 463c ea02 85bc 0fc7 aa3c
000000b0: 25f7 89bd 28b7 2c3c 3c44 20bd 344d 773b
000000c0: 7d09 f23c 89d0 443d 716b d6bb fc53 b3bc
000000d0: 563c 823c 5e7a 413b 5d48 ad3c 735c f73c
000000e0: 7f82 d4bc 1575 48bd 5d8b 273d 5117 d93c
000000f0: fb62 d23c 2702 be3b 2feb 123d 9ca1 803d
00000100: c7e5 3abd 779a 193d 5d95 85bd 37f0 c93b
00000110: 8aa7 2cba 52e8 67bd 1637 75bc 0f60 78bd
00000120: f05a 77bd 3ff2 7b3d ef6e 873d 394c a43a
00000130: 6d1a 523d 5d79 29bd a381 d23c fa94 61bd
00000140: 3fd8 9a3d c879 1c3d a94b 5fbc 02d2 d83c
00000150: b30a 9b3d 2ffa ac3d a47b bc3d d8f5 28bd
00000160: 3b83 d5bb 087e 7dbc 23bf a43b f2dd e23b
00000170: f2cf edbb bb48 b53c 8ac5 c7bc c642 02bd
00000180: 633a babc 86d2 3b3d 5efd 893d 8acd c43d
00000190: ba99 f8b9 ba79 16bd d35a a73b 59cc 8f3d
000001a0: f0b2 b13d afc5 2cbd ac44 ba3d 9d14 97bd
000001b0: db8d ecbc 82fd c23c e48e 1e3d dab8 04bd
000001c0: 3a80 ac3b 0bd5 7abd 65b7 03bd 0ccf a63d
000001d0: 4c0f 443d 0c42 843d cec8 7f3c 05a1 b63c
000001e0: fb9c 3e3d 2940 333d f6cf 86bd f3c3 b4bd
000001f0: ce5e aebb c2d8 61bd a66d 90bb 7490 683a
00000200: c1a5 7cbd 562e d63c 56b0 d7bc a95c 8c3b
00000210: d7ad 90b9 d087 0bbd cb49 143d 5da7 4f3d
00000220: 4857 a1bd d4ed d5bc c421 a73d c4f0 ac3b
00000230: 632d f4bc 0bee b1bd 5251 74bd 6382 823d
00000240: f1a3 9cbd b1f3 5cbc 7bd6 103d 749a 48bd
00000250: d379 3d3d 245c 7abd 7cbb d5bc 51a1 f8bc
00000260: b21d 073d c367 8ebd 989a 913c 0f34 7bbd
00000270: bffe 67bd d6be c9bd 927d b3bd b56e 183d
00000280: 9818 9bbc 7af0 eb3c 5e54 603c c6f5 553d
00000290: 08ca 4dbd 0495 903d 00b8 9d3c a2ad 8bbb
000002a0: dda5 2bbd ccb2 35bd 98ed c3bd 87ec 2fbd
000002b0: 9b55 663d 5de3 a13d 2b39 4bbc 7263 75bc
000002c0: 88aa 46bc d498 8e3d 6791 723c d663 8ebc
000002d0: b190 7f3d 7e17 1bbd 1eba 2fbd 823b bb3c
000002e0: 22ec aa3c 340a 813d 9e78 56bc 1cc8 093c
000002f0: bdb0 52bd 7a43 44bd 1123 56bd b4aa 093c
00000300: fded 72bc acdf 42bd 86e0 58bb 8663 2d3d
00000310: 13f4 f5bc 5aa8 793d 64da 0e3d faca fb3c
00000320: 6cf5 a73d f4c2 123c 1b86 ca3c f17e f73b
00000330: 2989 803c b4cf a13d cac2 65bd 3066 013d
00000340: 8f8a ddbc a4fa 723d c2ab a63d 1984 363d
00000350: 810d 433d 55ff 02bd 9878 b43d bbd5 b93d
00000360: 9529 473d a425 bc3d 311f 37bd 7b12 073d
00000370: b039 58bd 4237 883d 3543 5cbd bc0b 7c3d
00000380: 88be 683d 8fac 413c c6f6 4a3d 2ad7 b73d
00000390: 5a60 30bb f2bb ebbc 73ef b63c 068d 04bc
000003a0: cd17 2e3d f6a2 57bd c5cb 16bd a4e5 ac3d
000003b0: 875f b43d 8bf8 7b3c 2186 883d dcfa 73bb
000003c0: 5c5d ac3d ca00 18bd df0c 3a3d 3133 863c
000003d0: 95f7 62bd 553a 2e3d 6eab bd3b fbd3 6a3d
000003e0: 2b33 a33d 56c6 82bd cdc0 83bd 68d9 fc3c
000003f0: dce6 943d 5050 923c a198 96bd 2abd 913d

fc1.bias f4 [100]
0.08667872 -0.042628475 0.046104964 -0.03327078 0.038812988 0.017180128 -0.0311968 0.07682261
0.046509884 0.009588763 0.008238232 0.026955554 0.07063485 -0.054913 -0.004930332 -0.0089339
0.0044666715 0.05786546 0.020916587 -0.035325885 0.033293054 -0.04126337 0.074259825 0.03144984
0.07400543 -0.05473896 0.09107703 -0.012539752 0.040140662 -0.003007744 0.06717808 0.010126295
0.04791948 0.08110248 0.05623307 0.033329573 0.0769289 0.062190216 0.070576206 0.09083167
0.011254104 0.012546158 0.08524407 0.031525765 0.080523014 0.029701289 0.0049640904 -0.010631667
-0.03930582 -0.02293502 -0.027955094 -0.018452503 -0.024066389 0.06744851 0.042851936 0.01911521
-0.0486729 -0.055694852 0.07267034 0.047272254 0.0041565364 0.06424841 0.015968794 -0.008925674
-0.046661858 -0.053237025 0.00011747795 -0.037096404 -0.05634438 -0.04343236 0.07094809 -0.03854751
0.08949553 -0.012878792 0.061925165 0.057773024 0.035781913 -0.019835586 0.014298457 -0.010109673
0.03199014 0.056466512 0.0031676819 -0.016233841 -0.004371855 0.072723046 -0.07383736 -0.02009038
0.0075870818 0.05920524 -0.041130647 0.04305303 0.090116665 0.00789825 -0.049567554 -0.017233646
0.032305952 0.04434355 0.0074115475 -0.01126804
00000000: 9d84 b13d 329b 2ebd 8fd8 3c3d f146 08bd
00000010: 5efa 1e3d 57bd 8c3c 6e90 ffbc 2c55 9d3d
00000020: 2681 3e3d 301a 1d3c a6f9 063c e5d1 dc3c
00000030: 01a9 903d 74ec 60bd 9f8e a1bb 7e5f 12bc
00000040: 285d 923b 5504 6d3d 4359 ab3c e0b1 10bd
00000050: 4c5e 083d c803 29bd 8915 983d 8cd1 003d
00000060: 2990 973d f635 60bd 9886 ba3d 8873 4dbc
00000070: 896a 243d 921d 45bb a994 893d c2e8 253c
00000080: 3747 443d 0f19 a63d a654 663d 9784 083d
00000090: e68c 9d3d 2bbb 7e3d 428a 903d f405 ba3d
000000a0: 2263 383c 678e 4d3c 7194 ae3d 2921 013d
000000b0: 40e9 a43d 1e50 f33c cfa9 a23b 7230 2ebc
000000c0: 24ff 20bd 39e2 bbbc 1502 e5bc b429 97bc
000000d0: e026 c5bc 7222 8a3d 8385 2f3d 8097 9c3c
000000e0: 3c5d 47bd 4920 64bd 30d4 943d 8da0 413d
000000f0: 8e33 883b ac94 833d fdd0 823c fd3c 12bc
00000100: 8120 3fbd 110f 5abd 7f5e f638 66f2 17bd
00000110: 5dc9 66bd 21e6 31bd 3b4d 913d fee3 1dbd
00000120: 6f49 b73d 9201 53bc 3ea5 7d3d 68a3 6c3d
00000130: 0e90 123d 3d7e a2bc 1344 6a3c 0ba3 25bc
00000140: 1808 033d 6e49 673d e298 4f3b d5fc 84bc
00000150: c741 8fbb d2ef 943d 0b38 97bd 9594 a4bc
00000160: 0e9d f83b 3281 723d 9c78 28bd 6058 303d
00000170: 168f b83d a967 013c 5907 4bbd 932d 8dbc
00000180: 3f53 043d 95a1 353d 91dc f23b 969d 38bc

fc2.weight f4 [50, 100]
-0.053618763 -0.06618521 0.03763407 0.093233645 -0.05237832 -0.0617585 -0.01647485 -0.05078023
0.014416595 -0.009676495 0.047157463 -0.04281187 0.09701115 -0.058424044 0.04721254 -0.028845144
-0.065287665 0.10219015 -0.020452218 -0.007012109 0.08383547 -0.014578243 -0.039953414 0.039272457
-0.06450212 -0.078602284 0.08469849 -0.031775985 -0.04158786 0.123295926 0.08432813 -0.10405795
0.058423426 -0.10404022 -0.053630393 -0.039775375 0.066576086 0.089579046 0.070863396 0.0041851113
-0.0623104 0.058448337 -0.0043305047 0.09538333 -0.078585885 -0.009614015 -0.03791288 0.038974967
0.08805021 0.02535207 0.068850175 0.09189682 0.022373922 -0.021144636 -0.019625666 -0.037069257
-0.07392813 0.0028500191 0.098197855 -0.010698494 0.038857915 -0.05595613 -0.058015674 0.080300115
-0.058114506 0.078992166 -0.039454844 0.028257351 0.016382163 -0.07178093 0.018945469 0.06345258
0.043127622 0.051327217 -0.00940365 0.08504394 -0.008994978 0.076745875 -0.022793612 0.07974962
-0.05051162 0.09024915 0.043217354 -0.05389763 0.08758661 0.10881319 0.102118544 -0.11182214
0.049499787 0.0775392 -0.09957891 -0.07228935 -0.099473596 0.07630899 -0.10692086 0.07224924
-0.05442182 0.030878434 -0.12192415 -0.048506983 0.05995853 -0.12680666 -0.03824175 0.009274135
0.03722326 -0.0068417317 -0.08776178 0.011051526 0.026261643 0.0045053707 -0.025079397 0.07347396
-0.011328676 0.06424407 -0.018145021 -0.087317355 -0.06450516 -0.06730378 0.09098565 -0.03300423
-0.023932092 -0.030021675 -0.0056008706 0.06779318 -0.043771744 0.042224966 0.03037231 0.007278839
0.04464301 0.037142567 0.077192456 0.063234635 0.015485402 0.055424877 -0.08637912 0.06050694
-0.09039424 -0.08384523 0.05058114 -0.06106497 0.02880157 0.038455535 0.09109603 0.053254515
-0.06926578 -0.12481502 -0.02110005 -0.003073567 0.1279797 0.04090777 -0.011745446 0.020445077
-0.037377995 0.043506302 0.12706569 0.050975557 0.082607836 0.09366139 0.08306031 -0.08298849
0.0568256 -0.016704692 -0.09025769 0.08980101 -0.035194788 -0.053721454 -0.08599651 -0.101256326
0.039527457 -0.0506333 0.1005602 -0.07803697 0.018600797 0.04102477 0.085597254 -0.021563074
0.039567113 0.06044431 -0.030593788 0.017525418 0.122832745 0.09038006 0.10125921 -0.092949174
0.037415426 -0.055417288 -0.0370133 -0.0022327488 -0.06881676 0.083962396 -0.045497388 -0.08778835
-0.028919138 -0.07333051 0.07065942 -0.06847534 0.10942245 0.077614866 -0.072123736 -0.05799579
0.034147024 0.0044629155 0.057017293 -0.07566526 -0.053571865 -0.027294729 -0.06667595 -0.04297532
0.064483546 -0.07686958 0.054678842 -0.05366286 -0.07680159 -0.069356136 0.056628745 -0.08298149
0.025149938 0.09042168 -0.07569823 -0.05807478 0.031656124 0.076368324 0.08580892 -0.0008067298
0.07317801 -0.09759177 -0.04988004 0.04435597 0.059165876 -0.07074263 0.012682378 -0.022284899
-0.03168866 -0.054816782 -0.011970443 0.060986824 -0.006405855 0.048387222 0.111447275 -0.038530186
0.07639591 0.07855592 0.097264454 -0.02997188 0.041179135 -0.013728155 -0.02708448 0.07030814
0.11141394 -0.051976614 -0.0748952 0.057972558 -0.06427785 0.021637097 0.11794266 0.035441093
00000000: 599f 5bbd 1d8c 87bd 2f26 1a3d 48f1 be3d
00000010: a68a 56bd 7bf6 7cbd 44f6 86bc eefe 4fbd
00000020: 9533 6c3c 298a 1ebc 2f28 413d 805b 2fbd
00000030: c8ad c63d 0d4e 6fbd f061 413d a74c ecbc
00000040: 8ab5 85bd 1249 d13d 698b a7bc d5c5 e5bb
00000050: eeb1 ab3d 95d9 6ebc 31a6 23bd 28dc 203d
00000060: b019 84bd 3cfa a0bd 6776 ad3d 8927 02bd
00000070: 0858 2abd 9382 fc3d 3ab4 ac3d 561c d5bd
00000080: 674d 6f3d 0a13 d5bd 8bab 5bbd 81eb 22bd
00000090: 0b59 883d 3875 b73d d420 913d 4223 893b
000000a0: 3139 7fbd 8667 6f3d e8e6 8dbb 5658 c33d
000000b0: a3f1 a0bd 1a84 1dbc 894a 1bbd 37a4 1f3d
000000c0: ab53 b43d 25af cf3c 5201 8d3d 6634 bc3d
000000d0: 8449 b73c 8437 adbc 01c6 a0bc efd5 17bd
000000e0: a267 97bd 63c7 3a3b f51b c93d bc48 2fbc
000000f0: 7a29 1f3d 4132 65bd d8a1 6dbd 6374 a43d
00000100: 7a09 6ebd a5c6 a13d 679b 21bd f67b e73c
00000110: e333 863c e101 93bd 8733 9b3c 6df3 813d
00000120: 97a6 303d 7d3c 523d c411 1abc 842b ae3d
00000130: ac5f 13bc f12c 9d3d abb9 babc c553 a33d
00000140: 46e5 4ebd 8cd4 b83d ae04 313d c3c3 5cbd
00000150: 9c60 b33d 73d9 de3d 8723 d13d 0203 e5bd
00000160: 4ac0 4a3d dfcc 9e3d 07f0 cbbd 700c 94bd
00000170: d0b8 cbbd e347 9c3d 53f9 dabd 69f7 933d
00000180: 6ae9 5ebd c5f4 fc3c 5eb3 f9bd 42af 46bd
00000190: 1397 753d 9bd9 01be 62a3 1cbd 8bf2 173c
000001a0: 6b77 183d 9b30 e0bb 73bc b3bd 7611 353c
000001b0: a822 d73c caa1 933b 4f73 cdbc 8479 963d
000001c0: e99b 39bc 6592 833d dea4 94bc 71d3 b2bd
000001d0: 481b 84bd 90d6 89bd af56 ba3d 722f 07bd
000001e0: 3c0d c4bc 04f0 f5bc 8287 b7bb 27d7 8a3d
000001f0: 004a 33bd 16f4 2c3d 5acf f83c 5483 ee3b
00000200: 97db 363d ce22 183d 1417 9e3d 2981 813d
00000210: 7cb6 7d3c 3205 633d 89e7 b0bd 20d6 773d
00000220: 9e20 b9bd 0cb7 abbd 2b2e 4f3d 431f 7abd
00000230: 45f1 eb3c 8d83 1d3d 8e90 ba3d 6821 5a3d
00000240: 38db 8dbd 049f ffbd 03da acbc e66d 49bb
00000250: 1c0d 033e e88e 273d f96f 40bc 6f7c a73c
00000260: ab19 19bd aa33 323d 821d 023e bfcb 503d
00000270: 4c2e a93d 8bd1 bf3d 861b aa3d dff5 a9bd
00000280: f6c1 683d 47d8 88bc 06d9 b8bd 98e9 b73d
00000290: 6928 10bd 070b 5cbd f01e b0bd 7a5f cfbd
000002a0: 8be7 213d dd64 4fbd 82f2 cd3d d9d1 9fbd
000002b0: b360 983c 9709 283d 9d4d af3d 0ba5 b0bc
000002c0: 2011 223d 7494 773d d39f fabc 7791 8f3c
000002d0: bc8f fb3d 2e19 b93d fd60 cf3d 235c bebd
000002e0: eb40 193d 3dfd 62bd 429b 17bd 4f53 12bb
000002f0: cdef 8cbd 7af4 ab3d 785b 3abd 61ca b3bd
00000300: d4e7 ecbc 4e2e 96bd e3b5 903d cd3c 8cbd
00000310: e118 e03d 8bf4 9e3d 9cb5 93bd fe8c 6dbd
00000320: c0dd 0b3d a63d 923b f78a 693d 63f6 9abd
00000330: 2c6e 5bbd 3299 dfbc 678d 88bd e406 30bd
00000340: f30f 843d cc6d 9dbd ecf6 5f3d 96cd 5bbd
00000350: 274a 9dbd 970a 8ebd 8bf3 673d 33f2 a9bd
00000360: 3e07 ce3c 002f b93d ac07 9bbd d2df 6dbd
00000370: daa9 013d ff66 9c3d 96bc af3d b87a 53ba
00000380: 5ade 953d 32de c7bd 034f 4cbd 9bae 353d
00000390: eb57 723d 83e1 90bd c0c9 4f3c d28e b6bc
000003a0: f8cb 01bd 9087 60bd ad1f 44bc 52cd 793d
000003b0: 35e8 d1bb ae31 463d 783e e43d d4d1 1dbd
000003c0: 7575 9c3d ede1 a03d 9632 c73d 9787 f5bc
000003d0: 74ab 283d 0eec 60bc 45e0 ddbc b7fd 8f3d
000003e0: fe2c e43d 6ee5 54bd a862 99bd a274 6d3d
000003f0: 1ba4 83bd 4840 b13c ec8b f13d ae2a 113d

fc2.bias f4 [50]
0.040410634 -0.06731907 0.0103186015 -0.026080718 -0.059435617 0.113871075 -0.01368244 -0.082264274
0.03786252 -0.07476625 0.026589554 0.054963995 -0.019543312 0.041173145 -0.03453432 -0.023598248
-0.026651295 0.10131939 -0.080084875 0.109148115 -0.07060761 -0.018185247 -0.07300325 -0.017542198
-0.03224632 -0.03045171 0.021924889 -0.0709988 0.08282458 0.10498665 0.101907425 -0.03201549
-0.008071378 0.08610032 0.04187621 -0.071992956 -0.06436078 -0.07505915 0.046164665 -0.055797614
0.031963218 -0.05113204 0.10525466 -0.099034026 0.024262061 0.014333314 0.00925631 -0.025235029
0.06094236 -0.039104152
00000000: 9f85 253d 95de 89bd 5a0f 293c 3ba7 d5bc
00000010: c372 73bd 3d35 e93d 502c 60bc 2c7a a8bd
00000020: bb15 1b3d 0c1f 99bd 56d2 d93c ed21 613d
00000030: 4c19 a0bc 2ca5 283d dc73 0dbd 1d51 c1bc
00000040: d153 dabc 8a80 cf3d 8a03 a4bd 0c89 df3d
00000050: b99a 90bd 3af9 94bc ba82 95bd a8b4 8fbc
00000060: b814 04bd dd75 f9bc d39b b33c d267 91bd
00000070: ef9f a93d 3e03 d73d d7b4 d03d ad22 03bd
00000080: d03d 04bc 5d55 b03d 6486 2b3d 0b71 93bd
00000090: 96cf 83bd 9db8 99bd 2917 3d3d 0a8c 64bd
000000a0: ddeb 023d d46f 51bd c18f d73d 5ad2 cabd
000000b0: 3bc1 c63c 47d6 6a3c c7a7 173c b1b9 cebc
000000c0: b29e 793d ad2b 20bd

fc3.weight f4 [4, 50]
0.11472972 0.14266624 0.16483769 -0.1409093 -0.108914085 -0.08871253 0.051907998 -0.068271585
-0.051971424 0.0050203367 -0.10888696 0.10658794 0.028118005 -0.12199892 0.13182352 0.17294414
0.08091977 -0.15425406 -0.14796367 0.034878083 -0.037946418 0.04850934 -0.1270511 0.029996868
0.103509806 0.1576054 -0.16628036 -0.049645852 -0.002510435 -0.106259614 0.10093356 -0.11328738
-0.09239504 0.13613378 -0.07407251 -0.120686226 0.029631687 -0.06323561 0.038498282 -0.018144066
-0.04004421 -0.10620373 -0.12291042 -0.028309818 0.045222033 -0.063363396 -0.13312669 -0.14040418
-0.09851976 -0.0126328105 0.05832527 -0.09911217 -0.033891898 -0.10020733 0.074247696 -0.0006425673
-0.0038215145 0.16801202 0.11438401 0.15777521 -0.119175255 -0.1651219 -0.056661494 -0.022395814
-0.03641208 -0.11067256 -0.13651761 -0.029133903 -0.060864046 0.076198235 0.050033953 0.01855473
-0.13141659 -0.017113978 -0.062895 -0.1246596 -0.09270617 0.14606741 0.041621923 -0.1500483
0.094123155 0.05853523 -0.021811873 -0.08227885 0.038566362 0.08753458 -0.14008363 -0.048773956
0.042927098 0.13924377 0.087149076 0.045948673 0.1445579 -0.00025592456 -0.0061753034 -0.07952358
0.005082996 0.03204953 -0.07844455 0.036016703 -0.14099768 -0.050482877 0.1042121 0.15311071
-0.14137295 0.07912002 -0.012452532 -0.114424855 -0.0057932623 -0.081820056 0.1330506 0.00221602
0.1721305 0.042505983 -0.12972227 -0.03141799 -0.10606234 0.0765558 0.13025708 -0.022292066
0.08178348 -0.06575296 -0.106629096 0.033454597 -0.0978284 -0.026859552 -0.070255145 -0.0031128582
-0.15275213 0.021254448 -0.036483843 0.07017738 0.10058433 0.14058793 0.07200822 -0.1374888
-0.115111716 -0.008322104 -0.15662959 -0.13411357 0.08270883 -0.08151554 -0.114527464 -0.07170122
0.040424407 -0.02084942 0.13355629 0.07793872 0.033645403 -0.051085755 0.123664066 0.044922385
0.10920109 0.06055746 -0.10832067 0.0016026511 0.12615968 0.046913233 0.024632031 -0.15578979
-0.104369015 -0.12919597 -0.060259946 0.06104445 -0.084208764 -0.013824963 0.013043651 0.010591378
0.04472383 -0.05350601 -0.05337716 0.15917781 -0.004375542 0.1227045 0.055144787 -0.13857631
-0.067130774 -0.12486826 -0.038147923 -0.053909488 -0.111781664 -0.111819185 -0.014346312 0.11541879
-0.023130389 -0.15733151 0.13962778 0.1483208 0.14514343 -0.10081245 0.10770863 -0.08522808
0.12764184 -0.028573653 -0.16874042 0.061207164 0.05702937 -0.041918013 -0.04701301 0.17545532
00000000: 6af7 ea3d 1917 123e 36cb 283e 874a 10be
00000010: 590e dfbd eaae b5bd 7b9d 543d f9d1 8bbd
00000020: fddf 54bd a381 a43b 2000 dfbd c74a da3d
00000030: bb57 e63c 92da f9bd bffc 063e 4518 313e
00000040: 44b9 a53d c7f4 1dbe ca83 17be 52dc 0e3d
00000050: b46d 1bbd bbb1 463d af19 02be febb f53c
00000060: f3fc d33d 4f63 213e 6645 2abe 7359 4bbd
00000070: 1c86 24bb a49e d9bd 41b6 ce3d 3703 e8bd
00000080: 9c39 bdbd a766 0b3e 54b3 97bd 572a f7bd
00000090: 27be f23c ac81 81bd 60b0 1d3d dda2 94bc
000000a0: 6605 24bd 5781 d9bd 75b8 fbbd fee9 e7bc
000000b0: bd3a 393d abc4 81bd 5d52 08be 1dc6 0fbe
000000c0: bac4 c9bd d9f9 4ebc 7ae6 6e3d 52fb cabd
000000d0: 3bd2 0abd 8039 cdbd 2d0f 983d f671 28ba
000000e0: 6072 7abb 580b 2c3e 2a42 ea3d d38f 213e
000000f0: 2812 f4bd b715 29be e215 68bd 6d77 b7bc
00000100: d524 15bd 4ca8 e2bd 46cb 0bbe 39aa eebc
00000110: 944c 79bd d20d 9c3d 67f0 4c3d 1700 983c
00000120: 1292 06be 9d32 8cbc 18cf 80bd 884d ffbd
00000130: bcdc bdbd b292 153e c07b 2a3d 43a6 19be
00000140: a4c3 c03d a3c2 6f3d d0ae b2bc d081 a8bd
00000150: c3f7 1d3d 5445 b33d 1572 0fbe 33c7 47bd
00000160: 53d4 2f3d eb95 0e3e 377b b23d ad34 3c3d
00000170: fc06 143e 9d2d 86b9 335a cabb 42dd a2bd
00000180: 438f a63b 5e46 033d 89a7 a0bd 4086 133d
00000190: b261 10be 22c7 4ebd 276d d53d 0ec9 1c3e
000001a0: 12c4 10be ad09 a23d b405 4cbc 9457 eabd
000001b0: 68d5 bdbb 4691 a7bd 6b3e 083e a53a 113b
000001c0: fa42 303e c11a 2e3d ead5 04be 26b0 00bd
000001d0: 3637 d9bd 4ac9 9c3d 1d62 053e da9d b6bc
000001e0: 197e a73d 7da9 86bd 5b60 dabd b007 093d
000001f0: 425a c8bd 9008 dcbc eee1 8fbd 1801 4cbb
00000200: 0e6b 1cbe cf1d ae3c 1570 15bd 29b9 8f3d
00000210: 28ff cd3d 48f6 0f3e 0c79 933d ddc9 0cbe
00000220: b1bf ebbd 6f59 08bc 8263 20be 1155 09be
00000230: 3f63 a93d 9ff1 a6bd 608d eabd 17d8 92bd
00000240: 1094 253d 67cc aabc fbc2 083e 569e 9f3d
00000250: c3cf 093d 4c3f 51bd 9643 fd3d 8900 383d
00000260: d2a4 df3d 190b 783d 3ad7 ddbd 0c10 d23a
00000270: 0130 013e 1728 403d 1dc9 c93c 5c87 1fbe
00000280: 6cbf d5bd f34b 04be 22d3 76bd bf09 7a3d
00000290: a575 acbd 1982 62bc 0ab5 553c 7687 2d3c
000002a0: 5630 373d 1e29 5bbd 02a2 5abd 82ff 223e
000002b0: b560 8fbb 7f4c fb3d 80df 613d f3e6 0dbe
000002c0: dc7b 89bd eeba ffbd ff40 1cbd 32d0 5cbd
000002d0: c9ed e4bd 7501 e5bd cb0c 6bbc b060 ec3d
000002e0: f17b bdbc 831b 21be 96fa 0e3e 68e1 173e
000002f0: 7ba0 143e c276 cebd 5896 dc3d 0f8c aebd
00000300: 8bb4 023e 4b13 eabc 4aca 2cbe 5db4 7a3d
00000310: a197 693d 39b2 2bbd b790 40bd 8faa 333e

fc3.bias f4 [4]
0.10318169 -0.10297323 -0.08232334 0.10015266
00000000: ec50 d33d a1e3 d2bd 2499 a8bd d61c cd3d
